docs/audio/amp/amp_full.pt (torch, 143755 bytes, 24 tensors)

weight f4 [32, 1, 9]
000000 4e c7 30 3d 79 1a 15 be 30 7c 90 bd 09 2f ea be
       0.04315882 -0.1456088 -0.07054937 -0.4573901
000010 22 b4 ac be 99 ed 9d be af e0 09 3e 19 98 e8 3e
       -0.3373118 -0.30845335 0.13464616 0.4542854
000020 dd 19 03 be b5 8e 01 3e 67 32 4a be e4 a8 3c 3e
       -0.12802835 0.12652095 -0.1974579 0.18423802
000030 08 ac 84 3e 3a c6 20 3d 25 76 9c be 6c e3 67 be
       0.259125 0.039251544 -0.30558887 -0.22645348
000040 3f 28 02 3e 2e 13 ca be 80 80 06 3e 43 7b a9 3e
       0.12710665 -0.39467758 0.13134956 0.33101854
000050 ad 42 23 3f ab 0f ed 3e e6 6a 74 be 02 01 8c bd
       0.63773614 0.46301016 -0.23868904 -0.0683613
000060 5f d9 c0 be 12 be c8 3c 88 56 f6 be 0d 2c 1c bf
       -0.3766584 0.024504695 -0.48112893 -0.61004716
000070 35 e6 1f 3e 79 08 3a 3f 11 cf 27 3f be 35 69 bd
       0.15615161 0.7266918 0.65550333 -0.05693602
000080 5b ec fb be 19 0f 1c bf 82 dd c8 bc 69 87 6c 3e
       -0.49203762 -0.6096054 -0.024519686 0.2309853
000090 93 f1 8d bd a0 36 23 bf c0 de 47 be 7f 4a 70 be
       -0.06930842 -0.63755226 -0.19518566 -0.23465918
0000a0 da cf 13 3e a1 6a 4f 3e 92 04 f0 bd 0b 14 1c 3e
       0.14434758 0.2025552 -0.11719622 0.15242021
0000b0 90 1a 1b 3e bd 3e e2 be 35 c3 08 bf 37 02 d8 bd
       0.15146852 -0.4418849 -0.5342286 -0.105472974
0000c0 68 f0 a4 be 70 96 24 bf a6 2a ac 3e 20 36 c9 3e
       -0.32214665 -0.6429205 0.33626288 0.39299107
0000d0 01 9d 00 be 8e a0 21 bf 29 0b 4a 3e 6b 3d 02 3f
       -0.12559892 -0.6313561 0.1973082 0.50874966
0000e0 1f e5 1d 3e 66 1c 11 3e b6 47 0e 3f e2 20 57 be
       0.15419434 0.1417099 0.5557817 -0.21008638
0000f0 72 42 58 bd a9 85 0b be cc ba d3 be 37 0c 35 3f
       -0.052797742 -0.13625206 -0.41353452 0.70721763
000100 a9 a4 3d be b5 ab 00 3e a1 dc de 3d c4 e2 56 3d
       -0.18519844 0.12565501 0.108819254 0.052462354
000110 c4 40 79 bf fb 7d 80 bf c5 14 1f 3e b0 d9 b1 bf
       -0.9736445 -1.0038446 0.15535267 -1.3894558
000120 13 23 9f 3d 6e ad 52 be bc 1c ee be 34 49 6f be
       0.07770362 -0.2057397 -0.46506298 -0.23367769
000130 74 d3 0f bf 18 04 ac be ce 9f 77 3d f6 60 49 bd
       -0.56182027 -0.33596873 0.060455136 -0.049164735
000140 80 91 27 3e 93 9a 3c be c2 70 af 3e 2e 72 91 3e
       0.16364098 -0.1841834 0.34265715 0.28407425
000150 8f bb d2 3e 66 d7 66 be 09 67 d4 be b4 57 20 bf
       0.4115872 -0.22543105 -0.4148486 -0.62633824
000160 f1 4b 03 3e da b9 73 3e 85 cb 2e 3e b6 3f 0b be
       0.12821938 0.23801365 0.17069824 -0.13598523
000170 af 46 02 bd fd 7b 7f 3e 15 80 8a 3e 7d c5 6b be
       -0.03180569 0.24949642 0.27050844 -0.23024555
000180 3a 33 bb be af f1 69 3d 9f a8 4e be 35 cb 40 3e
       -0.3656252 0.057115253 -0.20181511 0.18827517
000190 82 0f c0 3e bd f8 cf 3e 82 9b 37 3f 04 1b 9b 3e
       0.37511832 0.4061946 0.7172166 0.3029405
0001a0 bf 9c 3b 3d 1b 92 76 3d da b2 84 bd 17 d2 1a be
       0.04580378 0.06019793 -0.06479426 -0.15119205
0001b0 73 a2 6e be 92 f4 80 bf 26 6e 3a bf 9b da a7 be
       -0.23304157 -1.0074637 -0.72824323 -0.3278397
0001c0 b3 ba b6 be 88 b4 cb 3d 08 49 ad bd f4 54 d1 be
       -0.35689315 0.09946543 -0.08461195 -0.40885127
0001d0 69 40 a9 bd 78 b7 da be a2 1d 28 bc 2c b1 1d bf
       -0.082642384 -0.427181 -0.010260971 -0.6159847
0001e0 ec 45 45 bf 47 c4 55 3d 3b 9a 61 be 0c 5d fe 3d
       -0.7705982 0.052189138 -0.2203149 0.12420091
0001f0 67 79 58 3e c0 9b 51 3e d9 a5 42 be f9 1a 6a be
       0.21140061 0.2046957 -0.19008578 -0.22861852
000200 64 18 1d be 85 34 9c 3c 6b 1d ff bd 0e 49 14 be
       -0.15341336 0.019068012 -0.12456783 -0.14480993
000210 9b 69 42 be 7e 9f 8f bd bd 5b bc 3e 96 62 d1 be
       -0.18985598 -0.070128426 0.3678874 -0.40895528
000220 44 66 2a 3e 82 09 3a 3f 15 b1 ac 3e 28 b9 a9 3e
       0.16640574 0.7267076 0.33728853 0.33149076
000230 d0 76 00 3f d4 15 23 be a7 2d 26 3e 1c 3e 86 be
       0.50181293 -0.15926296 0.16228352 -0.2621926
000240 55 63 c6 bd 7c 15 06 3f 1a 7e a8 bc 84 92 80 3e
       -0.09686915 0.5237653 -0.020567942 0.25111783
000250 98 d9 59 be b7 95 2c 3e 24 6d 10 bf 9c 3f a7 bc
       -0.21274412 0.16853987 -0.56416535 -0.020416074
000260 45 45 2c 3e b5 1e c5 bd f9 86 e7 be f0 72 9f be
       0.16823299 -0.096249975 -0.45220163 -0.31142378
000270 23 78 ba be 60 29 0f bd 48 b9 c6 3d a4 f7 ad 3e
       -0.36419782 -0.034951568 0.09703308 0.33977997
000280 95 72 07 3e 8a dd a2 3e a4 f1 05 be ba dc 2e 3f
       0.13227303 0.31809646 -0.1308046 0.6830555
000290 b1 5a e9 3e 7a 60 6d 3e 48 68 19 3f 2f 9c 1b be
       0.45577005 0.23181334 0.59924746 -0.15196298
0002a0 26 4e 4b be cd 80 3e 3e de a0 27 3e 8a 96 87 be
       -0.1985403 0.18603821 0.1636996 -0.2648204
0002b0 97 92 c6 be b4 fd 8f be 85 9f fe be 6b bd cb be
       -0.38783714 -0.28123248 -0.4973108 -0.39792952
0002c0 04 25 00 bf 8d 1e 54 3e 6b e2 00 3e b5 55 33 3e
       -0.5005648 0.20714779 0.12586372 0.17513163
0002d0 52 cf c6 3e 41 59 a0 be 41 db 53 be ac 27 b7 3d
       0.38830048 -0.31318095 -0.20689107 0.08943114
0002e0 a8 45 56 be ac 3a 11 3f d2 02 68 3f fe 32 a9 3c
       -0.20925009 0.5673015 0.90629303 0.020654198
0002f0 89 8e dd 3e f5 11 5a be 8f 43 fa bd b8 2d 3a bf
       0.43272808 -0.21295913 -0.12219917 -0.7272601
000300 4c c6 f5 be b5 67 e0 be 25 12 ba bd 8b 6d 45 3e
       -0.4800285 -0.43829122 -0.09085492 0.19280069
000310 99 c2 1e 3e 95 42 b1 bd 53 b5 b8 3e 4f 60 59 3c
       0.1550392 -0.08655278 0.3607584 0.013267591
000320 c3 22 69 bb 35 ea 4a be 85 f6 61 3e ed b9 d8 3b
       -0.0035573698 -0.19815905 0.22066696 0.006613961
000330 92 1d 79 3d ab 35 c3 be 8e 74 a3 3e c9 b0 da 3e
       0.060819216 -0.38126883 0.31924862 0.42713
000340 4c ff 8e 3e 86 54 c8 3e 13 7a 01 3e 02 ee d8 bd
       0.2792915 0.39126986 0.12644224 -0.105922714
000350 80 1b e7 be 38 b7 e0 be fc 9f 9c 3d 52 61 10 be
       -0.45138168 -0.43889785 0.07647702 -0.14099625
000360 2a 81 f2 3c ce ac c6 be 9a 70 a3 bc fa 16 a3 be
       0.029602606 -0.38803715 -0.019951154 -0.31853467
000370 fe c5 43 be cb 20 5e 3e 6e 57 42 3e 42 ce 7b 3e
       -0.19118497 0.21692197 0.18978664 0.245904
000380 a7 ff e7 3e c0 20 7f 3e e1 ff 32 3e e6 d9 ad 3e
       0.45312235 0.24914837 0.17480423 0.33955306
000390 38 04 86 3d ac 1f 2d be 39 1c fe 3e aa 5b 8c be
       0.065437734 -0.16906613 0.49630907 -0.27413684
0003a0 29 e4 9f be e2 dc 84 be d5 50 7c bf bd 9f 54 be
       -0.3122876 -0.2594977 -0.9856084 -0.2076406
0003b0 03 21 ca be 59 63 4d 3e 26 52 5e bc fc 5a 54 3e
       -0.3947831 0.2005743 -0.01356939 0.20737833
0003c0 03 4f b3 3d 42 69 d5 3d 73 59 72 bd f3 b5 a4 3e
       0.08755305 0.10420467 -0.059167337 0.32170066
0003d0 d1 25 59 be 27 3c 6f 3e 7f a5 0f bf 5b bc dc be
       -0.21205832 0.2336279 -0.561119 -0.43112454
0003e0 46 be 2a bf 9b 8b 6c bd 65 c9 92 3e b4 d1 56 be
       -0.66696584 -0.057750326 0.28669277 -0.20978433
0003f0 64 c7 1f 3f 06 c5 d0 be 96 75 80 3e af 6e 43 be
       0.6241362 -0.40775317 0.2508971 -0.19085191

bias f4 [32]
000000 00 52 46 be 2c 02 2c 3e dd 79 20 bd 63 76 6e be
       -0.19367218 0.16797704 -0.039178718 -0.23287348
000010 9f bd 34 be b3 01 2d be 13 11 35 3e 79 b7 83 bd
       -0.1765046 -0.1689518 0.17682295 -0.06431479
000020 ab 7d 97 bd db e5 04 3e 14 5b 95 3e ec 06 01 3d
       -0.07397016 0.12978308 0.2917105 0.03150074
000030 dc 44 39 3d 50 b5 43 3d 4b 0e 84 be 34 fa 55 3d
       0.045231685 0.047780335 -0.25792155 0.052240565
000040 91 ff ba bd c0 f8 8f 3d cd 44 02 3e f0 fd 80 bd
       -0.09130777 0.07029867 0.12721558 -0.06298435
000050 9a ed 7e 3d 2f 6e 07 be 4e 0f 07 be 64 d5 a6 3e
       0.062238313 -0.13225625 -0.13189432 0.3258468
000060 74 c7 ee 3d c7 ad a7 3e a3 f8 76 3e 1f b4 11 be
       0.116591364 0.3274977 0.24118285 -0.14228867
000070 1c fd 84 be 11 d7 be bc 09 ab 88 3d 71 98 57 bd
       -0.25974357 -0.023295911 0.06673247 -0.052635614

weight f4 [64, 2]
000000 fd 2e 33 3e f0 41 22 bf e7 1f 32 bb 35 3d f0 be
       0.17498393 -0.6338186 -0.002717966 -0.46921697
000010 54 1d 0e 3f e7 1e 1b bf 92 5b 0b be 18 98 4e be
       0.555135 -0.6059403 -0.1360915 -0.20175207
000020 3b 46 0d bf 8a 25 07 3e 6a 2e a4 be 3b 74 b5 bd
       -0.5518529 0.13197914 -0.3206666 -0.0886006
000030 1f f1 d9 be 75 bb 3c 3e 38 cd 67 be bc 20 0a 3f
       -0.42566773 0.18430884 -0.22636878 0.539562
000040 2c 2c 0a bf 26 fc f0 3e 03 7b a9 3d 93 09 38 be
       -0.5397365 0.47067374 0.08275416 -0.17972402
000050 99 9f 2e bf b8 45 fc 3e fc 9f 84 3e 86 72 f7 3e
       -0.68212277 0.4927194 0.25903308 0.48329562
000060 7a a8 2a 3f 32 fe 21 3f 88 64 f6 3e 2b 43 0f bf
       0.66663325 0.63278496 0.48123574 -0.55961865
000070 73 59 4e be bd d7 b2 be 4b 0b eb 3d c0 f0 29 3f
       -0.2015131 -0.3493022 0.11476763 0.6638298
000080 a2 fc 5b 3e f1 a4 01 bf 83 14 23 bf 2c f3 b0 be
       0.2148309 -0.50642306 -0.63703173 -0.34560525
000090 3d 6f 78 3e 4b f8 25 bf 6d 1e 03 be 1b b2 88 3e
       0.24261184 -0.6483199 -0.12804575 0.26698384
0000a0 34 70 25 3f 9f 1a 07 3f 8f 2c ca be 42 64 0c bf
       0.64624333 0.52774996 -0.3948712 -0.5484048
0000b0 b5 5d 2f bf 31 15 13 3e 7e 09 11 bf 1f b0 62 be
       -0.6850236 0.14363553 -0.5665511 -0.22137497
0000c0 e0 54 35 be 73 66 8e be 76 3b 2e 3f d6 23 f1 bb
       -0.17708158 -0.27812538 0.6805948 -0.0073590083
0000d0 24 7a ea 3e 0b 05 a7 3e 65 e8 0e 3f 09 3c b1 bd
       0.4579631 0.32621035 0.55823356 -0.08654029
0000e0 88 4c 83 3e 10 15 6b bd 76 8c d4 3e be b9 1d bd
       0.25644326 -0.057393134 0.41513413 -0.038507216
0000f0 ea e0 0c 3f 93 09 e2 be 3f c6 06 3f a4 40 bc 3d
       0.5503069 -0.4414793 0.5264625 0.09192017
000100 22 c3 cb be 6e ee 24 3e 02 17 2e 3f 3a 25 0a bf
       -0.39797312 0.16106579 0.6800386 -0.53963053
000110 c9 98 f9 3e 1a fc 2c bf 5d 25 02 3f af 47 aa 3e
       0.48749378 -0.67572176 0.5083826 0.33257815
000120 5e 11 03 3e b5 db 92 be 74 7c d2 bd e7 7b bf be
       0.12799594 -0.28683248 -0.10277644 -0.37399217
000130 0c 53 e2 be f6 4b a4 3e bf 10 57 3d f7 ed 05 bf
       -0.44203985 0.32089204 0.052506205 -0.5231623
000140 af 04 2d 3e 06 a8 c2 3d 6e f9 a0 bd fa 7a 01 be
       0.16896318 0.09504704 -0.07860075 -0.12644568
000150 5c 7c cf bd 22 1f 35 3e 3c d5 a7 be 97 f0 ab 3e
       -0.101311415 0.17687657 -0.32779872 0.33581993
000160 0f 43 08 be 22 6b 94 be c1 df 57 bd 27 cc 1a bf
       -0.13306831 -0.28987986 -0.052703623 -0.6046776
000170 e1 9c e3 3e ea e4 a2 bc c7 d7 b5 be ff fd c1 be
       0.44455627 -0.019884545 -0.35516188 -0.37889096
000180 0a 27 21 3e e0 89 cc be 53 25 95 3e d5 cd db be
       0.15737548 -0.3994894 0.2913004 -0.42930475
000190 9e b9 63 be 7b ef 5c 3e ae db 2c bf bc 5f e1 be
       -0.22238776 0.2157573 -0.67522705 -0.44018352
0001a0 72 1a 29 be 56 ba 11 bd 77 db 4f 3e 72 ff 18 3f
       -0.16513994 -0.035578094 0.20298563 0.5976478
0001b0 ee 05 12 bf 7b 8d 8c 3c 12 46 f4 3e fc c6 bb 3e
       -0.570403 0.017157307 0.4770971 0.3667525
0001c0 a8 c2 7c 3e ff f0 cb 3e ee ab 99 be 5e 5b 2d 3f
       0.2468363 0.39832303 -0.30013984 0.6771754
0001d0 6b 1b 7d 3e 35 f9 2e 3f d1 20 78 3e 31 3d de 3d
       0.2471749 0.6834901 0.24231268 0.10851515
0001e0 88 e8 8a be 94 fb c3 be fb 4b d0 bd 44 f0 45 3e
       -0.27130532 -0.38277876 -0.10170742 0.19329935
0001f0 ee 44 2d 3f cd dd bf bd 0c cf e8 be e1 5d b7 be
       0.67683303 -0.09368477 -0.45470464 -0.3581381

bias f4 [64]
000000 49 1f 29 bf 11 b8 46 3e 45 2e 6e bf 02 70 bb 3e
       -0.6606336 0.19406153 -0.9303935 0.36608893
000010 57 f0 d3 3e 03 5f 4f bf 66 f6 c4 3e 03 0c 4f 3f
       0.41394302 -0.8100435 0.38469237 0.80877703
000020 41 bb 25 3f 8f b6 51 3f 0d 90 33 3f 50 74 2b 3f
       0.6473885 0.8191919 0.7014168 0.66974354
000030 4f a0 cf be f5 32 0a 3f ef 9a bf 3d 21 da 80 3f
       -0.40551993 0.53984004 0.09355723 1.0066568
000040 19 0d 99 bd ef 28 79 bf c9 3a 4f 3f ea d6 ce 3e
       -0.07473201 -0.97328085 0.80949074 0.4039834
000050 25 f0 82 bf ee d6 60 3f 07 6f 1d bf 8d 65 44 3f
       -1.0229536 0.87827957 -0.6149754 0.76717454
000060 a4 7f 20 bf f1 ec 0e 3e 12 30 7c 3f 5d ce fb bd
       -0.62694764 0.13957573 0.9851085 -0.1229522
000070 88 59 19 3f 02 ea f5 bc e3 98 99 3f ef ce b4 be
       0.5990224 -0.03001881 1.1999782 -0.35314128
000080 20 54 9b bc 0a e9 fc 3e 78 f8 f0 3d 54 2a 20 3e
       -0.018961012 0.49396545 0.11766142 0.15641147
000090 2b 67 1f 3e 5d 92 19 bf cf ee 62 be 76 cf 32 bf
       0.15566699 -0.5998896 -0.22161411 -0.6984781
0000a0 1d 44 93 be 5f 1d 01 3d d1 08 91 be 73 b3 a8 be
       -0.28762904 0.03152215 -0.2832704 -0.3294941
0000b0 5c 9c 25 bf 6d 3a 9c be d3 83 b7 3e a7 b7 e7 3e
       -0.6469171 -0.30513325 0.3584276 0.45257303
0000c0 1c b4 1d 3f 98 41 95 bd 4e 5e 0d bf 7e b4 53 3e
       0.6160295 -0.07287902 -0.5522202 0.20674321
0000d0 31 67 08 bf e5 de 00 3f aa 82 27 be 9d bf e3 be
       -0.5328246 0.5034011 -0.16358438 -0.44482127
0000e0 38 6f 01 bf 33 5b d1 be 7f b6 26 3e 6d 8e 64 3e
       -0.5056033 -0.40889892 0.16280554 0.22319956
0000f0 86 48 99 be b6 19 67 3e 50 58 ab 3e 5a 27 28 3f
       -0.29938143 0.22568402 0.33465815 0.65685046

weight f4 [32, 1, 1]
000000 aa 0c b7 be 8b 80 73 bf 91 5a 4c 3f 7b 62 4b bf
       -0.3575185 -0.95118016 0.79825693 -0.79447144
000010 ac d2 01 3f 62 cb 9c bd 90 27 4c bf d5 8e 6c bf
       0.50712085 -0.0765598 -0.7974787 -0.92405444
000020 50 9b c1 3e b7 8b 44 be 11 2f 6e bf 31 07 e0 bd
       0.37813807 -0.19193922 -0.9304057 -0.10938872
000030 e5 cb d5 be 48 8b 20 3e dd e1 27 be 75 be 80 3d
       -0.41757122 0.15678132 -0.16394754 0.06286327
000040 b3 79 9b be 66 c9 14 3c b5 7d 2e bf 2f b3 38 3f
       -0.30366287 0.00908122 -0.68160564 0.7214841
000050 53 a6 01 bf c1 32 07 be ce f9 30 bf 41 38 6c bf
       -0.50644416 -0.13202955 -0.6913117 -0.92273337
000060 dd 60 5f bf 2d d0 ef 3c 1f 2d f8 3e 1e f6 9c 3e
       -0.87257177 0.02927407 0.48471925 0.30656523
000070 b3 1c 07 bf 4d 50 0e 3f 4d 5b a4 3d d9 f9 f8 bd
       -0.52778167 0.5559128 0.08025227 -0.1215703

weight f4 [32, 32, 9]
000000 69 c8 01 be d3 6e 44 bd c7 01 cc bd 4c 78 b5 3d
       -0.12674107 -0.047957253 -0.099612765 0.088608354
000010 3a 29 6e bd e5 6e 50 bd db ea 90 bc ec 6e 8f bd
       -0.058144785 -0.050887007 -0.017690113 -0.070035785
000020 16 c5 77 3e 4e 4d 10 3d aa 67 51 ba c0 e9 7e bd
       0.24196276 0.035229973 -0.00079881644 -0.06223464
000030 f3 6e 83 bd a8 a8 1e 3d 7f cf 96 3c 04 8b 0c 3d
       -0.06417646 0.038735062 0.018409489 0.034312263
000040 9c 80 0f 3c c4 ae 81 3c 3f 11 93 3c 85 0d 8a bd
       0.00875869 0.015830405 0.01795256 -0.0674086
000050 04 ca 0a 3d 84 78 1b 3e 3f 2e 12 3d 96 7f 15 3e
       0.033884063 0.15182692 0.035688635 0.14599451
000060 49 d3 24 be bc 53 03 be e2 56 1e be 9f 96 10 bd
       -0.16096224 -0.12824911 -0.1546283 -0.035299893
000070 bf 64 5e 3c 8c 1c 72 bc 1d 9f a5 bc 0b c7 9c bc
       0.013573824 -0.014777314 -0.020217473 -0.01913788
000080 d4 4d 62 3d be cf 05 be 77 32 3a 3e d2 ce c6 3c
       0.055250004 -0.13067529 0.18183313 0.024268541
000090 ec 36 c5 3c 8b 75 0b bc 37 59 c9 3d 3f c6 92 3d
       0.02407404 -0.008511911 0.098314695 0.07166719
0000a0 bf e6 35 3d f3 da 57 3c bd f8 cf 3c ca c8 a8 bb
       0.04440951 0.01317476 0.025387162 -0.005150889
0000b0 3f 4e 8b bd e9 1e 34 3d af fb 6a 3d f2 78 83 bd
       -0.06802034 0.04397479 0.05736893 -0.06419553
0000c0 d4 5e c0 3c 89 6d 53 3d 7a 0f 65 bd f9 92 ae 3c
       0.023482718 0.051618133 -0.055922963 0.021310316
0000d0 48 22 ed 3b 47 12 33 3d 04 c9 11 3d cc 1f ad bc
       0.0072367527 0.043718603 0.035592094 -0.021133326
0000e0 ac 39 3c bd 74 8f a3 3a 2f ef a5 3d 16 70 8a bd
       -0.045953438 0.0012478665 0.08102261 -0.0675966
0000f0 3e 65 00 bd e0 c0 0a 3e 5a 47 a3 3d e1 d5 57 3a
       -0.031346552 0.13550138 0.079725936 0.00082334696
000100 f8 15 27 bb f5 58 02 3d 89 e2 07 bd 27 6a 13 3d
       -0.0025495272 0.031823117 -0.033175025 0.035989907
000110 d7 74 08 bd e4 6f 61 3c f5 9d ff 3d 9e 3f 05 3d
       -0.033314552 0.013759587 0.124813 0.032531373
000120 96 3b b4 bc a5 c4 f4 bb 21 d9 d6 3d 35 26 81 bb
       -0.022001069 -0.007469731 0.10490633 -0.003941322
000130 11 d0 15 3d bb f3 c7 3d 7b d2 84 bc 2c 5a cf bb
       0.03657538 0.09763285 -0.016213646 -0.006327888
000140 5b 4a ef bd 8b df 09 bd 24 b6 c3 3d e3 4d 16 bd
       -0.11684104 -0.033660453 0.09556225 -0.036695372
000150 bd e0 e1 bd 53 82 fc 3c c1 39 f8 3c b1 0d 57 be
       -0.110291936 0.030823862 0.030300977 -0.21001317
000160 48 c3 0a 3e b6 75 22 3e 73 c4 91 3d 5c ce 7d 3c
       0.13551056 0.15865216 0.07117548 0.015491094
000170 3c ac 73 3d 9f e7 91 bd 67 6c 67 3d a6 1c b4 bd
       0.059490427 -0.07124256 0.056499865 -0.08794527
000180 20 bd cf bc 0c fc 26 3e 74 a7 32 3d 3e ac 68 bd
       -0.025358737 0.16307086 0.043616727 -0.056804888
000190 67 0f 49 bb b2 91 27 be c1 a9 af 3c 17 1e ae bd
       -0.0030679347 -0.16364172 0.02144325 -0.08501833
0001a0 08 c7 64 bd 08 ad b3 3d cd 59 76 bc 44 62 3e 3e
       -0.055853873 0.087732375 -0.015036059 0.18592173
0001b0 1f c1 3e bd 0e f1 9f bc 1d 28 45 bd 44 92 aa 3c
       -0.046570893 -0.019524124 -0.048133958 0.020821698
0001c0 8e a4 d8 3c 5b 97 84 bc a6 65 8b bc 75 03 82 3c
       0.026445653 -0.016185453 -0.017016243 0.015870789
0001d0 94 39 a0 3c f0 7d 97 3d a0 2d e7 3b 0a d1 ef 3d
       0.019558705 0.073970675 0.0070549995 0.11709793
0001e0 fa c6 04 3e b9 89 95 bb 24 de 09 3e 67 b5 23 bb
       0.12966529 -0.004563537 0.13463646 -0.002497995
0001f0 64 25 6a 3d a1 fe 57 bd 66 31 0c 3b a0 f1 77 bd
       0.057164565 -0.052733067 0.0021391748 -0.060533166
000200 9a 39 e2 3c f0 7e 59 bc b0 ef 49 bc ae 37 aa bc
       0.027615357 -0.013274893 -0.012325212 -0.020778503
000210 9b f9 10 bd 64 9c b2 bb 1c a3 f1 ba f5 e4 eb bb
       -0.035394292 -0.005450772 -0.0018435451 -0.0071989247
000220 7a 6f 61 bd c9 9c 53 bd 99 bf 5f 3a 84 b7 66 3b
       -0.055037953 -0.051663194 0.0008535325 0.0035204599
000230 ac 29 c0 bc 70 79 a5 3d 8d 21 6f 3d 00 fa 73 bc
       -0.02345737 0.08079803 0.058381606 -0.014891148
000240 d4 36 7b bd 3b cb 89 bd 83 69 53 3d 9c 15 2f bd
       -0.061331585 -0.06728216 0.051614296 -0.042745218
000250 ef a0 9e bc 6b 80 65 bd 65 a5 be 3b a8 5b aa 3b
       -0.019363848 -0.056030672 0.0058180564 0.0051989146
000260 d8 ad 58 3b ce 0a c3 bd a5 e7 2c 3d 2a 65 d2 bd
       0.0033062603 -0.09523545 0.0422131 -0.10273202
000270 82 c3 59 be b3 77 de 3d 13 21 fd bd 3c 83 a5 3d
       -0.21265987 0.108626746 -0.12359824 0.080816716
000280 3a f1 30 3e d7 1b 45 3e fb 91 63 3d 03 71 88 bc
       0.1727952 0.19248901 0.05555914 -0.01665545
000290 29 fe ba bd cc a8 76 3b 1d d8 75 bc 06 a6 4e bd
       -0.091305085 0.0037637232 -0.015005139 -0.0504513
0002a0 09 8d 52 3d d3 7b 15 3d 0c 39 3a 3d aa d8 ea 3c
       0.051404033 0.03649504 0.04546456 0.028667767
0002b0 a4 03 0e bd be bc c2 3d a1 6f 96 bc f3 ad 8c 3d
       -0.03467144 0.09508656 -0.018363776 0.06869116
0002c0 94 2f 2d 3c 03 c9 70 bd c6 14 20 bd 40 50 b8 bd
       0.010570426 -0.05878545 -0.03908231 -0.089996815
0002d0 37 98 70 3d 5c 26 8a 3d da 11 70 3d f9 28 20 3c
       0.058738913 0.06745598 0.058610775 0.009775394
0002e0 62 ca cb 3d c8 ee 3f 3c ee 3e 6e 3d 16 98 c0 3d
       0.09950711 0.011714645 0.058165483 0.09404008
0002f0 f7 b8 a0 ba 07 3f 62 bd 66 3d 9c bc 93 bb fa 3d
       -0.0012262155 -0.05523589 -0.019072246 0.12242808
000300 5a 21 51 3d f0 41 1f 3d 48 0a 58 3d 20 e7 95 bb
       0.051057197 0.038881242 0.05274418 -0.0045746714
000310 e6 b4 f0 3c 7c 6d 10 be a0 3b 73 3c 4b 88 22 bc
       0.029383134 -0.14104265 0.014845759 -0.00992019
000320 db 2e 0a 3d 25 b0 a6 bd 60 cf 4f bb 22 d1 97 bc
       0.03373609 -0.08139066 -0.0031709298 -0.01853234
000330 7c 29 e9 bc 57 58 a4 3d be a6 18 3d 5f 33 07 bc
       -0.028462164 0.08024662 0.037268393 -0.008251994
000340 7c b6 91 3d 79 21 db 3c 3c 1c c0 bc b9 49 cf 3d
       0.07114884 0.02674936 -0.023450963 0.10121483
000350 fb 79 61 bd d2 f5 01 bd 6f 02 dc 3d 99 d4 de 3d
       -0.05504797 -0.031728573 0.10742652 0.108803935
000360 d6 d7 64 3d 87 bf 62 3d d6 bb 18 bd f7 19 d6 bc
       0.0558699 0.055358436 -0.03728851 -0.026135428
000370 46 3b 99 3d ef d2 5a bd 70 c0 bc bc 6b 02 f4 3d
       0.07482009 -0.05342382 -0.02304098 0.11914524
000380 a4 be f9 bb 14 e7 e4 3c a6 2f 04 3d 33 32 3f bc
       -0.007621603 0.027942218 0.032272004 -0.011669683
000390 93 78 3b 3d 39 0f 07 bb 3b 98 c3 bb cf 07 f1 3c
       0.045769285 -0.0020608439 -0.005969075 0.029422669
0003a0 78 33 4d 3d b1 6b 72 3c e1 2f fb 3c eb 1c c1 bc
       0.050097913 0.014796183 0.030662479 -0.02357336
0003b0 79 e1 df 3c e1 20 2a bc 90 29 c5 bc 4d 89 ba 3b
       0.027329193 -0.0103838155 -0.02406767 0.005692637
0003c0 66 aa 99 bd cf b3 5f bc d2 ac e3 bd 28 cf 20 bc
       -0.07503204 -0.01365371 -0.11116947 -0.009815015
0003d0 8d b5 99 bd c3 45 2d bd 4a c7 89 3b f3 4b 85 bc
       -0.07505331 -0.042302858 0.0042046653 -0.016271567
0003e0 b5 2a 1c bd fe 74 62 3c 69 aa 74 3c 61 d3 91 bd
       -0.038126666 0.013821838 0.014933207 -0.071203955
0003f0 3a 20 31 3d fb 9d b6 3c 4d 5d a9 3d ba 85 a5 bd
       0.043243624 0.022292128 0.08269749 -0.08082147

bias f4 [32]
000000 1b 8b 25 3d 30 dc 88 bc 37 1c 1f 3d 1b bc 48 bd
       0.040415864 -0.016706556 0.038845267 -0.049007516
000010 5c 32 7f 3d bb 1a 3c 3d 41 93 2f 3d ec f4 e3 3c
       0.062303886 0.04592393 0.04286504 0.027826749
000020 30 1a 31 bd d5 46 16 bd d7 d9 34 3d be d4 b9 bc
       -0.043237865 -0.036688644 0.04415306 -0.022684451
000030 1f cb d8 3b 27 96 2c 3d 83 bd 58 bd 87 cf a6 bc
       0.006616011 0.042135384 -0.052915107 -0.020362629
000040 91 15 90 bc ab 93 54 bd 4d db 9d bb 25 59 e0 bc
       -0.017588409 -0.05189864 -0.0048174025 -0.027386257
000050 d6 d6 6b bd bf 5c 2b 3d 38 7d 88 bd 38 ee 8e 3d
       -0.05757793 0.041836496 -0.066645086 0.0697903
000060 81 02 4f bc c0 50 59 3d 4f 95 07 3d cc 0a 8a 3c
       -0.012634874 0.053055525 0.033101376 0.016850851
000070 2f df 1f 3d 83 04 85 3c f8 fe 2c 3d 41 3d a0 3c
       0.039031204 0.016237503 0.042235345 0.019560458

weight f4 [64, 2]
000000 45 e6 19 3f 47 7b 15 bf 7d cd 05 3f 5f 42 bf be
       0.6011699 -0.5839123 0.52266675 -0.37355325
000010 05 16 27 bf b5 59 33 bf a9 60 a9 be c5 e8 4a be
       -0.65267974 -0.7005876 -0.33081558 -0.19815357
000020 10 67 0f 3e 69 df 66 be 80 de e0 be 4c 11 fb 3e
       0.14004159 -0.22546162 -0.43919754 0.49036634
000030 8f e8 b3 3d 5f 4c 33 bf ac 28 fa be 96 a0 f1 3e
       0.087845914 -0.7003841 -0.48859155 0.4719283
000040 7e 16 94 3e 2d 9b df be 31 83 c1 3c cd 01 f0 be
       0.2892341 -0.43673077 0.023622127 -0.46876374
000050 e4 b3 20 3f 16 75 11 bf 01 4d f5 be c1 4f 25 bf
       0.6277449 -0.56819284 -0.47910312 -0.6457482
000060 61 13 f8 3e 3c df 05 3f 46 01 26 3e 83 7b 0e bf
       0.48452285 0.52293754 0.16211423 -0.55657214
000070 d7 1e c7 3e f9 b1 01 3f 67 94 02 bf 57 da db bd
       0.38890716 0.5066219 -0.51007694 -0.107350044
000080 a4 ab 91 be 26 2f 90 3c 64 7c f9 3e ab c0 30 3f
       -0.28451264 0.017600607 0.48727715 0.6904399
000090 30 ad e9 3e d1 3f 0b 3e d3 7b b2 bb 3a 0c 01 3f
       0.45639944 0.13598563 -0.00544689 0.5040928
0000a0 c3 15 96 3e 8c 9c 89 bd b1 f2 ce bd 30 b3 c5 be
       0.29313478 -0.06719312 -0.101048835 -0.38613272
0000b0 74 ff 4c be f4 b4 32 bf 13 97 1b bf 9c 06 fa 3e
       -0.20019323 -0.6980736 -0.60777396 0.48833168
0000c0 26 ea 62 3e 37 71 b3 be a6 dd 09 bf 7e cb 25 3f
       0.22159633 -0.35047314 -0.53853834 0.6476363
0000d0 ea 2e 82 3d 13 12 b9 3e 8e dc d2 3e 80 d7 40 3e
       0.063566044 0.36146602 0.41183895 0.18832207
0000e0 11 3d 91 be 7f 1f 1c 3f 27 4c b2 be d0 12 7f 3e
       -0.28366902 0.6098556 -0.34823725 0.2490952
0000f0 3e 99 46 bd 35 ca d5 be ab 1c ee 3c 04 2f 1a bf
       -0.048485987 -0.41755834 0.029066404 -0.6022799
000100 65 b8 e6 be d1 52 6c 3d 6a cd 5f bd 38 dd e4 3e
       -0.45062557 0.057696167 -0.054639257 0.44700027
000110 e3 05 2f bf 42 e0 20 3f ba d4 1e bf 8f 34 cc 3e
       -0.6836836 0.6284219 -0.62043345 0.3988385
000120 2f db 13 3e 08 cc 8d 3a 23 d7 b3 be cc c8 34 3f
       0.1443908 0.0010818252 -0.35125074 0.7061889
000130 b2 c3 80 3e 6f 30 42 ba 06 b7 84 be d5 d5 4a 3e
       0.25149304 -0.000740773 -0.25920886 0.19808133
000140 7b cd 24 3f a6 29 79 be 66 73 24 bf 09 a5 82 be
       0.6437604 -0.24332294 -0.64238584 -0.25516537
000150 c9 9c cd 3e 21 16 04 3f bb 49 30 bf e6 fe 27 be
       0.4015868 0.51596266 -0.68862504 -0.1640583
000160 35 f3 77 be fd 35 23 3f f2 92 9c 3e 18 c0 e9 be
       -0.2421387 0.63754255 0.3058086 -0.45654368
000170 c6 9d b5 be 4f cb 6d 3e 26 42 13 3f 2c 12 a5 be
       -0.35471934 0.23222087 0.5752281 -0.32240427
000180 0a 0b 69 bd b3 04 18 bf 1d ad e0 3e ea 96 0f bf
       -0.056895293 -0.5938217 0.43882075 -0.5608965
000190 56 3a b7 be 02 a7 ca 3b 28 09 27 bf 37 b6 13 3f
       -0.35786694 0.0061844597 -0.65248346 0.5769991
0001a0 6f ac ee be 28 8c 08 bf 03 29 df 3d 53 37 30 3f
       -0.4661593 -0.5333886 0.10896494 0.6883442
0001b0 56 58 71 3d 93 a5 26 bf 6a 9a 31 bf 6d 15 00 3f
       0.058922134 -0.65096396 -0.6937624 0.50032693
0001c0 a6 59 e3 3e d9 51 24 be c6 ae 1a 3e a3 a4 80 be
       0.44404334 -0.16046847 0.15105733 -0.25125608
0001d0 79 f0 8d be ef 3c 22 be 77 fb 39 3e 8b 36 66 be
       -0.2772253 -0.15843557 0.18162332 -0.22481744
0001e0 c2 ff 00 3f 92 36 58 3e f5 85 05 bf 50 63 a9 3e
       0.50390255 0.21114567 -0.5215753 0.33083582
0001f0 db 27 b0 be d8 df 09 3f a9 af 50 be cb f4 aa 3e
       -0.34405407 0.53857183 -0.20379509 0.33389887

bias f4 [64]
000000 0c ad 0e bf 68 8a b9 3e 6e 9e ce 3e 4f 7d 26 bf
       -0.557328 0.36238408 0.40355247 -0.65034956
000010 d9 cf ea 3e 50 19 2e 3f 05 38 49 bf 8c d5 26 3f
       0.458617 0.68007374 -0.78601104 0.65169597
000020 5e 43 46 bf a6 c2 47 bf ef 33 4a be 16 48 06 be
       -0.77446544 -0.78031385 -0.19746374 -0.13113436
000030 a2 57 36 3f ce 86 31 3f b5 d1 fa 3e a3 95 5c 3f
       0.7122747 0.6934632 0.4898812 0.8616583
000040 a9 a0 85 3f 3e ee ce be 27 00 b8 be 0a c2 29 3f
       1.0439655 -0.4041614 -0.35937616 0.66311705
000050 86 5c e7 3e a0 39 56 bf 7d f3 25 3e e6 8b a1 be
       0.45187777 -0.8368168 0.16206165 -0.31552047
000060 f4 af 38 bf a2 b2 1d 3f d7 ee 1d bf de 3c 00 3f
       -0.72143483 0.616007 -0.61692566 0.50092876
000070 d2 57 ca 3e 17 6b ca 3e 64 42 e1 be 97 60 cb 3d
       0.39520127 0.39534828 -0.43995965 0.099305324
000080 b4 2d 0a 3d 05 51 f9 3d 05 a4 b3 3e b0 bb 6c bc
       0.033734992 0.121736564 0.35086074 -0.014449045
000090 2d fa 8c be 11 5c f6 be 02 31 01 bf 0a d3 e6 3d
       -0.2753462 -0.48117116 -0.50465405 0.11270721
0000a0 f2 4a b3 3e ac 59 86 3e 02 29 25 3f b5 95 1e 3f
       0.35018116 0.2624029 0.645157 0.61947185
0000b0 b6 a2 80 3e b7 16 55 be 5b ec d0 3e cc 00 2f bf
       0.2512414 -0.20809446 0.40805325 -0.6836059
0000c0 cc ef 22 bf 41 0b d0 be 22 5f f0 be 83 05 40 be
       -0.6364715 -0.40633586 -0.4694758 -0.18752103
0000d0 d4 2f 69 3d 43 2f 17 bf 01 fe 74 bd 0f 08 c2 be
       0.056930378 -0.5905649 -0.05981255 -0.37896773
0000e0 31 f1 15 bf 53 74 87 be 8c 0c ad be 1d 8c 58 bd
       -0.58571154 -0.26455936 -0.33798635 -0.052867997
0000f0 55 8f c0 be 0b b4 1c 3f 3e 12 60 3e ee df e8 3e
       -0.37609354 0.61212224 0.21881959 0.45483345

weight f4 [32, 32, 1]
000000 76 e9 61 be df ab 89 bc c3 ea f3 3d 72 5b 4e 3d
       -0.22061715 -0.016805587 0.119100116 0.050380178
000010 8c 41 76 bd ca 73 8d 3d fd 83 7f 3d e3 11 cb 3d
       -0.060121104 0.06906851 0.062381733 0.09915521
000020 c9 f4 c3 bc 48 61 53 be f2 09 e0 bd fc 81 07 be
       -0.023920434 -0.20642579 -0.10939397 -0.13233179
000030 a5 18 7b bd 51 a0 26 3e 7a b1 8b bd af 45 20 be
       -0.0613028 0.16272093 -0.0682096 -0.15651582
000040 27 59 d3 3d 7c 71 cd bd c7 4e 56 3d 23 47 0c 3e
       0.10319739 -0.10031411 0.05232122 0.13699012
000050 7d b3 90 3d 83 d7 cf bc 6a 92 86 3d 81 64 a2 3b
       0.07065485 -0.025371319 0.06570895 0.0049558287
000060 20 8e a7 bd 79 29 d7 bd d4 f0 56 be 6b cf 9d bc
       -0.08181405 -0.10505957 -0.20990306 -0.019263944
000070 c4 6b b9 3c 48 0b 42 3c 54 6a 4e bd 96 92 a1 bd
       0.022634394 0.01184351 -0.05039437 -0.07889287
000080 28 a1 26 3e 97 e5 06 3d 29 ad 8c bb 3f 0e 46 3e
       0.16272414 0.032933798 -0.0042931032 0.19341372
000090 80 84 16 3d bf bf a3 3d a5 34 42 bc a8 8f 13 3c
       0.036747456 0.07995557 -0.011853372 0.009006418
0000a0 31 e0 19 be f2 67 6f 3e 5a 9b 41 3e ed c9 bd 3d
       -0.15026928 0.23379496 0.18906918 0.0926703
0000b0 9e a8 87 3d aa c9 6d 3d 36 37 91 bd 8b 6e e7 bd
       0.06623958 0.05805365 -0.07090609 -0.11300381
0000c0 70 d5 86 bd 71 f9 35 3e ad f5 fd 3d ba 5f 99 bd
       -0.06583679 0.17770936 0.124003746 -0.074889615
0000d0 88 df 1c 3e 35 60 9b 3d 40 32 c5 3d 2a 84 86 3d
       0.15319645 0.075867094 0.09628725 0.06568177
0000e0 96 96 03 3c 8a a6 f7 3d 6d be c4 3c ee 76 0d be
       0.008031508 0.12092312 0.024016583 -0.138149
0000f0 56 5b f2 bc c2 95 67 bd 73 a4 18 bd 76 6d a2 bd
       -0.029584568 -0.056539305 -0.037266206 -0.07931034
000100 05 44 38 be 7c 4b 79 bd 6f d2 b7 bc a4 f3 a9 3d
       -0.17994697 -0.060863003 -0.02243921 0.08298424
000110 ac 15 04 3b af ff 3f bd c5 92 00 bd 6f 16 03 3e
       0.002015452 -0.0468747 -0.03138997 0.12801526
000120 89 97 0a 3e 30 e8 2d be 67 1b d3 3d 88 18 8d 3d
       0.13534369 -0.16983104 0.10307961 0.068894446
000130 f8 60 34 bd 31 01 02 bd 8e fd 22 bd ce 78 34 be
       -0.04403779 -0.031739417 -0.03979259 -0.17624208
000140 fd f5 bb bd eb 48 6b 3d de d5 40 3e ba 42 ce bb
       -0.09177778 0.057442587 0.18831584 -0.0062945755
000150 e8 22 89 bd 41 3e 79 3d fa 67 25 be d7 7b 40 3e
       -0.06696111 0.060850386 -0.16152945 0.18797241
000160 e3 5d 1e 3d 3f 52 64 3c 85 54 87 bd 30 81 98 3d
       0.038663756 0.013935625 -0.06607918 0.074465156
000170 9e 83 da 3d 2e 41 ed bd 40 99 ee bd 8d 28 51 3d
       0.10669635 -0.11584698 -0.11650324 0.051064063
000180 63 3e b7 bd 4f ad a5 bd 2d 78 60 be 8d 09 e7 bd
       -0.08947446 -0.080896966 -0.21920843 -0.112811185
000190 4b 5f e4 3c 80 8a 85 3d 5d 35 a7 3d b8 9d fd 3d
       0.02787747 0.065205574 0.08164475 0.12383598
0001a0 2c 24 68 bd 09 d8 26 3e be de 13 3e aa 2c 37 3e
       -0.05667512 0.16293348 0.14440438 0.17888132
0001b0 ec 06 87 3d 08 4c 62 be 98 ff 86 bd c1 29 48 3e
       0.06593117 -0.22099316 -0.065917194 0.19547178
0001c0 ef 48 b0 3c 89 5c a6 3b 0f ef 58 bc 02 1b b3 bd
       0.021519152 0.005076949 -0.01324059 -0.08745386
0001d0 c8 63 01 be e6 17 7c bd 9c 8a a5 bd 93 8a 1d 3c
       -0.1263572 -0.06154623 -0.08083078 0.009615558
0001e0 be 41 01 3e 7e 03 ef bc 2f af a8 3d f0 9a f8 3d
       0.12622735 -0.02917647 0.082365386 0.12138927
0001f0 3e 17 10 be c1 db 00 3e 1d f4 35 be eb 8b 0b 3e
       -0.14071366 0.1258383 -0.17768903 0.13627593
000200 ca e6 2e 3e 04 f8 e5 3d c2 5c 92 bc 3d ba 39 3e
       0.17080227 0.11228946 -0.017866496 0.1813745
000210 b0 02 39 be a7 59 9b bd 07 3c e1 3d 9e 50 a4 bc
       -0.18067431 -0.07585459 0.109977774 -0.020057973
000220 9f 58 48 be 97 c8 4b 3e 32 c0 fa 3d 32 72 e7 3d
       -0.19565056 0.19900738 0.122436896 0.11301078
000230 8c 05 a4 bd a3 54 41 be a1 6d 23 be de 2e 85 3d
       -0.080088705 -0.18879943 -0.15959789 0.0650308
000240 24 af 89 3d c4 09 0c 3e 29 dc dc bc d9 12 23 3e
       0.067228585 0.136756 -0.02696045 0.15925159
000250 5f 93 d1 3d 44 1e 86 bd 2d fa 9d 3d 23 41 3a 3e
       0.10233187 -0.065487415 0.07713733 0.1818891
000260 8e 5e dc 3d d4 c7 5c 3c 03 e4 80 bd 94 b0 7b 3d
       0.107602224 0.013475377 -0.0629349 0.061447695
000270 77 8d 95 bb 42 37 b4 bd 4f bd 6c bd 78 fd 49 bd
       -0.004563983 -0.08799602 -0.057797726 -0.049313992
000280 ef 9b d9 3d 01 40 24 3d ab 61 56 3d 2f 50 88 3d
       0.10625445 0.0401001 0.052339237 0.06655919
000290 f6 58 cc bd ab e0 00 be f1 35 97 bd 33 ce 4f bd
       -0.099779055 -0.12585704 -0.073833354 -0.050733756
0002a0 87 87 e0 3d 67 f4 2f 3d bf 7e 83 bd af 27 fe 3c
       0.1096335 0.04295769 -0.06420659 0.031024782
0002b0 4a fe 90 bd 63 a4 0c be 71 04 e0 3c 56 a9 44 3e
       -0.07079752 -0.13734584 0.027345868 0.19205222
0002c0 69 2f a5 bd 06 eb 0a bc fc 56 4d bd 6e f5 e9 bd
       -0.080656834 -0.0084788855 -0.050131783 -0.11423765
0002d0 ec b5 24 be e8 5d ce bd f6 26 99 bd 7f b4 ac bc
       -0.16085023 -0.10076505 -0.07478134 -0.021082161
0002e0 6f e7 ce 3c c4 14 01 3e bb 1c 30 3d 57 da 02 be
       0.02525684 0.12605578 0.04299615 -0.12778603
0002f0 31 b5 35 bd f8 fa f3 bd d5 51 7b 3d e0 d9 8b bd
       -0.04436225 -0.11913103 0.061357338 -0.06828666
000300 39 c8 a6 bd 06 cf 33 bd 24 b1 eb 3d 34 72 85 bd
       -0.08143658 -0.043898605 0.11508396 -0.06515923
000310 c1 32 21 3d 23 36 07 be 62 19 00 be 5b f6 70 be
       0.039355043 -0.13204245 -0.12509683 -0.23531477
000320 30 7f 98 3c bd 86 8a 3e a2 31 5a bd f3 99 f0 bd
       0.018615335 0.27055922 -0.05326999 -0.117481135
000330 c4 6f 13 3d d2 f0 8e bc 21 ce 60 3e 40 d6 62 3e
       0.03599526 -0.017448816 0.21953632 0.22152042
000340 d7 50 03 3e dd 3b 8f bd ca 55 ac bc df 58 4b 3e
       0.12823807 -0.0699384 -0.021037001 0.1985812
000350 5e fa b4 bd a3 fa 77 3c ae f3 2f be 54 3a 2e be
       -0.08836816 0.01513544 -0.171828 -0.17014438
000360 77 57 a5 3d 39 b8 47 be ac d5 7c 3d 64 bc 19 3d
       0.08073323 -0.19503869 0.06172721 0.03753318
000370 db 04 83 be fb 7d 93 bd e8 5c 8c bc 79 83 ee 3d
       -0.25589642 -0.07201763 -0.017134145 0.1164617
000380 c8 dd bb 3d 04 65 ce bd ce ab f0 3d 5a 01 54 be
       0.09173161 -0.10077861 0.11751519 -0.2070364
000390 fb 34 3e bc e6 4c 89 3c 0e 6e dc bd cf 92 14 3e
       -0.011609311 0.0167603 -0.10763179 0.14509128
0003a0 f9 45 a9 3d b3 48 9f be 0d fa d3 3c 18 3f 5b bd
       0.08265299 -0.31110153 0.02587607 -0.053526968
0003b0 ab 2d f2 3c 52 63 8e bd 0d 76 9c bc 4d 85 83 be
       0.029562792 -0.069525376 -0.01909926 -0.25687638
0003c0 ab e7 54 3d bc 2d d7 3c 22 15 30 be a8 18 bf 3d
       0.05197875 0.026266925 -0.17195562 0.09330875
0003d0 82 5c 15 be ff c9 41 bd 7b 4f e4 bd 2b 28 55 bd
       -0.1458607 -0.04731178 -0.11147972 -0.05204026
0003e0 92 2e 05 be 1d ba c5 3d 20 27 1e 3e e0 76 83 3d
       -0.13006046 0.09654639 0.15444613 0.06419158
0003f0 ea 6d e8 3d c5 bd db 3d 52 04 8e bc fa e9 da 3c
       0.113490894 0.10729555 -0.017336044 0.026722897

weight f4 [32, 32, 9]
000000 88 08 82 bd e4 7f e1 3c e8 df 7d bd 7f 02 e0 bc
       -0.063492835 0.027526803 -0.06198111 -0.02734494
000010 b9 49 9d 3b 50 8b f3 bd 57 6b a5 bc 56 29 8f bc
       0.004800048 -0.11891806 -0.020192785 -0.017475765
000020 ec e0 dc 3b 44 de 2a 3d 08 95 26 bc 78 14 f8 3c
       0.00674068 0.041715875 -0.010167368 0.030283198
000030 cf 3f 1e 3d 04 49 d1 bc f7 b0 b4 39 2c 86 c7 bb
       0.03863507 -0.025547512 0.00034464124 -0.0060889926
000040 f2 75 8d 3d d9 56 b2 3a 07 54 93 bc fd 11 f4 3c
       0.06907262 0.0013606205 -0.017984403 0.029793734
000050 8c 67 65 bd 71 b8 01 bd ce 87 45 bd eb 4c be bc
       -0.056006953 -0.031670038 -0.048225217 -0.023230037
000060 76 13 83 bb 5f a5 5e bd 5e 52 3d bd a8 50 19 bb
       -0.0040001227 -0.05435693 -0.04622113 -0.0023394022
000070 cb b0 d6 3d 4b a1 37 3d cc 96 11 3d fa ec 75 bd
       0.10482939 0.044831555 0.0355442 -0.06004045
000080 83 fd d3 ba b6 56 9c 3d cb 7d 91 3d f1 61 c0 3c
       -0.0016173575 0.07633726 0.07104071 0.023484202
000090 7d cd 69 bb 99 de a8 3d 95 2d df 3c 66 38 9c 3c
       -0.003567546 0.08245582 0.027243415 0.019069862
0000a0 55 9f 2b 3c 0f a5 93 3d cc 23 ef bc 5b 4d 12 bc
       0.010474999 0.07209217 -0.029191874 -0.008929576
0000b0 47 44 da bc 23 ee d3 bb dc d2 11 3c 3a 98 43 bd
       -0.026643885 -0.006467597 0.00890037 -0.047752596
0000c0 98 ca bb 3c a4 24 15 bd 4e d0 29 bd fa 29 9c 3c
       0.022923753 -0.036411896 -0.04145842 0.019062985
0000d0 8b 13 c9 bb df a3 9d 3d ef 15 87 3c eb 86 b5 bc
       -0.006136363 0.076972716 0.016489951 -0.02215906
0000e0 37 10 be bd 24 cc 7f bd 9a 68 c4 3d eb d0 10 bd
       -0.092804365 -0.062450543 0.09590264 -0.03535549
0000f0 48 d2 73 bd 50 80 07 bd 1b 4d 86 3c 6d 71 89 bd
       -0.05952671 -0.033081353 0.016394189 -0.067110874
000100 44 fb 96 bd 09 f2 96 3c c0 7c 3a 3d 7e 79 bf bc
       -0.07372144 0.018425958 0.045529127 -0.023373362
000110 66 4d 51 3c 13 e3 92 bd 79 15 78 bd c0 73 20 bd
       0.012774801 -0.07172217 -0.060567353 -0.039172888
000120 cc ff 01 bd b0 9e cd 3b f4 9f bd bc 84 0e 54 bd
       -0.031738088 0.0062750205 -0.02314756 -0.051771656
000130 ea 49 37 bc 31 30 d8 3c 3c 42 8d 3a 16 98 00 3b
       -0.011187056 0.026390167 0.0010777186 0.00196219
000140 48 fa 95 3d 06 8e 4c bc a2 1f a7 bc 71 02 3b 3d
       0.07323128 -0.012485033 -0.020400826 0.045656625
000150 c5 6b 0e bd 4e 52 b2 bc 86 99 a6 3c af 56 84 bc
       -0.034770746 -0.021767762 0.020336878 -0.016154615
000160 bf af db bc e7 76 ba bc b4 2f 59 3c 42 1f 30 bd
       -0.0268172 -0.022761775 0.013256002 -0.04299856
000170 df d3 90 3a 4e 7f c2 3c ff b1 3a 3d be 8e 34 3d
       0.0011049471 0.023742344 0.045579907 0.044081442
000180 76 4c 17 bd da 3d 06 3d 50 10 19 3c da 3b f2 bc
       -0.036938153 0.03277383 0.009342268 -0.029569555
000190 90 90 12 3c f1 c4 6c bd f2 f0 b6 3c 67 3a ef bc
       0.008945599 -0.057805005 0.022331689 -0.029202653
0001a0 42 21 09 bd 24 8a 4a 3b 9c 86 46 bb c9 b1 4d 3d
       -0.033478983 0.0030905092 -0.0030292636 0.050218377
0001b0 89 f8 fb bc 77 09 ea 3a 76 5f 33 3d fc bd ef 3c
       -0.03075816 0.0017855604 0.04379221 0.029265396
0001c0 a6 03 da bc 17 f8 ac bc 42 57 c0 bc 4c bb d8 bb
       -0.026613068 -0.021114392 -0.023479108 -0.0066141244
0001d0 d5 51 5c 3d 82 be 1b 3d d6 40 58 3d 04 8a dc bc
       0.05378898 0.03802348 0.052796207 -0.02692128
0001e0 20 4d 61 bc 22 9d f6 3c 14 9b a5 bd 3e b4 03 3d
       -0.013751298 0.030104224 -0.080862194 0.032154314
0001f0 63 68 8a bd f4 a6 47 bc 81 ad 6b bd cc 97 56 3c
       -0.067581914 -0.012185801 -0.057538513 0.013097715
000200 00 e3 23 bd e1 31 4e bd b8 51 40 bc 3e ea 28 3d
       -0.040011406 -0.050340537 -0.011738233 0.041239016
000210 e9 cb 25 bd c1 7d 2d bd b9 88 cc 3b 59 b2 b9 bd
       -0.040477667 -0.042356256 0.0062418845 -0.0906722
000220 45 56 46 bc 4f 81 da 3d d7 29 95 3c 09 09 31 bd
       -0.012105529 0.10669195 0.018208427 -0.043221507
000230 af ee 81 3b bc fa 83 bd a3 0c d1 bc 2b f5 d5 3d
       0.003965221 -0.06444308 -0.025518721 0.10447153
000240 df ff 0d bc 7d 3f c0 bd c0 bc 2d bd df be 1b 3e
       -0.008666961 -0.093871094 -0.042416334 0.1520953
000250 65 6e a2 3d 72 e8 62 bd 4d 29 82 3b 77 1f da bd
       0.07931212 -0.05539746 0.0039722086 -0.10650533
000260 b2 29 0f 3e fb 91 5b 3d 6e 2e 8e bd 25 af 0b 3d
       0.13980749 0.053606015 -0.069424495 0.034102578
000270 ec e5 78 3c 3d 46 6a 3c 46 d9 71 bd 87 b7 b8 bb
       0.015191536 0.014298973 -0.0590451 -0.0056371125
000280 1f 88 8e bd 78 23 1a bd 86 8c a5 3b 85 de 6d 3d
       -0.06959557 -0.037631482 0.005052152 0.05807354
000290 a4 eb 9a 39 72 71 8a 3c 14 56 36 3b ee d7 f2 3c
       0.00029548735 0.016899798 0.0027822303 0.029643979
0002a0 e1 10 d6 3c 85 85 d1 bc c3 ff 19 3d e0 d1 73 3d
       0.026131095 -0.025576362 0.03759743 0.059526324
0002b0 cc f0 34 3d 17 5a 17 bb 2e 1e 7f 3d 8a b1 87 bc
       0.044174954 -0.002309447 0.06228464 -0.01656415
0002c0 a9 97 e9 3c e1 a2 68 bd 92 9e f5 bc 1f ac ef bb
       0.0285147 -0.05679596 -0.029982839 -0.0073142196
0002d0 1e fb 4e 3c ea 7c 1c 3c 44 56 60 3d 17 24 c0 3b
       0.012633113 0.009551266 0.05476977 0.0058636772
0002e0 9c 4e 0f 3d fe 7d 28 bd 49 02 41 bd 1d 23 92 3c
       0.034987077 -0.04113578 -0.04712132 0.017839009
0002f0 1c 63 39 3d a9 4d fc 38 a3 57 35 bd ea a9 26 3d
       0.045260534 0.00012030762 -0.04427303 0.040689386
000300 8a 35 88 3d 8e b0 8d 3d 16 52 20 bd aa 90 3d 3d
       0.06650837 0.06918441 -0.039140783 0.04628054
000310 27 c3 3a bd 0c c3 8f 3c 9c 08 30 bc 93 a0 d0 3b
       -0.045596268 0.01754906 -0.01074424 0.006366798
000320 42 a3 97 3d 8b d7 54 3d c2 0e 8e bc 29 d4 7b bb
       0.07404186 0.05196337 -0.017341021 -0.0038426018
000330 5e 08 a7 b8 7a 21 1f bc b8 ad 1a bc 7b 7b 0a bd
       -7.964739e-05 -0.009712571 -0.009440832 -0.033809166
000340 e9 c2 48 3d c1 ca 5b 3c f4 53 23 3c d4 f1 24 3c
       0.049014006 0.0134150395 0.009968746 0.010067422
000350 90 6d 1b 3d fa 5a ea 3b 7f 1e 34 bd ee fd ac b9
       0.037946284 0.0071519585 -0.043974396 -0.0003299559
000360 64 5f 05 bd b7 ec 4c bd b2 2e 17 3e ee 3f cf 3d
       -0.032561675 -0.050030436 0.14763907 0.101196155
000370 c2 c7 82 ba 73 7d 50 bd ef 02 20 3c 7d 3a 98 3d
       -0.0009977745 -0.050900888 0.009766324 0.07433031
000380 07 05 fd 3c 21 d6 35 3d 4d 31 a0 3c 88 e0 82 3c
       0.030886186 0.044393662 0.019554758 0.015976205
000390 69 c5 e6 bc 48 59 0a bd 79 c1 3d bd 36 b9 ad 3c
       -0.028170304 -0.03377655 -0.046327088 0.02120648
0003a0 c2 e0 77 bd 8b 61 54 bd 5b b0 56 bc ea 09 02 be
       -0.06051708 -0.051850837 -0.01310357 -0.12699094
0003b0 ab 7f a4 bd 5a 12 b0 bd 73 54 02 3d 98 4f 39 3c
       -0.08032163 -0.0859725 0.03181882 0.011310481
0003c0 c7 81 4b bd 6e 10 b0 bd eb c9 98 bd 70 e0 24 3d
       -0.049684312 -0.08596884 -0.07460388 0.040253103
0003d0 3a 6d fa bc 8d f5 00 bd dd 4c 40 3c 68 25 a8 bc
       -0.030569661 -0.031484175 0.011737076 -0.02052565
0003e0 fb c4 07 3d 76 44 ba 3c 4f 65 82 3b ca dd 46 bd
       0.03314684 0.022737723 0.003979362 -0.04855136
0003f0 a0 5e ad 3d 7f d9 59 3e ba 65 cf be 4b c9 b7 bc
       0.08465314 0.21274374 -0.405073 -0.022434851

bias f4 [32]
000000 8f b9 1e bd ef 7b 62 bd a6 40 2e 3d 26 1c f2 ba
       -0.03875118 -0.055293974 0.042542122 -0.0018471524
000010 d7 c5 a1 3a 18 b2 f5 3c 03 e2 17 bd c6 5f c1 bb
       0.0012342286 0.029992148 -0.037080776 -0.0059013097
000020 aa a9 8b 3b f1 83 84 3d c7 fa 0e 3d 26 14 38 3d
       0.004262169 0.06470478 0.03490713 0.04494109
000030 0d 6c 4f bd 01 ff 28 bc c9 05 50 bd 9a 62 81 3b
       -0.050640155 -0.010314704 -0.050786767 0.003948522
000040 44 65 c4 bb 70 47 5a bc 7b b8 1e 3c 05 79 7f 3c
       -0.005993517 -0.013322696 0.009687538 0.015592818
000050 0e e7 40 bd e3 87 14 3b 21 11 aa bc 7e a6 43 bd
       -0.04709535 0.0022664003 -0.02076012 -0.0477662
000060 01 5d 32 bc 03 a9 c5 3c 11 95 04 bd 73 fe 1f 3c
       -0.010886432 0.024128443 -0.032368723 0.009765255
000070 32 28 50 bd 5d 47 09 3d e6 70 07 3d f7 a2 da bc
       -0.050819583 0.033515323 0.033066653 -0.026689036

weight f4 [64, 2]
000000 8f bc de be 07 e6 2d 3c 69 99 76 be 26 b3 6a be
       -0.43503234 0.010613925 -0.24081959 -0.22919902
000010 e8 db a5 bd bf 91 30 3f 17 57 92 3e 7a 0a 97 be
       -0.080985844 0.6897239 0.2858207 -0.2950018
000020 91 fd ef be 70 4f df 3e f8 90 0f 3f db b7 be be
       -0.46873143 0.43615294 0.5608058 -0.37249646
000030 2e a2 48 3e cb 34 86 be 9f a5 9f 3e 04 ec 4f be
       0.19593117 -0.26212153 0.31181046 -0.20304877
000040 96 8f 31 be d7 52 c0 3e 00 eb 05 3f 70 77 93 3e
       -0.1733993 0.37563202 0.52311707 0.2880206
000050 de 5e d6 bd 39 ea 88 bd fd 6e 0c bd 9b 83 f9 bc
       -0.10467313 -0.066852994 -0.034285534 -0.030458262
000060 b3 a3 38 3d fa 04 73 3e eb ae 8b 3c 12 df 32 3f
       0.04507799 0.23732367 0.01705118 0.6987163
000070 e9 ae a0 be ca fb 0c bd 77 eb 08 3f e2 9e a3 3d
       -0.31383446 -0.034419812 0.5348429 0.07989289
000080 fd ac 69 3e bc 17 0f be 2c c1 31 3e fa e6 12 3f
       0.22819896 -0.13973898 0.17358845 0.5738369
000090 6b 14 ca bd 03 a8 2d 3f f9 30 30 3e c2 67 3b 3e
       -0.09867176 0.6783449 0.17206182 0.18301299
0000a0 be 1c a1 3d 24 2b 8e bc ce 6b b2 3e 7d b3 c9 be
       0.0786681 -0.017354555 0.34847873 -0.3939475
0000b0 15 3f e8 3d b2 8c a8 be 68 a5 1e be 1f ac 14 bf
       0.11340157 -0.32919842 -0.15492785 -0.58075136
0000c0 28 2a f5 be e9 d5 48 3d 27 de 12 3f 27 84 0e bf
       -0.47883725 0.049032126 0.5737023 -0.556704
0000d0 29 39 a7 3e 10 48 41 3d 02 93 29 be 40 d5 61 3e
       0.32660797 0.047187865 -0.16559985 0.22054005
0000e0 5f 13 88 3e 2b 6a 97 be 69 8b ce bd a0 7f ed be
       0.2657728 -0.29573187 -0.10085184 -0.46386433
0000f0 ec 41 33 3f 20 99 d4 3c 2e ea 20 3f 12 ec 94 be
       0.70022464 0.025951922 0.6285733 -0.29086357
000100 89 01 10 bf f3 d8 20 bc 0d f7 0d 3f ea 3d 18 3f
       -0.5625234 -0.00981735 0.55455095 0.59469473
000110 1e 09 7a be 08 2c a6 be 90 b2 be be e0 47 4b 3e
       -0.2441754 -0.32455468 -0.37245607 0.19851637
000120 9c 31 aa be b8 66 33 be 35 41 9e 3e b5 cf b0 3e
       -0.33240974 -0.17519653 0.30909124 0.34533468
000130 b0 13 c6 3d 1b 80 0b bf bf 4b 70 be 2b 62 91 3d
       0.09671724 -0.5449235 -0.23466395 0.07098802
000140 e9 b4 0f 3d 29 25 fe 3d f9 49 a8 3e a0 04 27 3d
       0.03508464 0.124094315 0.32868937 0.040775895
000150 1e bc 0a 3e fe ab f6 3c f5 dc 1e bf 0b 8d 31 3e
       0.13548324 0.03011131 -0.62055904 0.1733896
000160 71 1b e8 be f3 92 d8 be 9e 05 d8 be e2 09 66 3e
       -0.45333436 -0.42299613 -0.42191786 0.22464707
000170 41 5c a4 3d e3 c2 e5 3e 48 c4 e0 be 3d 6e 2a 3f
       0.080254085 0.4487525 -0.4389975 0.6657446
000180 8a a8 1b be ed dd 99 be 0b c6 2f 3f 15 4d 07 3f
       -0.15201011 -0.30052128 0.68661565 0.5285199
000190 22 e5 ee 3e 2e 7b 9e be e7 68 16 3e c3 a6 81 3e
       0.4665919 -0.30953354 0.14688455 0.25322542
0001a0 36 41 00 3f 8e f1 1f bf 5f da ab 3e b1 b8 b8 3d
       0.50099504 -0.6247796 0.3356504 0.09019602
0001b0 cd b9 6e be 1c 4b 02 be 52 f2 8e 3e f9 ba 0c 3f
       -0.23313065 -0.12723964 0.2791925 0.549728
0001c0 e9 15 95 3d ad ff ae be 9a cb c2 bd 31 84 be be
       0.0727957 -0.3417944 -0.0951149 -0.3721023
0001d0 2e 2a 23 3f 84 ac 1f 3d 81 18 d3 bd 2e b0 28 3f
       0.63736236 0.038982883 -0.10307408 0.6589383
0001e0 d5 5b e8 be 01 d0 b6 be fd 1a 51 be 4d 89 ca be
       -0.45382562 -0.3570557 -0.20420451 -0.39557877
0001f0 67 d2 1d bd 76 a9 96 3e a9 3e 47 be c8 52 da be
       -0.038530733 0.29426163 -0.19457497 -0.42641282

bias f4 [64]
000000 e8 0c ce 3e cb 17 22 bf d6 fa c9 be f0 41 38 bf
       0.40244222 -0.63317555 -0.39449185 -0.7197561
000010 6e 6e 4e 3e b3 f1 b7 be 01 56 eb 3d f4 5a 6e 3e
       0.20159313 -0.3592659 0.11491013 0.23276883
000020 a1 88 3c 3c 7a 08 b0 be 1b 03 33 3f b4 8d 40 be
       0.011507184 -0.34381467 0.69926614 -0.18804055
000030 21 f0 54 3f 54 0c 6a be 80 f9 2a 3f ad b4 cd 3e
       0.8317891 -0.22856265 0.66786957 0.40176907
000040 db 2b df 3e c6 2b f3 3e 91 df 95 be c3 f5 1d be
       0.43588147 0.47494334 -0.2927213 -0.15425782
000050 ba 8c 1b bf e1 b5 1a bf f3 08 b8 be eb af ac be
       -0.60761607 -0.60433775 -0.35944328 -0.33727965
000060 4d 16 32 be 66 bb 3e bf f7 9a 0d bf 00 b8 1b bf
       -0.1739132 -0.745047 -0.5531458 -0.60827637
000070 ae c0 39 bf a2 a2 8c be 5e 36 b6 3e 91 5c 13 bf
       -0.7255963 -0.2746783 0.35588354 -0.5756312
000080 62 36 aa 3e 3c 30 25 3e c3 fe a8 3e 48 84 30 bf
       0.33244616 0.16131681 0.33006868 -0.68951845
000090 ec 59 2f 3f b0 52 30 3f e0 a4 0c 3f 10 7f 4e be
       0.68496585 0.6887617 0.5493908 -0.20165658
0000a0 46 4e 96 3e 5c c3 54 be f5 38 2b 3f 34 1b 0b 3f
       0.29356593 -0.20777649 0.66883785 0.54338384
0000b0 2d 41 b4 be e5 1f 34 3e ca 5e ed be 43 eb c6 3d
       -0.35205975 0.17590292 -0.4636138 0.09712841
0000c0 a1 5d 3d 3e aa 7c 2f 3f b9 22 1f 3f 04 22 a8 be
       0.18492748 0.685496 0.6216236 -0.32838452
0000d0 9d 7c bd be 52 60 58 be 96 7d 20 be 0c 09 ad 3e
       -0.37009135 -0.21130493 -0.15672907 0.33795965
0000e0 fd b4 e5 3e 85 66 a2 3e 96 4a 07 3f 23 bb b9 3e
       0.44864646 0.3171884 0.52848184 0.36275586
0000f0 28 b3 0d be c2 70 da bd df 98 32 3e dc f1 ad 3e
       -0.13837874 -0.10666038 0.17441128 0.33973587
