docs/models/compressor_full.pt (torch, 99101 bytes, 19 tensors)

weight f4 [32, 1, 9]
000000 e6 0d 21 bd 3b 53 63 be 60 95 32 3e 15 87 58 3e
       -0.039319895 -0.22199719 0.17439795 0.2114528
000010 e6 8b f4 bd b3 9f c6 3e b1 7c fd 3e e2 08 b7 3b
       -0.11940746 0.38793716 0.49509194 0.0055857757
000020 39 ea 73 be 64 fe ba 3e ac a6 b7 3e 4a 46 36 bc
       -0.23819818 0.3652221 0.35869348 -0.011125157
000030 6e f9 21 3e 76 4d 0a 3f e0 b6 0f 3e ad 56 83 bf
       0.15817806 0.54024446 0.14034605 -1.0260826
000040 a9 ac 2c 3e bc 6f 27 3f 1c 13 6b 3e 8e 51 6f 3e
       0.1686274 0.6540487 0.22956508 0.23370954
000050 16 08 82 be da 29 a0 bd cb 87 8c be 77 9d 4c be
       -0.25396794 -0.078204826 -0.27447352 -0.19981943
000060 01 49 ee be 55 f6 4c 3d e8 44 85 3e 72 03 f4 be
       -0.46540073 0.050039608 0.26029134 -0.4765888
000070 fc f2 35 3e c8 5d 00 be 8f b6 7a 3d bd 61 e1 bd
       0.17768472 -0.12535775 0.061209258 -0.1100497
000080 f8 76 9c be 9f 52 23 3f 2a ac a2 3e 49 96 54 3e
       -0.30559516 0.63797945 0.31771976 0.20760454
000090 63 61 db bd 65 80 04 3d 0a de 17 3e d6 4b 14 be
       -0.107119344 0.03234901 0.14830795 -0.14482054
0000a0 11 2a a3 bd fd 5a f6 3e 44 04 10 bf 1f a8 69 3e
       -0.07967008 0.48116294 -0.5625651 0.2281804
0000b0 14 44 69 3e 9d 4b 9b bd 5a 6d 20 be 8e 8b 8e 3e
       0.22779876 -0.075827815 -0.15666714 0.27840847
0000c0 9b 74 fe 3e b4 2c 72 bd 6f ea 52 be 2a 46 b0 3f
       0.49698338 -0.059124663 -0.20597242 1.3771412
0000d0 8e 3d ae be de 0b d3 bd 97 a4 0b 3e be d1 8b be
       -0.34031337 -0.10304998 0.13637005 -0.27308458
0000e0 c3 54 b1 3e 03 65 ec bc 1f 5c f4 3d 30 33 bd 3e
       0.3463498 -0.02885676 0.11931633 0.36953115
0000f0 b8 2c ec be 95 46 24 3e 45 b5 11 3e 7a 47 1e be
       -0.46127868 0.1604255 0.14229305 -0.15456954
000100 48 f3 59 be 1b 68 88 bc 9b 45 03 bd 9b 57 f7 3d
       -0.2128421 -0.016651204 -0.032048803 0.12077256
000110 59 91 1a be 21 72 6d bf 0f 05 c7 3e ee 92 a7 3e
       -0.15094508 -0.9275227 0.38871047 0.32729286
000120 6a 5c 41 3e 9f aa 04 3d a5 bc 99 be 8b dd 91 3c
       0.1888291 0.03238928 -0.30026737 0.017805835
000130 ff 1c 5d 3d 04 a0 b2 3d 7d dd 47 bb d2 8f 95 be
       0.05398273 0.08721927 -0.0030497008 -0.2921129
000140 b8 c4 cf ba 1b c0 45 be 9f 07 e2 bd 1c e1 86 bc
       -0.0015851473 -0.19311564 -0.1103661 -0.016464762
000150 f3 33 f7 be 85 86 64 3a 0a 81 dc be 1f e4 84 be
       -0.48281822 0.0008717555 -0.430672 -0.25955293
000160 de aa 9e bf 8c 3a 92 be cd ca 8b bd 84 da 1c 3d
       -1.2395895 -0.28560293 -0.068257906 0.03829433
000170 ec 5e 52 bd cb 67 1e be 7c 26 02 3e ae 86 c1 be
       -0.051360056 -0.15469281 0.12709993 -0.37798065
000180 d7 8e 85 3f 5b a1 a4 3e ab 5f 92 be ff 13 b9 bc
       1.0434216 0.32154354 -0.28588614 -0.022592543
000190 39 21 01 3e f9 3b 6c be 09 fa 29 3e 0a 5c 6e be
       0.1261033 -0.23069753 0.16599287 -0.23277298
0001a0 a5 83 1b 3e bd b9 b1 be b6 c7 8c bd ba 4e 4e 3e
       0.15186937 -0.3471202 -0.06874029 0.2014722
0001b0 cd 6f ad be 31 36 89 bd fc fb 42 be 7f c4 9d be
       -0.3387436 -0.06699789 -0.19041437 -0.30813977
0001c0 3d 3f 78 be 9f a7 0e bf 87 f3 47 3e fb 8c 10 bf
       -0.24242873 -0.5572452 0.19526492 -0.5646512
0001d0 e5 3d 5b be 99 8e c9 be dc 9e db bd d4 40 c2 be
       -0.2141033 -0.39366606 -0.107236594 -0.37940085
0001e0 1f d5 cc be c1 f6 6c be b2 68 8d 3d f5 f7 16 bf
       -0.40006348 -0.23141004 0.06904735 -0.589721
0001f0 4c 6f 05 3e d9 d2 8c 3e d1 80 05 be 43 92 b3 3e
       0.13030738 0.27504614 -0.13037421 0.35072526
000200 91 17 bc bc 5b eb 80 be a8 98 b0 be 4b bd a6 be
       -0.022960456 -0.25179562 -0.34491467 -0.32566294
000210 c7 2d f2 be 14 f0 36 3e b5 a6 11 3f 06 b0 ae bc
       -0.4730055 0.1786502 0.56895 -0.021324169
000220 f8 a5 b0 bd 22 0d b6 be 35 61 87 3d 73 14 c0 3e
       -0.08625406 -0.35556895 0.06610338 0.37515602
000230 da 0c 38 bf b6 67 67 3f 67 66 4d bd e1 76 ab be
       -0.7189461 0.90392625 -0.050146487 -0.33489135
000240 74 76 a9 be 9d 44 26 3d f5 81 3d bd 07 e1 98 bd
       -0.33098185 0.04059278 -0.046266515 -0.074647956
000250 dd e5 68 be 13 19 d6 bd b7 73 2e bf 91 ee 1c be
       -0.22743936 -0.10454001 -0.68145317 -0.15325381
000260 bd 36 21 be 9b e1 93 3e 2c f1 a5 3e ce 8b 5e 3e
       -0.15743537 0.2888306 0.32410562 0.21733019
000270 80 ca 4c 3e 38 18 c6 3e 16 c4 07 be 31 0f c2 be
       0.19999123 0.38690352 -0.13258395 -0.37902215
000280 5c 16 86 bd fc d0 03 3e 65 b7 75 bd 21 8c 05 3e
       -0.065472335 0.1287269 -0.05998935 0.13041736
000290 23 3f 95 3d 5e c5 9f bd 95 24 03 3e 5a e8 0c 3e
       0.07287433 -0.07801317 0.12806924 0.1376051
0002a0 ec 67 3f 3f 91 00 53 3f 96 1f 85 3e 7a f9 82 be
       0.7476795 0.8242274 0.2600066 -0.2558096
0002b0 54 95 2f bd d0 2b 34 3e 14 02 6a be 3f 75 e8 3c
       -0.04286702 0.17594838 -0.22852355 0.02837622
0002c0 24 da 9a be 3d 4c e0 be 25 3b 98 be 98 e9 46 be
       -0.30244553 -0.43808165 -0.29732624 -0.19425046
0002d0 38 e4 63 be 06 fe 09 be 7d 11 db be 86 c3 a4 3e
       -0.22255027 -0.13475809 -0.4278678 0.32180423
0002e0 fe 5d 90 3e 81 de 67 be da 6e 56 3f 82 3f 1d 3e
       0.2819671 -0.22643472 0.83762896 0.15356258
0002f0 2e 9c 81 bd e6 f4 d9 3d 55 42 df be 58 65 ac 3d
       -0.06328617 0.10642414 -0.43605295 0.08417767
000300 42 18 44 39 bc b4 36 be 3d 48 6d 3f f4 52 96 3f
       0.00018701053 -0.17842382 0.9268835 1.1744065
000310 70 09 c8 bd 67 e9 ce be 25 90 a8 3d 6a d4 9d bd
       -0.09767425 -0.40412447 0.082306184 -0.077065304
000320 3f b9 26 3e f1 8e 13 3d 17 47 97 3d b5 f7 c9 3d
       0.16281603 0.03602499 0.07386606 0.098616995
000330 11 0a f4 3e 4d 13 a2 3e 15 13 45 3e 45 f2 c7 bd
       0.4766393 0.3165535 0.1924556 -0.09763006
000340 c1 8a 4f 3c 3a e2 27 be 16 71 b6 bc 68 1e af be
       0.012667359 -0.16394892 -0.02227072 -0.34202886
000350 0f c8 86 3e ac 62 82 be c2 8f 58 3e 48 a7 ba bd
       0.26324508 -0.25465906 0.21148589 -0.091139376
000360 91 f3 99 be 27 93 8c be a0 04 ef bd a0 54 64 3e
       -0.3006864 -0.27456018 -0.11670804 0.22297907
000370 f9 88 4e be 47 99 05 3e bb a8 8e bd 60 49 58 3e
       -0.20169438 0.13046752 -0.069657765 0.2112174
000380 07 67 80 3e f3 fe a1 3d de b5 6a 3e 31 14 4a bd
       0.25078604 0.07909956 0.2292094 -0.049335662
000390 e8 b4 8e 3e d8 88 30 bd 95 2c 38 3e 9d 1d 10 3f
       0.27872396 -0.043099254 0.17985757 0.56295186
0003a0 0b 4a 55 3f 49 f2 85 3e 71 95 83 3d f1 af f9 3c
       0.83316106 0.2616141 0.06424988 0.030479403
0003b0 7b a3 f2 bd e1 a0 ec bd 7b 2d d1 be cc 86 76 bd
       -0.11847588 -0.11554123 -0.4085501 -0.060187146
0003c0 15 77 6f 3f 48 8c 52 3c 2c bb ae be e1 7b 29 3e
       0.9354108 0.0128508285 -0.34127176 0.16551162
0003d0 7b 98 34 3e 84 0e dd be 9a 0a 40 3d 54 1e 1b 3e
       0.17636292 -0.43175137 0.04688511 0.15148288
0003e0 e3 ad 8c be be 5d 05 bf 00 1d 55 3d ff 63 ad 3e
       -0.27476415 -0.52096164 0.05202961 0.33865353
0003f0 22 46 b1 3d 96 83 dc 3c 0a a1 e2 bd a1 d0 a3 3e
       0.08655955 0.026918214 -0.11065872 0.3199511

bias f4 [32]
000000 b3 86 f1 3c 14 28 6e 3e dd 82 61 3e 32 79 50 bd
       0.029483175 0.23257476 0.22022577 -0.05089683
000010 56 c7 45 be f5 6f 1b bc 84 1f df 3d d3 f3 9f be
       -0.19314322 -0.009487142 0.10894683 -0.3124071
000020 e4 22 29 bd 68 c4 90 bc ad 7f 41 3d 2a b1 30 bd
       -0.04129304 -0.017671779 0.0472409 -0.043137707
000030 cf d6 93 3d 61 b2 25 3e c5 a5 4f 3e e6 c9 b0 3d
       0.07218706 0.16181327 0.2027808 0.08632259
000040 eb 40 96 3d e3 ff 42 3e 45 a9 b2 3e a8 5f 32 3e
       0.07336601 0.19042926 0.34894767 0.17419302
000050 1d 12 4a be 86 d7 42 be 66 97 fb 3b 30 83 9e be
       -0.19733472 -0.19027528 0.00767796 -0.30959463
000060 0a 5a 04 3e da 16 8c bd 39 df 70 be 2d 02 99 3d
       0.12924972 -0.06840296 -0.23522653 0.07471118
000070 c5 b8 ad be 9e ff 5e be 44 ec cd bd 9c b5 a6 3d
       -0.3393003 -0.21777198 -0.1005483 0.08140108

weight f4 [64, 2]
000000 c6 6c 97 3e e7 65 1a 3f cb 30 a6 3e f5 32 95 3e
       0.29575175 0.6031174 0.324591 0.2914044
000010 a4 78 e7 3e 7e a2 19 3e 51 cb 74 3e c7 8f 2a 3e
       0.4520923 0.15003392 0.23905684 0.16656409
000020 65 f4 67 3e b0 2d 61 be 58 ed 0b bf 4c f6 eb be
       0.22651823 -0.21990085 -0.5465903 -0.46086347
000030 7f 72 10 bf 63 a9 f6 be 09 ab 41 3e 04 06 1b 3d
       -0.5642471 -0.48176107 0.18912901 0.037847534
000040 1c 09 0a 3f 48 6a a5 3d 34 71 33 3f b4 67 24 3f
       0.5392015 0.08076912 0.7009461 0.6422074
000050 2d 46 0e bf fc a2 03 bf cd 37 1d bf 3b 8b ee 3e
       -0.5557583 -0.5142057 -0.6141327 0.465906
000060 16 a1 ec 3e 38 66 ad be 28 90 e4 3d d7 1e 1d 3e
       0.4621665 -0.3386705 0.11160308 0.15343796
000070 28 bc 1c bf 3b 3e 62 bd c8 a7 b1 3e fb 53 df be
       -0.61224604 -0.05523513 0.3469832 -0.4361876
000080 7c e5 9f 3d 4d 32 07 bf 38 5c 08 3f d0 76 68 3e
       0.078074425 -0.5281113 0.53265715 0.22701573
000090 5f d3 f8 3e a9 c5 80 3e a6 b6 71 3e 97 1a 1a be
       0.48598763 0.25150803 0.23604831 -0.15049206
0000a0 da b8 17 3f 0f b0 f0 3e 64 3d 5a be 69 96 f5 be
       0.59266436 0.47009322 -0.21312481 -0.47966316
0000b0 43 6a 6c 3e 91 ec b8 3e 84 cc 2a 3f 0d 85 b2 3e
       0.2308741 0.36117986 0.66718316 0.34867135
0000c0 59 94 4c be a7 8d 33 be 1c 3d 0d 3f 13 8d 23 3e
       -0.19978465 -0.17534505 0.5517137 0.15971784
0000d0 d4 c8 f2 bd 12 a6 50 3e 3d 2f e0 3e 71 63 9f be
       -0.11854711 0.20375851 0.4378604 -0.31130555
0000e0 b1 af ee be dc c0 be 3e 32 46 da 3e db f6 40 3e
       -0.46618417 0.37256515 0.4263168 0.18844168
0000f0 68 4b 0d 3f bc f3 da 3e e1 77 d6 3d c7 8e c4 be
       0.55193186 0.4276408 0.10472084 -0.3839018
000100 1a f9 27 3f 55 56 f2 be 59 27 32 3e 80 27 65 be
       0.65614474 -0.4733149 0.17397822 -0.2237835
000110 6e 18 00 be b9 06 cd be 1d 29 0e bf 61 36 ad be
       -0.12509319 -0.4004419 -0.55531484 -0.3383055
000120 c3 42 11 3f 64 b3 0e bf 56 ff 1b 3f 5e 28 96 3e
       0.56742495 -0.5574248 0.60936487 0.29327673
000130 01 c5 85 3c f4 d2 fa 3e b8 db 3c bb fd ff 6d be
       0.01632929 0.4898907 -0.0028817486 -0.23242183
000140 1f fb 2e bf 87 72 2a bf f8 03 d8 3e 9f 8b 2c bf
       -0.6835193 -0.66581005 0.42190528 -0.67400545
000150 69 16 52 be ed b4 10 be f1 56 f6 be 37 82 f7 be
       -0.20516361 -0.14131518 -0.48113206 -0.48341534
000160 bd bf d0 be 63 a2 be bb f5 5b d9 3d b3 52 7e be
       -0.40771285 -0.005817698 0.106132425 -0.24836235
000170 d5 54 02 bc 56 40 a2 be d0 da e2 bd 8f 69 c1 bd
       -0.007954796 -0.3168971 -0.110768914 -0.09443962
000180 71 8f 9c be cd bd 31 3f 97 98 1e 3f 72 8c e2 3e
       -0.30578187 0.6943024 0.61951584 0.44247776
000190 7d 4a 6c be 80 28 16 3f 1b c0 1a bf 64 bd 60 3c
       -0.2307529 0.5865555 -0.6044938 0.013717029
0001a0 7d ec 28 3f 42 13 0d 3f b9 00 86 be 96 8e 2c bf
       0.6598585 0.5510751 -0.26172426 -0.6740507
0001b0 2d d9 c9 3e d8 03 ca 3e 7e fa 1e bf 64 fe 85 3e
       0.39423504 0.39456058 -0.6210097 0.26170647
0001c0 01 03 09 bf a5 3c 48 be 48 38 8f be 9e ad 14 3f
       -0.5352021 -0.19554384 -0.27972627 0.5807742
0001d0 3e 49 76 3e 47 ae c4 3e e2 ad 22 bf 6b 25 17 bf
       0.24051377 0.38414213 -0.63546574 -0.5904147
0001e0 3c b0 8b 3e 60 e7 2b bf 35 25 36 3e eb 3c 29 3e
       0.27282894 -0.67149925 0.17787631 0.16527145
0001f0 ae 2f da 3e 48 b4 11 3e dc 90 27 3f 71 62 f0 3c
       0.42614502 0.14228928 0.6545541 0.029343816

bias f4 [64]
000000 3d c7 40 3f 7f 1b 34 3f e7 43 10 bf 86 96 49 bf
       0.75304013 0.70354456 -0.5635361 -0.78745306
000010 3c 5d 32 3f 9d 0a 50 3f 6d 54 32 bf 6f 23 3a 3f
       0.69673514 0.81266195 -0.69660074 0.7271032
000020 82 74 a0 39 cc b1 4b bf f7 e1 f7 3e ff c9 13 3f
       0.00030604383 -0.7956817 0.48414585 0.57730097
000030 0e 48 4d bf b0 24 2b 3f fc 32 ff 3e 0f 7f 9e 3d
       -0.8018807 0.66852856 0.49843585 0.07739078
000040 07 e6 c5 3e f6 d3 2a 3f d4 f6 46 3f 6b bc cd 3d
       0.3865206 0.66729677 0.7772038 0.100457035
000050 40 a0 6e 3e 09 25 d9 be 5e e0 04 3f 4b fa 13 be
       0.23303318 -0.42411068 0.5190486 -0.14450948
000060 f1 eb c2 3d f4 79 83 3f 1d 42 39 3f 53 4f 07 be
       0.095176585 1.0271592 0.72366506 -0.13213854
000070 ba 9f 36 bf e3 02 28 3f a9 75 ef 3e d9 0a 20 3d
       -0.71337473 0.65629405 0.46769455 0.039072845
000080 cd 03 c2 3e 69 3d 6c be 2e 28 cf 3e 3d bc bb be
       0.37893525 -0.23070301 0.40460342 -0.36667052
000090 a0 af 03 3f 56 64 2b 3f 12 70 70 3e 03 62 e9 3e
       0.5143986 0.66949975 0.23480251 0.4558259
0000a0 5b cf 21 bf 62 cc 1e 3d f0 de 1c 3f ca 01 dd 3e
       -0.63207024 0.038769133 0.61277676 0.43165427
0000b0 2f c3 d2 3e a7 67 0d 3f 9e 42 0a 3c ef 33 f6 be
       0.41164538 0.55236286 0.008438734 -0.48086497
0000c0 fb 1d b2 3e 4e db fc 3e 0b fc f1 be d6 51 30 3f
       0.34788498 0.49386066 -0.47262606 0.6887487
0000d0 d4 aa f0 3e ce 5a 43 be ee 66 e4 3e 5a 27 8c 3e
       0.47005332 -0.19077608 0.4460978 0.27373773
0000e0 49 09 d6 3e 37 c0 c6 3c ce 12 85 3e 9d 3b 99 be
       0.4180396 0.024261577 0.2599091 -0.29928294
0000f0 8c 4c 8c be 05 ae ad 3e 3c a7 9c be 03 8b 53 be
       -0.2740215 0.3392183 -0.3059634 -0.20658498

weight f4 [32, 1, 1]
000000 7a 46 81 be d3 b5 b6 3c f6 82 3a be 96 5e d5 be
       -0.25249082 0.022303497 -0.1821402 -0.41673726
000010 a3 e1 06 3f 39 2b 0b bf e1 7b 42 bf 31 49 00 3e
       0.52688044 -0.5436283 -0.75970274 0.1252792
000020 b5 78 fd bb 59 3e e0 3e 16 96 96 be b7 0e 7a 3f
       -0.0077353367 0.43797567 -0.2941138 0.97678703
000030 6f 9b 2e 3f 9f 57 63 3f 63 d2 5b bf 9a 9c 8d be
       0.6820592 0.88805574 -0.858679 -0.2765854
000040 05 a6 70 bf 4d f9 09 bf 88 50 2e bf d2 cf 54 bd
       -0.94003326 -0.5389603 -0.6809163 -0.051956005
000050 13 53 6e bf ff 94 4c bf e4 5c 09 3f 0e f6 2f bf
       -0.9309551 -0.7991485 0.53657365 -0.68734825
000060 ca db 95 3e 68 79 86 be 5a 83 5a 3f 71 83 51 3e
       0.29269248 -0.262645 0.85356677 0.20460297
000070 f1 70 12 bf f6 2b 05 3e 2c 9a 66 3f 5b 70 8e be
       -0.57203585 0.13005051 0.90079 -0.27820095

weight f4 [32, 32, 9]
000000 91 02 50 3c fa ca 87 3c a7 31 a5 3c 41 cd 5a bc
       0.012695924 0.016576279 0.020165278 -0.0133546
000010 90 bc b2 bc e4 73 78 bd 3b 12 3a bc 6f 0b f0 bc
       -0.02181843 -0.060657397 -0.011356886 -0.029302327
000020 d9 0f 30 bd 2e d0 43 bd d1 c4 1d 3c b8 37 ed bb
       -0.042983864 -0.047805957 0.009629444 -0.007239308
000030 16 e6 21 3c 03 c9 34 bc d0 2f ae 3c 3b ad df 3c
       0.009881517 -0.011034253 0.021263033 0.027304282
000040 23 c8 39 bd c7 9b 91 3c fc b5 82 bd 4e d6 fc bc
       -0.04535688 0.017774476 -0.06382367 -0.030863907
000050 99 dd 22 bb 45 ff 82 bd 61 76 4c bc 19 5b de bc
       -0.002485132 -0.06396345 -0.012479396 -0.027143048
000060 4e 69 c0 bc da 46 de bc 74 c3 2f bd 05 96 39 bc
       -0.023487713 -0.027133394 -0.042911008 -0.011327271
000070 cc 39 bc bb fb 37 b4 bc f1 79 e8 3b fa 48 1d bc
       -0.0057441946 -0.02199935 0.0070946147 -0.0095999185
000080 cd ca b9 bc 3c b2 14 bd 99 1f 4f 3d 33 6e 27 3c
       -0.02267971 -0.03630279 0.050567243 0.010219145
000090 72 df 00 3c 4a 3e 03 3d 93 06 48 3c 3b cf 18 3d
       0.0078657735 0.032041825 0.012208599 0.037307005
0000a0 50 57 90 3c 8d 18 e4 3c 36 3b 26 3d 49 f9 cc bc
       0.017619759 0.027843738 0.04058381 -0.025021212
0000b0 dc e8 72 bd b7 0e 1f bd 7f d8 ea bc 95 73 5d 3c
       -0.059304103 -0.038832393 -0.028667687 0.013516326
0000c0 1b 19 1e 3d 20 1a 8c bc 73 3e b5 3c 08 e6 0b 3d
       0.03859816 -0.017102301 0.022124505 0.03415492
0000d0 af a1 8b bc 5f 87 63 bd e8 a4 43 3d 5b c8 a6 bc
       -0.01704487 -0.05554902 0.04776469 -0.020359209
0000e0 c7 5c 6d 3d 6a 87 16 bd 1d cd 90 bc c7 6e a0 3d
       0.057949807 -0.036750235 -0.01767593 0.07833629
0000f0 0a bc ab 3b a6 70 5f 3d d7 94 37 3d 3a fb 1e 3d
       0.005240922 0.05455079 0.04481968 0.038813807
000100 c1 27 79 3c de ad f2 3c 3d 0f 70 3c f5 0f 37 bc
       0.015207232 0.029623922 0.014652071 -0.011173238
000110 37 ad 8c b8 af 2d 87 bd dd 2e a4 bb f0 fc 11 bd
       -6.707984e-05 -0.0660051 -0.0050104694 -0.03564161
000120 f5 35 28 bd 5d e2 0f bc 9a 14 c6 bc ff 45 f2 3c
       -0.041067082 -0.008781997 -0.024179745 0.029574392
000130 3f 90 32 bd b5 d0 0b 3b c2 bf 3b 3d 7d 7b 2d bc
       -0.043594595 0.0021334116 0.04583717 -0.010588524
000140 90 6c 16 bd 13 18 9a 3c ca 8c d7 bd b5 f4 17 3c
       -0.036724627 0.018810308 -0.105249 0.009274651
000150 7d f4 9f bc d9 aa af 3d 9b f0 b5 bc 7e bb 6c bc
       -0.01952576 0.085775085 -0.022209456 -0.0144489985
000160 e9 f9 25 3d c2 54 40 3e b5 83 cc bc 7d d2 ff bc
       0.040521536 0.18782333 -0.024965147 -0.031228298
000170 0c 6c f6 3b 49 6e 9a bb 76 c9 f4 bc 2a 4c 66 bd
       0.0075202044 -0.004712854 -0.02988122 -0.05622498
000180 ab 2f 96 3c 8f 28 5c bd c2 0d e4 bc 9f 2e 30 3d
       0.018333277 -0.053749617 -0.027838591 0.04301321
000190 f2 eb 40 bc 0e 70 a9 3a d7 85 61 3d df 3a d9 bb
       -0.011775004 0.0012927072 0.05505928 -0.0066293324
0001a0 33 77 82 bc 13 ac fd 3c e1 d6 7a bd a0 f1 59 bd
       -0.01592598 0.03096584 -0.06124008 -0.053208947
0001b0 d7 78 4b 3d 30 a6 40 bd 97 37 d0 3c 32 49 06 bd
       0.04967579 -0.04703349 0.025417132 -0.03278465
0001c0 08 a9 9f 3a 07 1b 92 bd 0a 80 f5 3b e7 34 0e 3c
       0.0012181113 -0.07134061 0.00749207 0.008679605
0001d0 2f 37 c8 bb dc 8d c2 3b 87 62 84 bd 78 78 e4 3c
       -0.006110094 0.005937321 -0.06464105 0.027889475
0001e0 2a ab 26 3d 06 bd f2 3c 46 df 8e 3c 94 4c 36 3d
       0.04069058 0.029631149 0.01744045 0.044506624
0001f0 27 4b 5d bd 18 94 38 3c 8a c1 5d bd 64 dd 8d bd
       -0.05402675 0.011265777 -0.05413965 -0.069269925
000200 e9 2d 2b 3a 7b 56 98 bd e3 49 99 bc 6d 7d 92 3d
       0.00065299735 -0.0743837 -0.01871199 0.07152829
000210 c3 af be bd 00 c8 21 bd 39 34 b1 3d f7 4f 92 3c
       -0.09310868 -0.039497375 0.08652539 0.017860396
000220 cb 4e cc 3c 4f e4 4f 3d 4e 37 77 3d bb d1 9f bc
       0.024939915 0.05075484 0.060355477 -0.019509187
000230 06 f6 cf 3c a5 1d 76 3d 8f af 84 3d 33 1a 64 3d
       0.025385868 0.060086865 0.06478798 0.055689048
000240 54 3e 3f 3b f6 17 43 bd 74 b1 ea bc d3 d8 22 3d
       0.0029181438 -0.047630273 -0.02864907 0.03975756
000250 d1 ce 6d bd 00 0d c7 bc 9d a3 7a bd 7d a4 1d bd
       -0.058058564 -0.024298191 -0.06119119 -0.038486946
000260 bb a6 0a 3c 4e d1 78 bd 65 80 a0 bc 1d c1 4c bc
       0.008462603 -0.060746484 -0.019592473 -0.012497214
000270 2b df d1 bb e2 ca d9 3c 51 56 48 bd ad 57 ed bc
       -0.0064047775 0.026586 -0.048910443 -0.028972471
000280 54 49 f3 3c 3a 52 cf 3c f8 5a 57 3b 95 8e 60 3c
       0.029698052 0.025307763 0.0032860618 0.013705869
000290 38 d2 31 3d 7a c9 41 3d d5 8d 6e 3d a6 da e6 3c
       0.04341337 0.047311284 0.05824073 0.028180432
0002a0 55 c9 f8 bc ce 7c e3 bc 7c e0 e2 bd e2 5e 17 3d
       -0.03036944 -0.027769472 -0.11077973 0.03695572
0002b0 40 83 77 bd 99 bd 9f 3b 3b e2 70 bd 34 27 68 3c
       -0.060427904 0.0048748967 -0.0588095 0.014169503
0002c0 7b 84 2a bd 35 8c 8d bc f0 6e 6c 3b 2b 55 28 bd
       -0.04163025 -0.01727877 0.0036076866 -0.041096848
0002d0 f3 79 3c 3d b9 51 ab 3c e6 e6 8c bd 20 79 c0 3c
       0.046014737 0.020912992 -0.06879978 0.023495257
0002e0 66 82 01 bd 9a d8 5c bd 9b f1 0f 3d 5b 3b 41 bc
       -0.0316185 -0.053917505 0.035142522 -0.011793937
0002f0 1e 37 38 bd 9a f7 ae 39 8c b6 9a bb b9 9a 23 3d
       -0.04497444 0.00033372344 -0.0047214683 0.039942477
000300 4a 4c 65 bc 12 1e 05 bd 7c 76 07 bc a6 4b 95 3a
       -0.0139952395 -0.03249938 -0.008267995 0.0011390343
000310 f1 40 46 bd e6 4b 61 3d 40 8a eb 3c 75 64 a1 3b
       -0.048401777 0.055004023 0.028752446 0.0049253055
000320 46 de a0 bc bc 26 75 bc 01 dd 80 bd e8 df 7b bd
       -0.019637238 -0.014962848 -0.06292153 -0.06149283
000330 6c 9a 4f bd 17 6d 79 bb e0 1b 68 bd f6 5d 41 bc
       -0.050684378 -0.0038059407 -0.05666721 -0.011802187
000340 d0 82 c7 3c dc b6 87 bd 33 36 3c bd 2b 23 33 3d
       0.024354368 -0.066266745 -0.045950126 0.04373471
000350 d2 37 1d bd 81 98 17 bd c4 4e 0c bc 0d 11 99 bc
       -0.038383313 -0.037010673 -0.008563701 -0.018684888
000360 e2 2e df bc 02 82 a0 3b 9f 7b 58 bd 1b a8 52 3b
       -0.027244035 0.0048983106 -0.05285227 0.0032143656
000370 85 b6 35 bb 2f 55 e0 3b 1a 77 46 bd 7a cd cd 3c
       -0.0027727198 0.006846092 -0.048453428 0.025122393
000380 99 ee f8 bc 08 0a 2f be 54 e5 57 be 81 35 d7 bd
       -0.03038721 -0.1709367 -0.21083575 -0.10508252
000390 a8 ae e4 bd f3 ae 94 bd a9 5f d3 bc 5e d2 b9 bc
       -0.111661255 -0.072599314 -0.02580245 -0.022683319
0003a0 76 69 fd 3b 81 09 09 bf de 02 18 bd 6e 64 ba 3b
       0.007733519 -0.53530127 -0.03711211 0.0056882417
0003b0 27 d8 f4 bc 69 ce 10 bd 20 4b 89 bd 52 bf cc 3c
       -0.029888226 -0.035353098 -0.06703782 0.024993572
0003c0 91 3b 46 3b 66 e5 11 3d 33 47 2d bd 05 f8 95 bc
       0.0030247907 0.035619162 -0.04230423 -0.018306741
0003d0 5d d9 5c 3c 17 1d 66 3d 70 d9 fc 3c d6 19 89 3d
       0.013479558 0.056180086 0.030865401 0.06694381
0003e0 54 f8 4a bc b3 ec 82 3d 3d bf 0f bd ce 0b 47 3c
       -0.012388308 0.06392803 -0.03509449 0.012148811
0003f0 3c c6 fe 3c a6 ab 80 bd 22 ca 4d bd 54 0d 19 bd
       0.031100385 -0.06282739 -0.050241597 -0.037366226

bias f4 [32]
000000 86 40 8a bd 08 54 e6 3c a1 3c 62 3b fb 18 20 bd
       -0.06750588 0.028116241 0.0034521 -0.039086323
000010 a6 59 e1 bc c3 ba 3c bc cd c4 6c 3d 1e 3b b3 3d
       -0.027508568 -0.011519137 0.05780487 0.0875151
000020 97 78 87 3d 5e e5 d7 bc e3 95 2f 3d 4e bf 12 3d
       0.066147976 -0.026354488 0.042867552 0.035826974
000030 c0 56 7e 3c dc e2 e1 bc 5d 35 5c 3d 18 cc 02 bd
       0.0155236125 -0.027573995 0.05376183 -0.03193292
000040 88 59 27 bd 80 38 e5 3c 49 89 80 bc 03 bc 65 bc
       -0.040856868 0.027981043 -0.015690463 -0.014021876
000050 12 92 49 bd 3d 3a c3 bc 81 01 b1 3b 59 8b e0 bc
       -0.04921157 -0.023831481 0.0054017906 -0.027410196
000060 40 da 32 bc 0d 87 ad bc 7a 61 19 3c 83 b1 4d 3d
       -0.010916293 -0.021182561 0.009361619 0.050218116
000070 11 5a 29 3c 34 b2 dc bb 1c 0b 42 bd d7 c3 49 bd
       0.010336415 -0.0067351107 -0.047373876 -0.049259033

weight f4 [64, 2]
000000 6f 9d 32 be e5 6a 8f be d9 df 9d be ba 0e 23 3f
       -0.17442869 -0.28011242 -0.30834845 0.63694346
000010 96 d1 b2 3e 1e d6 03 bd f0 3b 33 3f eb da 12 3f
       0.34925526 -0.03218662 0.7001333 0.5736529
000020 03 59 f5 be 93 a3 8b be c1 23 b3 3e 39 87 0c bf
       -0.47919473 -0.27273235 0.34988216 -0.54893833
000030 87 e4 e1 3e 20 98 c0 be 65 17 0d 3f a6 ba 71 3e
       0.44119665 -0.37616062 0.5511382 0.23606357
000040 42 d4 08 3e fe f2 d8 39 75 e0 a1 3e 0c cd ee be
       0.1336222 0.00041379774 0.3161656 -0.46640813
000050 3d 7c 2d bf 48 3a 2a bc 2b ec 24 bf 47 3f bb 3e
       -0.677677 -0.010389872 -0.64422864 0.36571714
000060 89 1e 03 bd aa 7b ca 3e 17 21 61 be bf b6 fc 3e
       -0.032011542 0.39547473 -0.21985279 0.49358174
000070 b0 fc 12 be cf 07 87 be f3 6e 4a be b1 a9 11 bf
       -0.14354205 -0.26373145 -0.19768886 -0.56899554
000080 b9 17 54 bd 96 1e 88 be d3 48 28 bf ef 16 90 3e
       -0.051780436 -0.26585835 -0.6573612 0.28142497
000090 4c 48 25 bf ab b1 10 3f 30 c3 09 3f 36 b9 9d 3b
       -0.6456344 0.565211 0.5381346 0.0048133386
0000a0 98 80 48 be 4e 77 7c 3e 70 34 19 3f 74 b1 31 3f
       -0.19580305 0.24654886 0.5984564 0.69411397
0000b0 c5 90 df be 96 12 45 be 58 87 06 3f 70 cb 4c 3e
       -0.43665138 -0.19245371 0.5255027 0.1999948
0000c0 23 43 b8 3e c8 85 30 3b d5 76 71 be 01 67 8f be
       0.3598872 0.0026935209 -0.23580487 -0.28008273
0000d0 fb e2 8b be 98 d1 03 bf 85 a9 ac 3e 17 ab 15 3e
       -0.2732161 -0.5149169 0.33723083 0.14616047
0000e0 c9 03 73 3d 6d 21 88 be 8b 84 9b bd 4f 73 cd 3e
       0.05932978 -0.26588002 -0.0759364 0.40127036
0000f0 f6 dd f3 be 36 0b 16 3e e7 14 4a bd 60 87 ff be
       -0.4763028 0.14652714 -0.04933634 -0.4990797
000100 d6 de 66 3e 9c de 45 be a5 11 28 3f c7 34 c8 3d
       0.22545943 -0.193232 0.65651923 0.097756915
000110 07 93 1b 3f ea a3 ad 3c 00 7f 08 bf 6d 50 21 3e
       0.6077122 0.021196324 -0.53318787 0.15753336
000120 ce c9 bf 3e 63 b4 e6 3d 14 10 1b bf 56 41 f5 bd
       0.37458652 0.11264875 -0.6057141 -0.119753525
000130 33 e4 e5 be 4b 25 69 bd e8 5c 0d 3f 50 e7 bd 3e
       -0.44900665 -0.05692033 0.5521989 0.3709054
000140 40 2a 0d 3f 0d 16 18 3e 29 af 6c be e8 78 d8 be
       0.55142593 0.14852162 -0.23113693 -0.42279744
000150 d8 fd aa 3e fd f9 02 be d1 c8 8b 3e 25 1a 5a 3e
       0.33396792 -0.12790675 0.27301648 0.21299036
000160 ce 56 a7 be 85 14 2c bf a7 22 f5 3e 40 5b f6 3e
       -0.32683414 -0.6721881 0.47878 0.48116493
000170 10 96 82 bd d8 64 de be 39 ea 04 be 90 93 f0 3e
       -0.063762784 -0.43436313 -0.12979974 0.4698758
000180 72 bf 8e be 5b 14 1d 3f 66 c8 5b bd da 26 12 bf
       -0.27880436 0.61359185 -0.05365791 -0.5709053
000190 07 e1 14 3f 9e 0b d1 3e 3c 09 c6 be b9 3a ce 3e
       0.58155864 0.40829176 -0.3867892 0.40279177
0001a0 8e 1e da 3e f7 86 18 be 69 19 ad bd 7f 3d 12 3f
       0.42601436 -0.14895235 -0.08452112 0.57125086
0001b0 f3 df 16 bf 4e 0c 12 3f f4 f3 ca be 70 69 e5 be
       -0.5893547 0.57050025 -0.39639246 -0.44807005
0001c0 cf cc bb bd f4 43 1b 3e 1b d7 86 be 6f e6 b8 3c
       -0.091699235 0.15162641 -0.26335987 0.022570817
0001d0 6c aa c4 be af 0f f1 bd c0 84 a2 3e 8f 83 00 be
       -0.38411272 -0.117705695 0.31741905 -0.12550186
0001e0 ec 6d df 3e 13 95 cd 3d 8a 24 61 3e bb 2b f8 be
       0.4363855 0.10038199 0.21986595 -0.48470864
0001f0 48 8b 31 bf 2a 63 03 3f e0 c2 18 3f 02 b4 12 3f
       -0.6935315 0.5132319 0.59672356 0.5730592

bias f4 [64]
000000 02 0c e9 3d 78 6a 2d 3e 6d 47 b8 3e b8 e0 35 3f
       0.113792434 0.16935146 0.35991994 0.7104602
000010 f1 c0 2b ba ab 55 94 3f 2c 65 51 3f 21 ee 07 be
       -0.0006551883 1.1588644 0.81795 -0.13274433
000020 70 80 40 bf ea 1e 88 be 46 e4 97 3e 09 bb 0f bf
       -0.7519598 -0.26586086 0.29666346 -0.5614477
000030 94 76 02 bd 58 9e f0 be 4c d0 54 be 58 4e 1b 3f
       -0.031851366 -0.46995807 -0.20782584 0.6066642
000040 4c 99 2d 3d 60 f5 07 3f d7 ca 08 3f 9b f1 28 3f
       0.042382523 0.5310879 0.5343451 0.6599366
000050 5c 5f d6 be b1 53 49 3f 54 42 b6 bd 61 34 22 3d
       -0.41869628 0.7864333 -0.0889937 0.039600734
000060 98 7d 92 be 78 2b 8c be bb 66 28 be 2e be 81 be
       -0.28611445 -0.27376914 -0.16445439 -0.25340408
000070 28 20 59 3e f4 07 2b bf 5e c8 fb 3d 53 f8 08 3f
       0.21203673 -0.6680901 0.122940764 0.5350391
000080 38 cd 03 bf 91 d1 1f bf dc c0 85 bb 39 93 1d 3f
       -0.51485014 -0.6242915 -0.0040818285 0.6155277
000090 d4 31 dd 3e cf 05 95 3c 8c ee 91 be 0f 51 1c 3f
       0.43202078 0.018191246 -0.2850231 0.61061186
0000a0 ea 85 1e 3f 97 7d 70 3c 77 00 d5 be 8f 9c 09 3f
       0.61923087 0.01467838 -0.41601917 0.53754514
0000b0 73 fd ad 3e 4a 80 90 be 65 9e 25 3d d0 0a dd be
       0.3398243 -0.28222877 0.04043426 -0.43172312
0000c0 aa 0f 31 bf 34 9e 89 3e eb 62 95 be 27 5d db bd
       -0.69164526 0.26878512 -0.2917703 -0.10711127
0000d0 1a 72 7c 3d e8 92 c1 be ba c4 e7 3e 12 31 c4 3e
       0.061632253 -0.37807393 0.45267278 0.38318688
0000e0 be ef 9b 3d a7 e0 43 3e 60 ee b7 be ac 0f 94 3e
       0.076140866 0.19128667 -0.35924053 0.28918207
0000f0 2f 16 25 bf 9d b0 9a 3e bd 93 c8 3e 06 bc c9 be
       -0.64486974 0.3021287 0.39175215 -0.39401263

weight f4 [32, 32, 1]
000000 bf 84 a4 bc 80 90 1e be e0 09 8c bd a7 bb 4f 3d
       -0.02008283 -0.1548481 -0.06837821 0.05071607
000010 8b fc 3d 3e d4 68 b9 bc 31 58 21 be a0 d6 3e bc
       0.18553369 -0.022632994 -0.15756299 -0.01164785
000020 c9 b9 1f be 8e 45 e9 3d a2 70 06 be 00 6c da 3d
       -0.15598215 0.1139022 -0.13128904 0.106651306
000030 a5 d2 49 3e 4e 9a 70 3d 88 d2 5d be 56 46 df bd
       0.19709261 0.058740906 -0.21662343 -0.109020874
000040 4f 0b 1a bd 55 35 a6 bc d2 a2 62 be ef 90 18 3e
       -0.03760844 -0.020289103 -0.22132424 0.14899038
000050 7c f3 26 bd 69 31 2d be 6b c1 82 bc 93 d1 4a 3d
       -0.04075955 -0.1691338 -0.01596137 0.04951627
000060 e6 0f 57 3c f3 b5 80 be 2d ee 48 3e f6 aa 33 3e
       0.013126349 -0.25138816 0.19622107 0.17545685
000070 7c 76 b8 bd 9a 5c 30 3e 13 d4 ed 3d 8f db 4a bd
       -0.09006974 0.17222825 0.116127156 -0.049525794
000080 0d 21 e8 bd ba 8f 75 be 97 49 b9 bd 7f 1e 76 be
       -0.11334429 -0.23980609 -0.09047239 -0.24035071
000090 39 d0 a7 3d 6f 80 5a 3e 82 8d 1b 3e 37 13 5a be
       0.08194012 0.21338056 0.151907 -0.21296392
0000a0 47 da 26 3e f5 a1 65 3d 04 a9 04 3e b2 33 0d 3d
       0.16294204 0.056062657 0.129551 0.03447313
0000b0 6c e5 70 3d 06 20 52 3d 90 b8 7a be 2a c3 0d 3e
       0.058812544 0.05130007 -0.24484468 0.1384398
0000c0 26 b8 0c bd 34 a1 94 bd cc be 7c 3e dc ac 29 bd
       -0.034355305 -0.072573096 0.24682158 -0.041424617
0000d0 80 22 ab 3c d0 58 fa bd 18 f6 c9 3d 95 b7 ac 3d
       0.020890474 -0.12223971 0.09861392 0.08433453
0000e0 9b 69 e8 bd 31 26 a5 3e cf b7 9f 3e 71 bb 4f 3e
       -0.11348268 0.322557 0.31194922 0.20286347
0000f0 29 e9 a9 bd 50 81 bf be a1 59 2f bc ec 5a 83 bd
       -0.08296425 -0.37403345 -0.010702522 -0.06413826
000100 86 d1 ce bd bb 4e 59 3d 95 cf 07 bd b3 23 9f 3d
       -0.10098557 0.0530536 -0.03315695 0.07770481
000110 db 11 d4 3d 65 79 05 be 8c 29 01 bc 3f 95 66 bd
       0.10354968 -0.1303459 -0.007883441 -0.056294676
000120 e0 4b ea bd 3b c7 b8 be d8 9e 1c bd eb 43 c3 3d
       -0.11440253 -0.360895 -0.038237423 0.09534439
000130 da f3 d9 bc 0b 94 21 3e 0c 0a f1 bc 8d cf 90 3d
       -0.026605535 0.1577913 -0.029423736 0.07070837
000140 cf 07 1a 3e 60 a9 ab 3d 2f 35 fc 3d 16 74 f4 bd
       0.15042041 0.08381915 0.123148315 -0.11936204
000150 85 61 8f bd 58 bd 0e 3d d4 fc 34 be c9 27 1a 3e
       -0.07001022 0.03484854 -0.17674571 0.1505424
000160 9d cb 9d bd a1 8d ad bd 0f 0f 04 be 03 2b 1d bd
       -0.07704852 -0.08474279 -0.1289637 -0.038371097
000170 a7 ba 34 3c 0a 30 8f 3d 80 15 29 be ce 75 ea 3d
       0.0110308295 0.069915846 -0.16512108 0.11448251
000180 9d 47 3e 3d 51 14 6c 3d 6f 22 cc 3d 99 b4 cc 3d
       0.046455014 0.057636563 0.09967505 0.09995384
000190 19 15 c2 bd a9 f4 0a 3e 48 f4 d9 3d a5 1a 70 be
       -0.0947668 0.13569893 0.10642296 -0.23447664
0001a0 42 d7 02 be 72 c0 4c 3d 45 d6 d2 bd b2 d6 0a be
       -0.12777427 0.049988218 -0.10294775 -0.13558462
0001b0 fc 0e 52 be 98 be e0 bd 56 80 dd bd ff 6c f5 bc
       -0.20513529 -0.10973853 -0.10815494 -0.0299592
0001c0 09 70 e4 bd 2d 2b 2d 3e fd 92 ca 3d 9e 1d 12 3c
       -0.111541815 0.16911002 0.09891317 0.008918194
0001d0 8c 44 05 3e ea fe 20 3d 2c be 3f bc e7 d9 5a 3d
       0.1301443 0.039305605 -0.011703055 0.053430464
0001e0 89 c3 cd 3c 49 b6 95 bc 18 c9 1f bd 6a c8 1e 3e
       0.025117652 -0.018275397 -0.039010137 0.1550614
0001f0 1e a2 65 3e e1 89 36 be ee 43 a2 bd a1 a0 94 bd
       0.22425124 -0.17826034 -0.07923113 -0.072572
000200 fb bd 18 be 97 b3 6d bc 52 7c a7 bd 5a d0 2c 3e
       -0.14916222 -0.01450815 -0.08178009 0.16876355
000210 f1 34 dc bd ee 4d 2a 3e 0b 81 05 3e 31 32 80 3d
       -0.10752285 0.1663129 0.13037507 0.06259573
000220 81 68 83 bd f4 12 73 bc 48 0a 37 bd db 9d 97 bd
       -0.06416417 -0.014836062 -0.04468754 -0.074031554
000230 48 d3 9b bd 18 b5 a3 bd c4 ae 96 bd e2 ac e2 3d
       -0.07608658 -0.07993525 -0.07357553 0.11068131
000240 72 a0 d9 bc 65 af 8a bd 82 c2 97 3d 3e b2 bc 3b
       -0.026565764 -0.06771735 0.07410146 0.005758553
000250 98 d7 cf 3d f9 82 e2 3b 58 1c c3 bd de ab d8 bd
       0.10148543 0.006912586 -0.095268905 -0.10579656
000260 c1 73 91 bd cf 78 12 bd 37 d3 0d 3e 1c a0 82 3d
       -0.071021564 -0.035759743 0.13850103 0.06378195
000270 5b 81 4d 3e 27 71 19 be 70 60 b0 3c f8 8b 1c 3e
       0.20068876 -0.1498457 0.02153036 0.15287769
000280 91 fe b1 bd 9e c7 76 3e 0b 41 da 3a 3d 07 ae 3d
       -0.08691133 0.24099585 0.0016651464 0.08497474
000290 90 bf b7 3d 02 e4 9c bd ec ba cb 3d d5 12 31 3d
       0.089720845 -0.076606765 0.09947762 0.04323085
0002a0 c8 8c 05 be 4a a8 97 be d2 09 ea 3d 43 86 15 be
       -0.13041985 -0.29620582 0.11427654 -0.14601998
0002b0 56 19 a5 bd 0b 3e 23 be 19 8f 02 be 8e 3c 2b be
       -0.08061473 -0.15941636 -0.127499 -0.16722319
0002c0 c9 1a a0 3d c8 ed 4f 3c a6 2a 16 be 0c 01 a5 bd
       0.07817609 0.012690969 -0.14664707 -0.0805684
0002d0 5f c8 2a 3e 73 6f f0 3d f9 53 64 bc ff 21 f1 bd
       0.16677998 0.11740007 -0.013936036 -0.11774062
0002e0 97 19 55 3c 5a 74 7a 3b 93 11 aa bd 0f cb 5a be
       0.013006589 0.0038216324 -0.08304133 -0.21366523
0002f0 ef 02 29 3e 24 b3 14 be 05 a0 50 3c 9e 18 d1 bb
       0.16505025 -0.14521462 0.012733464 -0.0063811084
000300 d6 da ac 3d 66 6e 38 be e8 a1 1f be 93 03 0b 3e
       0.08440177 -0.18010864 -0.15589106 0.13575582
000310 4a f5 11 3e fa 27 14 be 00 30 13 3d 2b 07 89 bc
       0.14253727 -0.14468375 0.03593445 -0.01672705
000320 dd 07 a0 3d ef cb 1d 3e 49 73 ad bd 2d e6 09 3e
       0.07814 0.15409826 -0.084692545 0.13466711
000330 70 b9 c7 3d c5 87 30 3e b7 1d 14 3e 55 99 46 bd
       0.09752166 0.17239292 0.1446446 -0.048486073
000340 bd a7 cb 3d be 0f 09 be 33 f1 48 be a8 3d 6f 3c
       0.09944103 -0.13384911 -0.1962326 0.014602102
000350 f4 e3 fe bd d6 49 f8 3d 41 85 4f 3c 00 cb 34 be
       -0.12445822 0.12123458 0.012666048 -0.17655563
000360 6a b0 0f 3d f5 3f 38 be 3e 62 95 3d bf 1c 2e 3e
       0.03508035 -0.17993148 0.07294129 0.17003153
000370 1a 35 25 be 5c 3e bf 3d 93 3c 0b bd a4 ce 7c bc
       -0.16133538 0.09338066 -0.033993315 -0.015430126
000380 12 ac 27 be 50 df 55 3e c8 40 2a be 6e 86 e8 bd
       -0.16374233 0.20885968 -0.16626275 -0.113537654
000390 9e c1 3d 3c 3f c9 c6 bd 5c d1 d5 3d 52 5f 3b 3e
       0.0115818065 -0.097063534 0.10440323 0.1829808
0003a0 af b0 b5 3d 30 cc 03 3e 85 a4 28 be 91 bb 74 bd
       0.0887159 0.1287086 -0.16469009 -0.05974919
0003b0 38 5d fe 3d 22 79 03 3e d3 de 2e bc b3 48 47 3e
       0.12420124 0.12839177 -0.010673243 0.19461326
0003c0 6c 88 ae bd 49 c2 9b bd af 5d fe bd c8 98 ec 3d
       -0.08522114 -0.07605416 -0.124202125 0.11552578
0003d0 f6 57 96 bd cc 93 b6 bd ed 8f 5f be 08 02 23 3c
       -0.07340996 -0.08914909 -0.21832247 0.009949215
0003e0 63 7a 1c be 1a 2d 38 bd ac d0 65 be 79 2c d8 3d
       -0.15281062 -0.044964887 -0.22442883 0.105553575
0003f0 03 84 d7 3d 84 0c 47 3e 8d c9 8b bd bb a1 2a 3c
       0.10523226 0.19438368 -0.06825552 0.010414536

weight f4 [32, 32, 9]
000000 4a 5f 16 3d d0 d3 c8 3c c6 46 65 3d 72 e0 c7 bc
       0.03671197 0.024515063 0.055975698 -0.024399016
000010 51 0a b9 bc bc 76 5f 3d 17 2a 05 bd 50 39 db bc
       -0.022587927 0.054556593 -0.032510843 -0.026760727
000020 47 ea 2c 3d 4f 99 b0 3d 81 23 0e bd b1 b3 a6 3b
       0.04221561 0.08622991 -0.034701828 0.005087339
000030 cb e0 64 3d 52 04 3d 3d 19 56 02 3d df 96 17 3d
       0.05587844 0.0461467 0.03182039 0.037009116
000040 07 e0 71 3d 87 ae 05 3c a4 7e fa 3b 9b 97 ca 3d
       0.05905154 0.008159286 0.0076444913 0.09892198
000050 2f 58 1d 3d 65 f6 b4 3c 53 4e d8 bc 5f 84 57 3d
       0.038414177 0.022090146 -0.026404535 0.052616473
000060 db 3c a9 3c 2d 39 ff 3c f7 7a 8c bc 11 66 87 3d
       0.020658901 0.031155193 -0.017148478 0.066112645
000070 9f f8 82 bc 86 e0 28 bd 89 28 98 bc 6d b3 09 bd
       -0.015987692 -0.041229747 -0.018574016 -0.03361838
000080 66 19 44 bd 4d fd 14 bd d8 e8 b3 3c 35 e6 df 3c
       -0.047875784 -0.03637438 0.021961614 0.027331451
000090 e7 77 39 bd 0f f9 43 ba 75 07 0f 3d c6 7f 19 3d
       -0.045280363 -0.0007475772 0.03491922 0.03747537
0000a0 56 dc 3b 3c 49 85 ba bc c0 22 00 3c 3c 75 05 bd
       0.011466106 -0.022768633 0.007820785 -0.032582507
0000b0 29 59 49 bd da 32 c6 3a 2d 0a d4 3c c8 f9 32 3b
       -0.049157295 0.0015121356 0.025883758 0.0027309526
0000c0 67 4d 20 bc e4 90 8d 3d 42 56 cf 3b 8b b0 08 bd
       -0.009784079 0.06912401 0.0063274214 -0.03337149
0000d0 c9 c6 e3 3c f3 18 0e 3d 67 30 b5 3a e7 75 26 bd
       0.02780475 0.034691762 0.0013823629 -0.040639784
0000e0 7e a0 e9 bc db c0 a1 3d 25 86 ba 3b e5 32 43 bd
       -0.028518911 0.078981124 0.005692261 -0.04765596
0000f0 61 3d ef 3a b5 78 04 bd 4c fe 8b 3d 7a 6f 16 bd
       0.0018252545 -0.032341678 0.06835613 -0.036727406
000100 43 16 1f bb 26 f2 42 bc 52 ad 2d 3c cb c1 30 bd
       -0.0024274744 -0.011898553 0.010600405 -0.043153565
000110 93 d1 e0 3c 8a 45 7e bd f3 72 b1 3b 2a 4d 03 3b
       0.027443683 -0.062078036 0.0054153143 0.0020035007
000120 93 5e ee bc 3c be 8e 3d d2 2f 31 bd ea 3b 24 3d
       -0.02909783 0.06969878 -0.043258496 0.0400962
000130 b2 b5 d5 3c b2 d7 a3 3c e4 fc 06 bd 95 d3 a6 bc
       0.026087616 0.020000312 -0.03295602 -0.020364562
000140 a3 30 3f 3d 22 0f e0 3c 51 9d fb 3b 5b 22 4c bd
       0.046677243 0.027350966 0.0076786657 -0.04983745
000150 d7 32 90 3d 1b 5e 67 3d ed 4f 8e 3d d4 c6 46 bd
       0.07040947 0.05648623 0.069488384 -0.04852946
000160 85 35 a2 3b 9c 04 5d 3d 07 7a d9 3b 91 fd 24 bd
       0.0049502277 0.053959474 0.0066368612 -0.040280882
000170 bb 04 25 3d eb 2a e7 bc ab b7 4b 3d 5c 1e 92 bc
       0.040287714 -0.028218707 0.049735706 -0.017836742
000180 e8 84 77 3a 80 73 f3 bc 2c 72 eb 3c 84 6d 51 bd
       0.0009442107 -0.02971816 0.028740965 -0.051129833
000190 49 d3 01 3d cd 02 36 bd 1d a7 76 bd 80 bc 8d bc
       0.031695638 -0.044436265 -0.060217965 -0.017301798
0001a0 54 ef 47 bd 5b 98 59 bd f2 8f b8 3c 47 c5 63 bd
       -0.048812225 -0.053123813 0.022529576 -0.05560806
0001b0 3d 88 bf bc 06 bd 10 3d 55 86 10 bd f8 a0 06 3d
       -0.023380393 0.035336517 -0.03528436 0.032868356
0001c0 2b 27 3f 3d 25 62 a5 3c d4 b8 67 bc 14 0b 02 bc
       0.046668213 0.0201884 -0.014143188 -0.007937212
0001d0 20 14 fe 3b f6 38 de 3c 3f ee b1 3b fb e3 58 3d
       0.007753864 0.02712677 0.0054300125 0.052951794
0001e0 46 a7 f9 3a 9d d1 d9 ba 47 61 9b 3d eb c9 ae bc
       0.0019047044 -0.0016618256 0.075869136 -0.021336516
0001f0 2a 93 ef bc 0a fd fc 3c 03 94 25 3d f7 fa 45 bc
       -0.029244978 0.030882377 0.040424358 -0.01208376
000200 c4 73 89 3c ec 4b a7 bb f6 3b 7f 3d 61 7b 49 bd
       0.016778834 -0.005105486 0.062313043 -0.04918993
000210 a9 70 2f bd 7d 19 5b bd 34 80 cb bc 0b fb fb bc
       -0.04283205 -0.053491104 -0.024841405 -0.030759355
000220 56 94 35 bd c7 44 0b 3c f2 1d 3e bc 06 1e 39 bd
       -0.044330917 0.0085002845 -0.011603819 -0.04519465
000230 b2 5f 51 3d 3a 46 9d 3c b8 36 a9 3c 17 b9 d1 3c
       0.051116653 0.019198526 0.020655975 0.025600953
000240 23 3e 18 3d 47 15 f3 3c 3a 27 86 3d 1a 67 ac bc
       0.037168633 0.029673232 0.065504506 -0.021045256
000250 f9 43 4e bd 3a 95 35 bd 96 8d dc bc 31 c8 b0 3c
       -0.050357793 -0.044331767 -0.026922982 0.021579834
000260 a4 2f cc bc f9 fb 02 3d c8 23 f3 bb d4 53 d5 bc
       -0.02492506 0.03197858 -0.007420037 -0.026040949
000270 c1 b0 7f bb 27 0c 93 3d a9 3a 0b 3d 59 b6 37 bc
       -0.0039015266 0.07180052 0.03399149 -0.011212909
000280 24 27 f1 3c 94 ab 5a bc 1c 0b 32 bd 22 7b 48 3d
       0.029437609 -0.0133465715 -0.043467626 0.048945554
000290 1a 57 cc bb fc 52 29 bc 0f 95 8e bc da e2 78 b9
       -0.0062359693 -0.010334726 -0.017405061 -0.00023735632
0002a0 50 25 2e 3d ba e4 f2 3c d0 0f 0a 3c a7 80 23 bd
       0.042516053 0.029650081 0.008426622 -0.039917614
0002b0 51 90 4e 3d dd 7d 5a 3d 23 a6 83 3d 08 f2 0d bd
       0.0504306 0.05334269 0.064281724 -0.034654647
0002c0 da 64 1b 3d 0a 7f d0 bc cc 5e 13 bd 56 a2 29 3d
       0.037937976 -0.025451202 -0.035979077 0.04141458
0002d0 9e 52 df bc c4 ef 09 bc d2 7d 87 bd 59 b0 57 bd
       -0.027261075 -0.008418981 -0.06615795 -0.052658413
0002e0 77 6a 03 bd a4 85 4a 3d 7e 2e 87 bd 00 0d e1 bc
       -0.032083955 0.049443856 -0.066006646 -0.02747202
0002f0 54 94 a7 3c 84 86 88 3c b6 8a 0f 3d 06 61 99 3d
       0.02045647 0.016665705 0.035044394 0.07489209
000300 ee bb e5 3c ce 05 ac 3d d7 09 e2 3c 1a ad a5 bc
       0.028043713 0.08399545 0.027592583 -0.020224143
000310 87 a3 25 bd 49 94 52 3e 31 f5 2d bd e4 86 f2 3a
       -0.040439155 0.20564379 -0.04247016 0.0018503335
000320 3e 2d ad 3c 92 ba 05 bd 9b 8f 43 bb ab ab 31 3d
       0.021139737 -0.03264863 -0.0029840234 0.043376606
000330 33 0f 58 bd 44 2a 50 3d be 2e 37 3d 10 09 03 bd
       -0.05274887 0.050821558 0.04472231 -0.031991065
000340 1f 93 e8 3b b1 20 0d bd 2e 57 4f bd 5c 07 1e bd
       0.0070976163 -0.034455005 -0.05062025 -0.038581237
000350 ab 43 9c 3c d5 92 4b 3c 77 44 ef 3c 50 32 6b bd
       0.019075235 0.012425144 0.029207451 -0.05742103
000360 c2 93 af bc c5 ad d6 bb 62 68 bf 3c ef 3f 5e bc
       -0.021432761 -0.0065514767 0.023365203 -0.013565048
000370 2f 99 65 bd cb 5f 75 3c 10 db 6e bd 79 12 33 bc
       -0.05605429 0.014976452 -0.058314383 -0.010929697
000380 aa 37 a4 bc 00 f0 84 3d 22 d7 00 3d 23 81 25 bd
       -0.020046074 0.06491089 0.031455167 -0.040406357
000390 ed 14 f0 bc 6c fc 51 bd e6 3b 19 3d b0 53 89 bc
       -0.029306853 -0.05126612 0.03741064 -0.016763538
0003a0 78 a1 cf bc e2 f6 0b 3b 9a 61 ab 3c 27 d4 63 bd
       -0.025345549 0.002135687 0.020920563 -0.055622246
0003b0 d5 47 91 bd 2a 01 21 3d 75 db 45 3d 3c 08 ee 3c
       -0.07093779 0.03930775 0.048304994 0.02905666
0003c0 3d 44 0d 3d 85 2e 84 bc 27 37 d8 3b e6 ed 66 3b
       0.034488905 -0.016135463 0.0065983715 0.0035237013
0003d0 a1 ae 46 bb be b0 05 3b 95 e8 bc 3c 7a bc 0f 3b
       -0.003031649 0.0020399536 0.023060123 0.002193241
0003e0 eb 96 76 3d 0a a3 61 3d a7 4d 68 3d d8 4f 29 3c
       0.06020252 0.055087127 0.05671468 0.010333978
0003f0 5d d1 d9 3c 64 86 4d bd 3f 9b bb bb ea d1 11 bc
       0.02658909 -0.050176993 -0.005725294 -0.008900145

bias f4 [32]
000000 97 25 eb 3c 47 35 1f 3d 8e 9f 1a bd 79 8f 4c bb
       0.028704448 0.03886917 -0.03774982 -0.0031213446
000010 17 35 ae bc 1c 08 7c 3c 61 99 75 3c 7e 9e 1b 3d
       -0.02126555 0.015382793 0.014990182 0.037992947
000020 e1 ac 6d 3d 98 94 97 bd d5 b9 88 bb a4 bf a1 3c
       0.0580262 -0.07401389 -0.0041725435 0.019744702
000030 33 33 c1 bc ab 83 ca bc c9 38 3b 3d 5c 62 b4 3c
       -0.023583984 -0.024720987 0.04570845 0.022019558
000040 59 ee 0b 3d 16 ea 70 3c 3b 6b 41 3d 58 36 09 bd
       0.034162853 0.014704248 0.047221404 -0.033499092
000050 cf 97 98 3c a2 ba 46 3d c8 6d 55 bd b9 13 36 3d
       0.018627075 0.04851783 -0.05210665 0.044452403
000060 4d 93 84 bc dc 2c e7 3a dc 7e 5f bd b2 80 14 3d
       -0.01618352 0.001763727 -0.054564342 0.036255546
000070 cd 79 95 3c 5b 68 7c 3c 4a 52 ce bb 54 32 45 bd
       0.018246556 0.01540574 -0.0062964307 -0.0481437

weight f4 [64, 2]
000000 59 fa 19 3f 3d 58 34 bd 56 5a da 3e a7 98 4d 3e
       0.60147625 -0.044029463 0.42647046 0.20077763
000010 96 fc dc be 42 4d d5 bc 94 7b c8 be 48 15 06 bf
       -0.43161458 -0.026037816 -0.39156783 -0.5237622
000020 a4 e5 30 bf ea ba 47 be 79 61 b9 3e 07 01 91 3d
       -0.69100404 -0.19504896 0.36207178 0.07080274
000030 5e 7f 0b be 49 d7 5c be 5c fe b5 be 39 78 0c bf
       -0.13622805 -0.215665 -0.35545623 -0.54870945
000040 5a 92 14 3f ef 70 cb bd 93 69 d1 be 8b 03 81 3c
       0.58035815 -0.0993365 -0.4090086 0.01574876
000050 27 33 30 3f 01 39 22 bf d0 8a 46 be 0a 57 2b bf
       0.6882805 -0.6336823 -0.1938889 -0.66929686
000060 8a 9e fc 3e 40 f0 db be a9 3b 8d 3e 65 6e a9 be
       0.49339706 -0.42956734 0.2758458 -0.33092037
000070 3b 0d 94 bd 26 be d6 be 08 53 2b 3f c8 b5 9a be
       -0.07229086 -0.41941947 0.6692357 -0.30216813
000080 79 2f 30 bf 94 e5 0d bf 82 e8 13 3d ea 09 34 3f
       -0.6882244 -0.55428433 0.03611041 0.7032763
000090 26 6d a8 3e 5c f7 9b be 2f 8b 22 3f 6d b1 2e bf
       0.32895774 -0.30462158 0.6349363 -0.6823948
0000a0 cd 99 0a 3e 13 1b 32 bf 6d f1 1c bf 9d 0e c2 be
       0.13535233 -0.6957256 -0.61305887 -0.37901774
0000b0 b9 78 c9 bd ee fb 8f 3d eb bf 07 bf 1c 29 34 3f
       -0.09837479 0.07030474 -0.5302722 0.7037523
0000c0 b9 37 88 3e 9a 20 d9 bd 0d b7 0f 3f f8 b6 20 3f
       0.26605013 -0.106019214 0.5613869 0.6277919
0000d0 bf 60 e2 3d 3e 84 2b 3f b0 69 be 3e e4 3e 02 3e
       0.11053609 0.6699866 0.37190008 0.12719303
0000e0 d2 a7 4b 3e 27 b8 10 3f 5f 3f c2 bd 89 6b 10 3f
       0.19888237 0.56530994 -0.09484743 0.56414086
0000f0 02 60 e8 3d eb ae 02 3f 43 01 1b 3e 68 89 cd be
       0.11346437 0.51048154 0.151372 -0.40143895
000100 56 e1 95 be 0d e7 56 3e c5 09 1c bf d8 d4 ed 3e
       -0.2927348 0.20986576 -0.6095241 0.4645145
000110 f9 22 cb be 0d e8 b1 3e 74 0d b6 bd f5 ba b6 be
       -0.3967512 0.34747353 -0.08889285 -0.35689512
000120 8e ef 0f be 85 49 ce 3d ee 36 81 3e ae b1 1e bf
       -0.14056227 0.100726165 0.2523722 -0.6198987
000130 5f 18 53 3e 75 74 9b be 11 1e 84 bd 64 4c f2 be
       0.20614766 -0.30362287 -0.06451047 -0.47323906
000140 0e 77 e8 be f0 bf 84 be 3f 8d df 3e 43 9f 2f bc
       -0.45403332 -0.25927687 0.4366245 -0.010719123
000150 27 05 f1 be 32 d7 bf 3e 40 8c 30 3f b8 12 84 3e
       -0.47074243 0.37468868 0.68964005 0.2579553
000160 02 51 1c be a6 2e d0 3e 8d be 16 3f e2 c9 6f be
       -0.15265277 0.4066059 0.5888451 -0.23416856
000170 e6 b8 2a bf be 2b 21 bf 64 39 5a 3e a6 07 13 3f
       -0.6668838 -0.6295737 0.21310955 0.57433546
000180 55 23 21 3f 9e 81 ea 3e 7e 97 47 3e b1 73 2d 3f
       0.6294454 0.45802015 0.19491383 0.67754656
000190 7b 22 c8 3c 02 cf 7c be ec 23 c7 be d8 84 03 bf
       0.024430504 -0.24688342 -0.38894594 -0.5137458
0001a0 57 37 c6 be a3 ba 86 bd 30 dd 14 3f a2 cf 34 bf
       -0.38714096 -0.06578567 0.58150005 -0.7062932
0001b0 13 4e 1d bf f8 f3 75 be c4 48 70 be 48 ff cf be
       -0.61447257 -0.24018848 -0.23465258 -0.40624452
0001c0 07 5f c4 be b6 8b 00 3e c5 c0 e0 3e 21 cb e9 3e
       -0.3835375 0.12553295 0.4389707 0.45662788
0001d0 41 c0 5d be 93 d0 13 bf a2 05 03 be 45 9f 2e be
       -0.2165537 -0.57740134 -0.12795117 -0.17052944
0001e0 6d 67 a8 3e f7 81 d0 3e 71 04 14 3f 43 1d f9 3e
       0.32891408 0.40724155 0.5781928 0.48655137
0001f0 b3 79 e3 be 6d 1d 15 bd d5 3c 8f be a7 97 70 3d
       -0.44428787 -0.036405016 -0.279761 0.058738377

bias f4 [64]
000000 b5 57 00 3e 9d d2 5d bd 32 fb ac 3b 5a 26 6f bf
       0.12533458 -0.054155935 0.0052789683 -0.93417895
000010 af 9e 32 bf 0f 70 b4 3e 31 a2 a9 3e 23 3f 1f 3f
       -0.6977338 0.35241744 0.33131555 0.62205714
000020 d8 9b f0 3e 32 6f 8f be 97 ea 97 3e 99 83 bd be
       0.469939 -0.28014523 0.29671165 -0.37014464
000030 75 89 03 bf c1 d6 4b 3d f7 a9 63 3f f1 1e 3d 3f
       -0.5138162 0.049765352 0.8893122 0.7387534
000040 d8 16 96 3e f2 74 a8 be e7 dc 7c 3e c2 2a e5 3e
       0.29314303 -0.32901722 0.24693643 0.44759184
000050 67 fb c6 be 9a 55 f5 be 25 85 b3 be 1f 9a 2c 3e
       -0.3886368 -0.4791687 -0.3506252 0.16855668
000060 85 28 21 bf 89 b9 19 bf aa 43 17 bf 08 e0 1c 3f
       -0.6295245 -0.6004873 -0.5908762 0.61279345
000070 5c ba 65 3f 3f c6 29 3f 7d a3 24 3d 1f 5b 22 3f
       0.89737487 0.66318125 0.040194977 0.6342029
000080 0a ac 0a be b6 1e af be c0 79 cd bd 34 f2 90 bd
       -0.1354219 -0.34203118 -0.100329876 -0.070774466
000090 fc 6e 02 bf 98 5a 0f 3f e1 35 fc be b7 51 38 3c
       -0.509506 0.5599761 -0.49259856 0.011249951
0000a0 69 19 b9 be f2 5d ed bc 1e 22 1c 3f aa 6f f0 3e
       -0.361522 -0.02897546 0.6098956 0.46960193
0000b0 88 84 03 be 79 cc 34 bf 16 a0 a6 be 11 96 1f bd
       -0.12843525 -0.706245 -0.3254401 -0.038961474
0000c0 74 07 2d 3f 09 52 75 be 46 ad c2 be 04 23 05 bf
       0.675895 -0.23957075 -0.38022822 -0.52006555
0000d0 11 0c fd 3d 16 9c 32 3f ce 0e d8 be fc 82 c8 be
       0.12355817 0.6976942 -0.42198795 -0.39162433
0000e0 f3 26 11 bf 62 ea 3a bd 7e 5e 4c be 59 8e 97 3e
       -0.56700057 -0.04563368 -0.19957921 0.2960079
0000f0 43 57 12 bd 73 ba ac 3e 3d 00 cf 3e ee d5 19 bf
       -0.03572775 0.33736 0.4042987 -0.60092056
