docs/models/delay_full.pt (torch, 143755 bytes, 24 tensors)

weight f4 [32, 1, 9]
000000 73 80 03 3e e0 04 44 be 8f 87 4b 3e 02 f5 cc 3e
       0.12841968 -0.19142485 0.1987593 0.40030676
000010 e6 07 51 be 98 32 8c bb 35 47 01 bf 0e 25 d4 3e
       -0.2041317 -0.004278492 -0.5049928 0.4143452
000020 95 8b 3a bd 87 e4 a2 3e fa 8f 2a be 08 e9 87 be
       -0.045543272 0.31814978 -0.16656485 -0.26544976
000030 17 9e 07 3e 0e 77 fe 3e d7 8e 9e 3d d2 1f 8a be
       0.132439 0.49700207 0.07742088 -0.26977402
000040 1f 32 4b bd c5 dc 0f 3f 2a e3 98 3f 04 38 27 3f
       -0.049608346 0.5619624 1.1944325 0.6531985
000050 49 e7 e8 bc 08 89 23 3f 08 62 f3 3e 1f be 0d 3c
       -0.028430598 0.6388097 0.4753573 0.008651285
000060 39 7d e1 3d d0 e0 de 3d ff 9c e7 3e 20 0c 3a 3e
       0.110102125 0.10882723 0.45236966 0.18168688
000070 f6 24 5d 3d 98 0c cc be db 47 04 3d 8f c6 f6 be
       0.053990327 -0.39853358 0.03229509 -0.48198363
000080 9d 71 c3 be 38 5d 86 be dd 1c a7 3a df 10 9e 3d
       -0.38172618 -0.26242995 0.0012749691 0.07718062
000090 bf 37 24 bf a9 34 b5 be ec f9 9b be fb 8e 85 be
       -0.6414756 -0.3539174 -0.30464113 -0.26085648
0000a0 15 4a 7b be 16 e6 24 bd c0 05 51 bf 29 a4 0b 3f
       -0.24539979 -0.04025849 -0.816494 0.54547364
0000b0 eb 78 a2 3e de a8 17 bf 6c a9 52 be b3 d9 0d bf
       0.31732878 -0.59242046 -0.20572442 -0.5541031
0000c0 be 5b b8 be 2c ae 93 be ea 9c 2a 3d db e9 c3 be
       -0.36007494 -0.2884382 0.04165355 -0.38264355
0000d0 14 30 53 3e 6d 62 5f 3e 22 e8 3e bf 26 ff bb be
       0.20623809 0.2181489 -0.74572957 -0.367181
0000e0 93 db ca be 84 08 e8 be 03 f2 17 3e 61 3f d3 bd
       -0.39620647 -0.45318997 0.14838414 -0.10314823
0000f0 32 3b c6 3d 89 49 ce 3d 8a 8a 67 3e 20 4c 26 bf
       0.09679259 0.100726195 0.22611442 -0.6495991
000100 60 66 26 be ce ce 3b be 50 cb cc be ef a7 91 be
       -0.1624999 -0.18340608 -0.39998865 -0.28448436
000110 e9 8d 2b bf a2 ee c3 be 24 d5 3c 3d ec 8f 92 be
       -0.6701341 -0.38268 0.046101704 -0.2862543
000120 9f 85 05 3f 1d 60 c8 3e 99 b8 ea bc 69 d4 9a 3e
       0.52157015 0.3913583 -0.028652476 0.3024018
000130 0f 88 08 3f f9 ad 38 3e 47 33 70 3e 60 e3 c5 be
       0.5333261 0.18035115 0.23457061 -0.38650036
000140 7b 19 af 3e 67 42 be 3e 0d 62 c9 3e 59 4d e2 be
       0.34199128 0.37160036 0.3933262 -0.44199637
000150 74 b6 5b be e4 a5 d6 be b6 83 22 3d 91 22 f0 3e
       -0.21456319 -0.4192344 0.03967639 0.46901372
000160 3d 05 44 bd 0d bc 65 be c3 4b 6f 3d 6d 68 0f be
       -0.047856558 -0.22435017 0.05842186 -0.14004679
000170 e9 3c 19 be e8 00 b5 bd bd e3 71 3b e1 9d 28 3e
       -0.14964642 -0.088380635 0.0036909424 0.16466476
000180 2d 55 55 3f e4 66 06 bf 6d d5 43 bf 63 b0 da be
       0.8333309 -0.5250075 -0.76497537 -0.42712697
000190 8b 30 c4 be a6 0a 8e be 54 34 ff be 6c 3b dd be
       -0.38318285 -0.277425 -0.4984461 -0.43209398
0001a0 7e ce 35 be 60 f7 53 be ba 77 e7 bd a6 97 d1 3c
       -0.17754552 -0.20699835 -0.11302133 0.025585007
0001b0 b2 13 b3 be e1 03 a1 be dc 78 3e be 7a c4 cb be
       -0.34975964 -0.31448272 -0.18600792 -0.39798337
0001c0 bc 14 8e be e2 b3 6f be 9b 08 1b bf da c3 f4 3e
       -0.27750194 -0.23408464 -0.60560006 0.47805673
0001d0 5d 94 f9 3d 01 34 36 3e a0 39 77 3e e6 52 20 bd
       0.12186501 0.17793275 0.24143076 -0.039141558
0001e0 98 d3 30 3d 0d 08 bb be f3 58 90 be 7e 8d a6 3d
       0.04317054 -0.3652958 -0.28192863 0.08132456
0001f0 51 fb ac bd 1f 3b 14 be eb 27 2a bd f7 22 c7 be
       -0.08446372 -0.14475678 -0.041541975 -0.38893864
000200 57 68 11 3c 15 c8 81 be bc ed bc 3d e8 4b b2 bd
       0.008874974 -0.25347963 0.09225032 -0.08705884
000210 2a 4f 91 be c9 1e c9 bb 83 bd 87 3e 74 13 d9 3e
       -0.2838071 -0.006137703 0.26511773 0.42397654
000220 5c 1c 3f 3e e7 65 ca bd e8 da a5 3e af 92 f6 3d
       0.18663162 -0.098827176 0.32393575 0.120396964
000230 37 22 3b be 4f 69 cb be 9f 62 c3 3e 09 52 04 3f
       -0.1827477 -0.39728782 0.3816118 0.51687676
000240 f0 ee e8 3d fb 28 d4 3c 9c e6 96 be d4 e8 95 bd
       0.11373699 0.025898447 -0.29472816 -0.07319799
000250 4e e2 0b 3e 07 15 9e be b8 0a 0f be 1a 19 a1 3d
       0.13660547 -0.30875418 -0.13968933 0.07866116
000260 90 8d 60 3d bf 58 16 3e 74 d6 ba be 0b cd 1d bf
       0.054822505 0.14682291 -0.3649174 -0.61640996
000270 e0 ad e1 bd c2 b2 48 be fa 24 0a bd 47 85 c7 be
       -0.11019492 -0.1959944 -0.03372667 -0.3896887
000280 20 c6 82 3d b8 9e 02 3f 42 3f b1 be 1c 0a d8 3e
       0.063854456 0.51023436 -0.34618574 0.42195213
000290 b2 d4 29 3f 08 b4 1f 3f b3 37 46 3e 14 22 81 bd
       0.6634017 0.6238408 0.19357185 -0.06305328
0002a0 58 10 0f bf 92 f5 08 bd b3 dd c6 3d da 89 1e bf
       -0.55884314 -0.03343732 0.097102545 -0.61929095
0002b0 7f e0 43 bf ed a4 15 bf a6 90 51 bf 3f 1b 17 bf
       -0.7651443 -0.5845478 -0.8186134 -0.5902595
0002c0 fc fb 24 bf 89 5d 89 bf ff 94 c3 3e aa 2f 1d bf
       -0.64447 -1.073167 0.38199612 -0.61400855
0002d0 47 4a 17 bf 0c a8 cd be 7f ff d2 bd 11 20 1e bf
       -0.59097713 -0.40167272 -0.10302638 -0.6176768
0002e0 a4 8e 8b be 80 cd 00 3e f4 1e 0e be f6 6d cb bc
       -0.27257264 0.12578392 -0.13878995 -0.024832707
0002f0 96 59 b2 3d bd b8 b7 be 27 e1 db 3d 5d 09 84 3e
       0.087084934 -0.35883132 0.10736304 0.25788394
000300 67 7f 09 3d ad ab eb 3e 8f 5e f7 3e 1f 0a 81 3e
       0.033568766 0.46029416 0.4831433 0.25203034
000310 08 b5 f6 be 5d a4 ba 3e 65 d1 28 bb f7 21 92 bc
       -0.4818499 0.36453524 -0.0025759574 -0.017838461
000320 02 f0 b4 3c 57 df 8a 3e 61 32 36 3e 32 28 33 3e
       0.0220871 0.2712352 0.17792656 0.17495802
000330 43 be 9e bd c1 55 00 be 60 f9 aa 3e c7 bf b5 bd
       -0.07751133 -0.12532713 0.33393383 -0.08874469
000340 d0 37 41 be 2f 76 be be 50 20 29 be 63 2a 91 be
       -0.18868947 -0.37199542 -0.16516232 -0.2835265
000350 cb 7b 52 be b7 80 03 3e 0a d0 39 3e cc c6 b8 be
       -0.20555036 0.1284207 0.18145767 -0.3608917
000360 53 3d 3d 3f 67 44 9a 3e 6d ef f7 3e 00 3a 33 3f
       0.739217 0.30130312 0.48424855 0.70010376
000370 68 6f 09 3f 80 a5 35 3e 12 2a 48 3e ee 29 89 be
       0.5368562 0.17738914 0.19547299 -0.26789802
000380 e4 af 13 3f e6 50 43 be fd c3 f3 be d2 e8 b7 be
       0.5769026 -0.19073829 -0.47610465 -0.35919815
000390 50 e7 a5 be 0c 47 db be 8a 05 ee bd 21 5f 46 bd
       -0.3240304 -0.42827642 -0.1162215 -0.048430566
0003a0 04 ea fc 3d 17 f4 36 bf 1f 0e 10 bd 3b 34 51 be
       0.123493224 -0.714662 -0.035169717 -0.2043008
0003b0 10 2b 94 3e c3 d2 84 3e 54 95 be 3d 30 a7 98 be
       0.28939104 0.25942048 0.09305826 -0.29815054
0003c0 32 f8 b2 3d 60 a0 90 3e 68 3e 5b 3e ad d9 2d bf
       0.08738746 0.28247356 0.21410525 -0.6791027
0003d0 48 b1 d7 be b2 b6 11 bf ba e6 e9 bd 78 e9 db be
       -0.42127442 -0.56919396 -0.11420961 -0.4295156
0003e0 e4 18 b9 be 50 c9 27 bf d9 55 54 3e 5d 67 33 be
       -0.36151803 -0.65541553 0.20735873 -0.17519899
0003f0 d8 42 be 3e a9 75 1c 3e 88 96 b1 3d 6e 3b 20 3e
       0.37160373 0.15279259 0.0867129 0.1564767

bias f4 [32]
000000 0d 95 aa be f3 a1 b8 3e cf 01 7c bd b8 1d 52 3e
       -0.33316842 0.36061057 -0.061525162 0.2051915
000010 fd f1 a8 be 97 67 ae 3c ae 50 82 3e 46 f8 9c 3d
       -0.32997122 0.02128963 0.2545218 0.07664542
000020 a6 34 fa bd 15 78 8e be 5e db c0 3c 3d 27 64 be
       -0.12217073 -0.2782599 0.023542102 -0.22280593
000030 70 8a cc ba e4 4f a6 3d 5e 5e d8 3d c0 ea 3a be
       -0.0015605222 0.08120707 0.10564874 -0.18253613
000040 91 c6 1c 3e d3 c2 27 3e 99 7e 8e bd 90 b2 1d 3e
       0.15310122 0.16382913 -0.0695774 0.15400147
000050 a3 6f 0e 3e 8f fd 02 3e 06 0e 12 be 6b 19 ea 3d
       0.13909774 0.12792037 -0.14263162 0.11430629
000060 22 b2 05 be 2a cd 48 3e 63 bf d1 3d 76 0f 4a 3e
       -0.13056234 0.19609514 0.10241582 0.1973246
000070 4a 36 57 be 4e fe 07 3d 25 d3 72 3e df 3a 96 3d
       -0.21016803 0.03320151 0.23713358 0.073354475

weight f4 [64, 2]
000000 ed 17 53 be 12 ed 15 3e 7c 2e 08 bd 1c 08 22 bf
       -0.20614596 0.14641216 -0.033247456 -0.63293624
000010 4f 57 c5 be c2 e9 ed 3d d2 5a f2 3e e2 29 2b bf
       -0.38543174 0.116168514 0.47334915 -0.66860783
000020 82 30 9b be 5d 09 b6 be 5e e2 0a 3e ae fe f6 3d
       -0.30310446 -0.3555402 0.13562915 0.12060295
000030 32 6a 31 bf 6f 91 58 be 4e e1 0a bf 8b fe 49 3d
       -0.69302666 -0.21149229 -0.5425004 0.049315017
000040 cb b6 28 3f 78 e0 15 bf 33 6c 15 3e d1 e8 df 3e
       0.6590392 -0.5854564 0.14592056 0.43732312
000050 92 2e b9 3e b6 a4 a6 3e 61 bf 12 bf cd 7d ce 3d
       0.36168343 0.3254754 -0.5732327 0.10082588
000060 9c 15 19 3f cf fe 28 3f dc cf 50 bd 72 03 6c bc
       0.597986 0.6601381 -0.05097948 -0.014405118
000070 44 bf 1c bf 9c ad 31 bf 2b 83 b3 3e bd 10 6e 3d
       -0.6122935 -0.6940553 0.3506101 0.05812143
000080 72 30 16 bf 53 ba 0d 3f 1d 97 e5 3d df 6d 0f 3f
       -0.5866767 0.55362433 0.11210463 0.56027025
000090 2b a5 2d 3f 01 d5 21 bf cb 88 a0 be c7 22 42 3e
       0.6783015 -0.63215643 -0.31354365 0.18958579
0000a0 bc c5 2f be e1 0e ff 3e 6c 66 1b 3f 2b 1d bd 3d
       -0.17165273 0.4981604 0.6070316 0.09234079
0000b0 b5 46 2d be ee 48 9a 3e 8b 94 34 be 49 51 0f 3f
       -0.16921504 0.30133766 -0.1763479 0.55983406
0000c0 90 4a 7b 3e 5f 42 93 3e 6d 6a 83 be 67 c4 31 bf
       0.24540162 0.28761575 -0.25667134 -0.6944031
0000d0 bb 39 2a bf 28 3a 02 3f 85 67 96 3e 79 69 1a bf
       -0.6649434 0.5086999 0.29375854 -0.6031719
0000e0 9a 2c 31 3f 33 d4 29 bf da 72 cc be 0e 1a 10 3f
       0.6920868 -0.66339415 -0.39931375 0.56289756
0000f0 96 08 df 3e 41 ab a4 3e 44 10 16 3f 3a ae 18 bf
       0.43561238 0.32161906 0.5861857 -0.5964085
000100 14 eb ea bc d5 ab a3 3e fb 37 ff be 11 86 8a be
       -0.028676547 0.31967035 -0.49847397 -0.2705541
000110 33 e4 fe be f2 89 24 3f a6 86 c4 3d c3 14 fe be
       -0.49783477 0.6427299 0.09595995 -0.49625215
000120 01 ef 9b be 00 2e c3 be 98 83 7b 3e 8a c7 07 3f
       -0.30455783 -0.38121033 0.24561918 0.5303885
000130 01 c2 01 bf 78 88 31 3e 47 09 14 bf 82 93 22 be
       -0.5068665 0.17337215 -0.57826656 -0.15876582
000140 35 10 d9 be a0 1a 29 be bf 45 27 be 9c ef b5 be
       -0.42395177 -0.16514063 -0.163352 -0.3553437
000150 df e6 e7 be de 65 27 3f 4c eb 2f 3f 34 71 db bd
       -0.45293328 0.6538981 0.6871841 -0.10714951
000160 11 5c dd 3e f3 66 9a 3e 47 39 24 3e 0e 64 b5 be
       0.43234304 0.3015667 0.16037475 -0.35427898
000170 78 63 db 3e 22 82 29 3f 31 c6 6f 3e f3 e0 b5 3e
       0.42849326 0.6621419 0.23415448 0.35523185
000180 ce ea 27 bf 00 ed 0a 3f f4 94 c6 3e 6e 2d a0 bd
       -0.6559266 0.54267883 0.38785517 -0.07821165
000190 db 8f 95 3e 70 73 31 bf 3f f5 15 3e 81 0e 01 3d
       0.29211316 -0.6931677 0.14644335 0.031507973
0001a0 73 fb 02 3f e9 a6 8d 3d d2 9b 3f 3e fd 7f 9b bc
       0.5116493 0.06916601 0.18711784 -0.018981928
0001b0 0d 69 b7 3e 19 2b 9c be 7c 7c 2b 3f ef 55 9a 3e
       0.35822335 -0.3050163 0.66986823 0.30143687
0001c0 80 21 20 be 7e 17 28 be 41 e1 29 bf cb a4 ac 3e
       -0.15637779 -0.16415212 -0.66359335 0.33719477
0001d0 be 02 14 3f 99 ed f0 be 6a a1 71 3e ea 46 eb 3d
       0.57816684 -0.47056273 0.23596731 0.11488135
0001e0 17 06 fc be ed 50 55 be 5d b8 40 be 18 0b 2c bf
       -0.49223396 -0.20831652 -0.18820329 -0.6720443
0001f0 fd 1c d7 3e 23 e4 b6 3e 2b eb 33 3c 3c 82 11 bf
       0.42014304 0.3572093 0.010981361 -0.56839347

bias f4 [64]
000000 53 06 d1 bd 21 bb ae be 15 e2 df 3e 7e 95 19 bf
       -0.102062844 -0.34127143 0.43727174 -0.5999373
000010 52 11 d0 3e 86 9e 3a bf 06 6b de 3d ba 62 00 3f
       0.40638214 -0.7289814 0.10860257 0.50150645
000020 84 bc 15 3f be 31 98 be f0 80 c7 be 1c 87 aa 3e
       0.58490777 -0.2972545 -0.3896556 0.33306205
000030 67 67 64 bf 24 a4 23 3f ed 37 0d 3f 21 f4 2b bf
       -0.8922028 0.63922334 0.5516346 -0.67169386
000040 ea 79 24 bf 3c c5 06 bf b2 2c 0e be 37 23 40 be
       -0.64248526 -0.52644706 -0.13884237 -0.18763433
000050 85 05 06 3f b9 26 48 bf 34 6d d2 3e 34 18 35 bf
       0.5235217 -0.78184086 0.4109894 -0.70740056
000060 76 db 35 3f 0f dd 0f 3f 73 fb 18 bf bc 50 99 3e
       0.71037996 0.56196684 -0.5975868 0.29944408
000070 c4 89 53 bf 83 9b 72 3d f4 f2 3d bf a1 8a a8 3e
       -0.8263209 0.05923034 -0.7419884 0.32918265
000080 c2 5f df be 87 e3 05 3d b8 a1 0f 3f f2 3b 07 3f
       -0.43627745 0.03268769 0.5610614 0.52825844
000090 8a 95 c4 3e 11 04 01 3f a2 22 ba 3e 4d c5 b7 3e
       0.3839534 0.5039683 0.36354548 0.35892716
0000a0 f6 f6 ed 3e 68 ae 2b be 40 11 06 bf e1 56 a6 3e
       0.4647748 -0.1676575 -0.5237007 0.32488158
0000b0 5c f5 0b 3f 81 02 2c 3d e3 74 3d be 44 d1 c7 be
       0.54671264 0.041994575 -0.1850162 -0.39026845
0000c0 11 92 0c bf 2d 2d 8e be 10 db 11 bf 36 f5 b8 3e
       -0.5491038 -0.2776884 -0.5697489 0.3612458
0000d0 45 e8 d3 be 23 4b b9 3e 57 30 07 bd cf 2d d0 3e
       -0.41388145 0.36190137 -0.033005085 0.4065995
0000e0 29 eb 1d bf 56 e0 1b 3f 1c 55 bd bd 7f 48 b8 be
       -0.6168695 0.60889184 -0.09244749 -0.3599281
0000f0 62 08 e5 3d 14 03 f9 be 46 d5 e7 3c de 17 10 be
       0.111832395 -0.4863516 0.028299939 -0.14071605

weight f4 [32, 1, 1]
000000 dd 90 40 bf e1 56 8d bf 70 4d a6 3e 9e 4c 2a bf
       -0.75221044 -1.1042138 0.32480955 -0.6652316
000010 aa 77 2f 3f 09 32 01 be 2f 80 18 bf 1b 55 9d be
       0.6854197 -0.12616743 -0.5957059 -0.30728993
000020 10 be 11 bd c7 f6 db 3e fa 3f 85 3f 72 df ac be
       -0.03558165 0.42961714 1.0410149 -0.33764225
000030 17 1a 27 bf b9 5d f6 be 15 6a 2c bb 14 2a 37 be
       -0.65274185 -0.4811838 -0.0026308347 -0.17887145
000040 94 b1 13 3f 2a 45 06 bf 27 5f 67 bf 40 2f c5 be
       0.5769284 -0.52449286 -0.90379566 -0.3851261
000050 28 b2 15 bf d5 8e 4e be 72 d4 fd 3e 1e 93 39 3f
       -0.5847497 -0.20171674 0.49576145 0.7249011
000060 e4 39 22 3d 23 f2 f0 be 31 d6 6f be 76 e1 04 bc
       0.03960599 -0.47059736 -0.23421551 -0.008110395
000070 a7 a8 f2 be f5 81 85 3f d3 c6 b4 be dd f4 6b bf
       -0.47394297 1.0430285 -0.3530794 -0.92170507

weight f4 [32, 32, 9]
000000 f9 0e 26 bd c3 6b 3d bd 96 39 67 38 1c a0 b0 3c
       -0.040541623 -0.046245348 5.5128323e-05 0.021560721
000010 45 82 26 bd 4f 7f 1a 3d f9 0d c8 3c 9b 9d 4e 3d
       -0.04065158 0.037719067 0.024420725 0.050443273
000020 a4 bb 03 bc 71 7b 27 3d 3a 55 1d 3d 46 e0 e6 ba
       -0.0080403425 0.040889207 0.038411357 -0.0017614446
000030 6b 54 21 bd 2e a6 eb bb fb 21 4e 3d a7 15 73 bc
       -0.039387148 -0.007191441 0.050325375 -0.014836705
000040 f0 57 23 3d 56 6a 37 3c aa 0b 85 bc c3 f3 5e bb
       0.039878786 0.011194786 -0.016240913 -0.0034019805
000050 90 65 1c 3d 85 86 c2 bc b4 b2 73 3c 24 05 12 3d
       0.038182795 -0.023745785 0.014874149 0.035649434
000060 8d 63 ee 3b bf e8 82 bc 42 cc 24 bc 03 f2 5a bd
       0.007275051 -0.015980123 -0.0100584645 -0.053453457
000070 dc 46 f4 b9 19 f4 2c 3d fa 5f dd bc 35 8a 01 3b
       -0.000465921 0.042224977 -0.027023304 0.0019766216
000080 41 3e ff 3c 6f 41 05 3b ef 2f 05 bd ac ef 2d bd
       0.031157615 0.002033319 -0.032516416 -0.042464897
000090 df e9 32 bc 5e a6 94 3c b0 17 bc 3b 35 d9 21 3d
       -0.010920017 0.018145736 0.0057401285 0.039513785
0000a0 76 68 88 3b d8 45 0c 3d d7 f7 59 bc 09 14 2b bd
       0.0041628433 0.034246296 -0.0133037185 -0.041767154
0000b0 09 b4 20 3d ff ec 9b bb 23 13 5d bd be 16 d1 bc
       0.039234195 -0.0047584767 -0.05397333 -0.02552354
0000c0 73 1b 1b bd 8d c0 50 3d ab 53 23 3c 5e 51 0f 3c
       -0.037867974 0.05096488 0.0099686785 0.008747427
0000d0 c3 26 ad 3d a9 8c 27 bd 63 b8 19 bd 05 54 99 bc
       0.08454659 -0.04090563 -0.03752936 -0.018716821
0000e0 41 b0 5f bd f8 eb 0c bd 0d d9 1f bd ef 2f d3 bc
       -0.05461145 -0.034404725 -0.039025355 -0.025779692
0000f0 b5 4b 3f 3c 2e b4 44 bd e8 f9 0f 3d 50 81 1d 3d
       0.011675765 -0.048023395 0.03515044 0.0384534
000100 ef 0e b8 3c 49 eb a9 3c 7b 0a d4 bc 4e 57 84 3c
       0.022468058 0.020742076 -0.025883904 0.016154911
000110 26 54 66 bd c4 00 f8 3c 20 1f 8d bd 33 4f ce bc
       -0.056232594 0.030273803 -0.06890702 -0.02518425
000120 fe b2 05 bd b2 1d 8c bc e6 00 83 bb 43 53 81 3d
       -0.032641403 -0.017104004 -0.00399791 0.06314709
000130 cb 8a 18 3d f3 9f 08 3d bb 95 97 3d 60 0a 18 3d
       0.03724174 0.033355664 0.07401606 0.03711927
000140 3c 5e 42 3d 29 d1 de bc 37 4b 95 3c aa 1f f9 3b
       0.04745315 -0.027199345 0.018224342 0.0076026516
000150 71 c9 8c 3c 28 fe 04 bc 72 42 f6 bc 0d 9a a9 3c
       0.017185898 -0.008117236 -0.03006098 0.02070334
000160 05 77 82 3c b2 9c c9 bc 39 40 89 bc d5 71 d8 3b
       0.015925894 -0.024610851 -0.016754257 0.0066053667
000170 9f 88 95 bc 77 d7 ac bc 0b 89 2f 3d 3c 12 06 3d
       -0.018253623 -0.021098835 0.042855304 0.032732233
000180 57 41 33 3d ac 8c 92 3c f8 0c a3 bd 1a 45 c2 bb
       0.043763485 0.017889343 -0.07961458 -0.0059286477
000190 31 84 5c bd 5a d3 ee 3c b8 83 4f 3d 8b fd 58 bc
       -0.053837005 0.029153515 0.050662726 -0.013244043
0001a0 af 07 13 3d 1c d4 0c 3c 3b 48 5f bd f1 46 9d bc
       0.035896 0.008595493 -0.054512244 -0.019198867
0001b0 58 fc d9 bc a1 40 45 bd 97 b9 ba bc fd 51 81 3c
       -0.026609585 -0.048157338 -0.022793574 0.015786165
0001c0 0c 93 37 bd d2 2d e9 3c df e8 80 3c 5f a1 cc 3d
       -0.04481797 0.028464232 0.015736042 0.099917166
0001d0 75 3b 61 3d b9 45 9f bc cf 1e 81 bd 21 f4 6a bd
       0.054988343 -0.019442426 -0.063047044 -0.057361726
0001e0 7c 3f a6 3d f4 bb 23 3d 87 08 18 bd 0a f2 32 bd
       0.081175774 0.039974168 -0.037117507 -0.043687858
0001f0 c9 36 c1 bd 50 df ba 3b db 87 1f 3d 2c a1 0a 3d
       -0.094342776 0.0057028905 0.03894792 0.03384511
000200 a6 f1 a4 3c c6 67 85 3c 73 4a 2d bd 67 e9 26 3d
       0.020134758 0.016284835 -0.04230733 0.040749934
000210 d8 42 b5 3c 4d d8 b6 bd f6 90 9c 3c b7 f2 cd bc
       0.0221266 -0.08927975 0.019112092 -0.02514015
000220 4f 44 4f 3d 39 04 ec 3b 67 93 5a bc 72 67 35 bd
       0.050602254 0.007202652 -0.0133408075 -0.044288106
000230 53 20 38 3d c1 85 89 bc 01 b0 28 bd 2d 43 1e bc
       0.0449527 -0.016787412 -0.041183475 -0.009659571
000240 e0 7c 1a bd 4c e0 50 3d 0c 84 b1 bc c5 6b cd 3b
       -0.037716746 0.050995156 -0.02166941 0.0062689506
000250 0a 05 d6 3c c5 d6 46 bd 31 d7 de 3c 93 a3 b2 bc
       0.02612545 -0.048544664 0.02720222 -0.021806514
000260 77 65 f2 3c 26 a8 2d 3d d9 36 43 3d ee 19 2e bd
       0.029589398 0.042396687 0.04765973 -0.042505197
000270 9b ec 29 3c 91 61 b2 bc 86 6f 62 bd 4d 74 8c 3c
       0.010371353 -0.021775039 -0.05528214 0.0171453
000280 dc d5 8a 3d f9 de 83 3c 3c 75 34 3d 50 f7 83 3d
       0.06779072 0.016097533 0.044057116 0.064436555
000290 52 8d 48 3c ca ad 61 3d 2e e0 fe bc 56 7c da 3c
       0.012240725 0.05509738 -0.031112757 0.026670616
0002a0 5e 49 43 3c c5 45 0f bc 57 81 63 3c fb bb d0 3b
       0.011919348 -0.008744662 0.0138858175 0.0063700653
0002b0 86 b4 ef bc 84 ef 2e bd b5 7b 77 3c a2 85 62 3d
       -0.029260885 -0.04270889 0.015105178 0.055303223
0002c0 ab b6 e1 3c 61 5e e9 bb dc 09 7f b5 f8 40 00 bd
       0.027552923 -0.0071218465 -9.500925e-07 -0.03131196
0002d0 65 cd 38 3b fb 96 f4 3c 0e d3 40 bd 21 35 21 bd
       0.0028198597 0.02985715 -0.047076277 -0.03935731
0002e0 fe 24 e6 ba 2e c1 6f 3d df 46 5b 3d 76 ec 31 ba
       -0.0017558632 0.05853384 0.053534385 -0.00067872496
0002f0 e1 cb a7 ba 49 27 5a 3d c1 70 ca 3b 6b 68 bb bc
       -0.001280185 0.05326012 0.006177992 -0.022876939
000300 de 9e a8 3d c7 13 6b 3c bc 71 96 bd 8e 45 7f 39
       0.082334265 0.014347977 -0.07345912 0.00024344606
000310 74 71 1c bd e5 69 3f 3d 65 f7 99 bd 1d fa 80 3c
       -0.038194135 0.04673185 -0.0751789 0.015744263
000320 03 8e 8d bd 12 59 50 3c 4b 20 48 bd 10 3b 3c 3c
       -0.06911852 0.0127165485 -0.048858922 0.011488691
000330 3c 4f 92 bb be f3 b0 3d 5e 98 cc bd b0 10 dd bc
       -0.004465012 0.0864024 -0.09989999 -0.026985496
000340 e5 cd 36 bb c7 3f 96 3d 2e d3 28 bd 3c dd 41 bd
       -0.0027893719 0.07336383 -0.04121702 -0.047330126
000350 6a ad f7 3c 50 8e 2f 3d 01 e6 1f 3d 12 fa 8c 3c
       0.030234057 0.04286033 0.03903771 0.017209087
000360 cc c8 b6 3c 75 5d d4 bc 2a ee 9f bc 61 e7 99 3c
       0.022312544 -0.02592347 -0.019522745 0.018787088
000370 1d d0 a7 bc 56 a4 85 3c 8b 42 8b 3c b7 34 93 3d
       -0.020484978 0.016313713 0.016999504 0.07187789
000380 f3 c5 0f 3d d5 58 50 3d 42 da 51 bd c5 ae 94 3b
       0.03510089 0.050865967 -0.051233537 0.0045374357
000390 c6 e0 53 bc 59 87 11 3c 30 0f bd 3c f6 79 b6 bc
       -0.012932008 0.008882367 0.023078531 -0.022274952
0003a0 6f 53 3f bd ad dd 54 3c 17 2b 2e 3a 2d 41 8e 3d
       -0.046710428 0.012992305 0.0006643994 0.06946025
0003b0 7e 22 6b 3d d0 76 ed 3b cc e3 4f 3c 43 b1 de 3c
       0.05740594 0.0072468296 0.012688588 0.027184134
0003c0 74 c9 62 bb 54 40 12 3d 7f d9 85 3d f9 c5 0e 3c
       -0.0034604939 0.03570588 0.06535625 0.008714193
0003d0 0c e3 62 bd 28 8b 9a bd 71 38 51 3c 9e d9 1d 3d
       -0.05539231 -0.07546073 0.012769804 0.038537614
0003e0 8a 15 01 bd df 4f 34 bd 33 3f 40 bd 13 e6 10 3d
       -0.031514682 -0.044021484 -0.04693527 0.035375666
0003f0 26 1f 0e 3d ff dc fa 3c 43 97 c3 bd 24 b6 1d 3d
       0.034697674 0.030622957 -0.09550335 0.03850378

bias f4 [32]
000000 d1 36 9b bc b9 7a 90 3c 93 c4 4a bd 8e 77 3e 3d
       -0.018947037 0.017636644 -0.049503874 0.046500735
000010 c3 e9 10 bc b0 5e 5a bd 4c c7 2e 3d ef b9 e1 bc
       -0.008844796 -0.053312957 0.042670533 -0.02755448
000020 9f 2f aa 3d 28 6f 81 3b e3 65 07 bc f5 ea 60 3d
       0.08309864 0.0039500184 -0.008264038 0.054911572
000030 34 e4 66 bd 03 84 1c bd 6e 0b f4 bb a2 43 7f 3d
       -0.056369975 -0.038211834 -0.0074476516 0.06232036
000040 52 d6 93 3c 88 ed 3b bd 5d 8f aa bc 63 c3 34 3c
       0.018046532 -0.045880824 -0.020820314 0.011032912
000050 2b a1 1e 3d 4c d4 13 bd e6 73 2e bc 87 e3 b2 3b
       0.03872792 -0.036091134 -0.0106477495 0.0054592523
000060 8b ec 23 3d eb f0 8b 3c f4 3c 31 3d df 14 26 bc
       0.040020507 0.017082652 0.04327102 -0.010136812
000070 9f 60 da 3c 29 12 bc 3c 78 99 24 bb eb f0 9d 3c
       0.0266574 0.022957878 -0.0025115889 0.019279918

weight f4 [64, 2]
000000 e5 6e 1e 3f 74 d4 33 be 4b 4a b2 3e ab 89 17 be
       0.6188796 -0.17561513 0.34822306 -0.1479861
000010 bf c7 9a be 8a af 00 3f 01 2e 89 3e 2a 25 b1 be
       -0.3023052 0.5026785 0.2679291 -0.34598666
000020 0d 3b 30 bf 77 2d db be 75 6e 19 bd 75 f1 93 3e
       -0.68840104 -0.42808124 -0.037458856 0.28895155
000030 6d 07 20 be 7e 42 24 3f 52 2d 0f bf 72 48 5d 3c
       -0.15627833 0.6416396 -0.5592853 0.013506042
000040 1e 60 b4 3e 6e 90 97 3e 55 38 0e 3f 5b fb 02 3e
       0.35229582 0.2960238 0.55554706 0.12791197
000050 2c 69 34 bf 4b 6d 74 bd 29 d1 89 be 11 2b 35 3e
       -0.7047298 -0.059674542 -0.2691739 0.1769221
000060 4a 68 00 bf 84 0b e9 be e6 90 c6 be 3a c3 c8 3e
       -0.5015913 -0.45516598 -0.38782424 0.39211446
000070 90 9c 8a bc 6c e0 c3 3e a8 a4 d0 3e 73 5f 54 3e
       -0.016920358 0.38257158 0.40750623 0.20739536
000080 05 0d 8c 3e 12 41 bc 3e 55 52 07 be 67 60 20 3f
       0.27353683 0.36768395 -0.13215001 0.626471
000090 fc 98 22 bf 83 1e a9 3d 82 3e 21 be b0 83 d9 be
       -0.63514686 0.08257773 -0.15746501 -0.42483282
0000a0 30 13 7b be d0 50 80 be 8f 45 57 3e a7 39 93 be
       -0.24519038 -0.25061655 0.21022628 -0.28754923
0000b0 54 bd 31 3f 3f 77 1a bf 6d 30 14 bf b8 2f aa 3e
       0.69429517 -0.60338205 -0.5788639 0.33239532
0000c0 4c 0c a6 be be cd a9 be 7d 6a c1 3d 31 df bb be
       -0.32431257 -0.3316478 0.09444139 -0.3669372
0000d0 63 13 05 bf 30 65 73 3d 03 6b 02 3f 88 d9 2f be
       -0.51982707 0.05942267 0.50944537 -0.17172825
0000e0 29 60 33 3f ee 6f af 3e 19 22 29 bf c2 11 8a be
       0.70068604 0.34265083 -0.66067654 -0.26966673
0000f0 14 76 e9 be c5 8f 16 3f ce c9 08 be 9e da 22 3e
       -0.455979 0.58813125 -0.13358232 0.15903708
000100 99 e5 1e bf bf e8 85 be 04 f2 d1 3e 11 19 89 3c
       -0.6206909 -0.26154134 0.41004956 0.016735585
000110 af d3 c7 3e 85 8f 1c bf e5 4d 31 bf 26 2e ee 3e
       0.3902869 -0.61156493 -0.6925948 0.46519583
000120 5f a1 60 bd 55 db cf 3d 41 e3 15 3f 4e 49 27 3e
       -0.054841395 0.10149256 0.58549887 0.16336557
000130 bd 57 fc be 8b 84 b8 be 06 88 24 bf 6e cf 1c 3f
       -0.4928569 -0.36038622 -0.64270055 0.6125401
000140 89 3e b3 be f7 28 27 bf 37 c3 e6 3e c7 bc 19 3f
       -0.35008648 -0.6529688 0.45070812 0.60053676
000150 89 99 1e 3f 1a fe 18 3f 28 ad 31 3f 88 e8 73 be
       0.61953026 0.5976273 0.6940484 -0.23819172
000160 6c 62 f8 3e 66 6c eb be d3 be 1f bf f8 5a b2 3e
       0.4851259 -0.4598114 -0.6240055 0.3483503
000170 73 26 63 3e 17 d2 86 be 11 d7 ad be de 05 95 3d
       0.22182636 -0.2633216 -0.33953145 0.0727651
000180 2b b0 ca 3e 43 90 0e bf 3f 9d 45 be a3 51 d9 be
       0.3958753 -0.55688876 -0.19298266 -0.42445096
000190 e0 23 8d 3d 4b 27 1f bf 85 81 c4 be b5 34 27 3c
       0.06891608 -0.6216933 -0.38380066 0.010205437
0001a0 ed 28 d2 bd cf d6 c1 bc 77 76 da 3e a6 be b2 3d
       -0.10261712 -0.023661999 0.42668507 0.087277696
0001b0 32 83 38 3e ee ce 1b 3f 1f 18 a4 be 32 9b e0 3e
       0.18018797 0.60862625 -0.32049653 0.43868405
0001c0 ab a4 78 be e7 c8 c2 be fe 91 d7 be 0f 88 94 be
       -0.24281566 -0.380439 -0.4210357 -0.29010054
0001d0 7e 41 10 be 59 56 a8 3e 07 c3 8b bd 5f 45 1e be
       -0.14087483 0.32878378 -0.06824308 -0.1545615
0001e0 b5 06 8d bd f7 d5 b9 3e 49 26 24 3f 92 99 a1 3e
       -0.06886045 0.36296055 0.6412092 0.31562477
0001f0 07 a3 03 3d ff 9f ed 3e 63 b5 d0 3d 6c 50 5d 3e
       0.032137897 0.4641113 0.10190847 0.2161271

bias f4 [64]
000000 76 86 22 3f b6 21 ff 3e 99 fe 9a bd 27 08 20 be
       0.6348642 0.49830407 -0.07568092 -0.1562811
000010 b1 2f 9d be 3a 8a c6 be 89 23 1b 3f e5 a1 d6 be
       -0.30700448 -0.38777333 0.606011 -0.4192039
000020 83 c2 30 be 99 29 ad 3c b0 06 d7 be 11 e6 fe bd
       -0.172617 0.021138 -0.4199729 -0.124462254
000030 c3 c2 73 3e 9f 71 97 be e4 cd 3e bf d0 63 4e bf
       0.23804764 -0.29578874 -0.74532914 -0.8062105
000040 6d a4 32 bf 31 48 32 3f e3 08 4b bf 56 ef f9 be
       -0.69782144 0.69641405 -0.79310435 -0.4881541
000050 6a b6 34 bf 89 b5 da be ba 45 28 bf d7 39 d1 3b
       -0.7059084 -0.42716625 -0.65731394 0.006385069
000060 b4 c9 77 be e7 8f aa be 93 63 66 be f0 cf 95 be
       -0.24198037 -0.33312914 -0.22498922 -0.29260206
000070 87 29 9c be d7 31 0c bf ce dc 86 3e 91 7a 44 bd
       -0.30500433 -0.5476355 0.26340336 -0.04796845
000080 78 bf 9a 3e 48 df 11 3f e0 6d 39 be 02 20 62 be
       0.30224204 0.56981325 -0.1810832 -0.22082523
000090 41 43 43 bc 9c 60 21 bf 9b 11 1f 3f eb ff 10 3e
       -0.01191789 -0.6303804 0.6213624 0.14160125
0000a0 e0 e7 21 3f c5 c7 ed be 7d 43 bf 3e 04 f3 f4 be
       0.6324444 -0.46441475 0.37356177 -0.47841656
0000b0 52 2b 04 3f 82 47 2b bf f7 e5 bb be 4c 78 51 be
       0.516286 -0.6690599 -0.36698887 -0.20456046
0000c0 b0 8c 97 bb 84 4c 16 bf 42 c1 8c 3e 03 3e 2e bf
       -0.0046249256 -0.58710504 0.27491194 -0.6806337
0000d0 dd 94 b2 be df 7e 2e 3f 28 d6 08 bf f1 4c 22 bf
       -0.348792 0.6816234 -0.53451777 -0.63398653
0000e0 2e 64 18 3f bb 4b cd bd ec 9e 88 be 0e 6d 0a be
       0.5952786 -0.1002421 -0.26683748 -0.13518164
0000f0 c3 4e b1 3e a3 36 0e 3f a3 b3 99 be ea 7d e4 3e
       0.34630403 0.5555212 -0.30019864 0.44627315

weight f4 [32, 32, 1]
000000 0b d2 f6 3d a3 29 65 bd 0f 95 4c bd 60 f7 d8 bd
       0.12051781 -0.05594791 -0.04994684 -0.10594058
000010 6d 8c 07 3d 65 c9 46 be 80 d2 35 3d 07 3d 57 bd
       0.033092905 -0.19412763 0.0443902 -0.052548435
000020 95 c9 db 3d 21 6d e8 3d 1c 33 ae bd 69 09 68 3d
       0.10731808 0.1134894 -0.08505842 0.0566496
000030 4e 87 d8 3d 49 32 01 3e 24 c8 4d 3e ba 1d e3 bd
       0.10572682 0.12616839 0.20095879 -0.11089654
000040 e6 76 8d 3d d3 7f 2a 3e 9e 4b 9e 3d 6f 45 2d 3d
       0.06907444 0.16650324 0.077292666 0.042302545
000050 58 3e 1b 3e 6b 82 95 3d 95 f7 22 be 61 6a 45 3d
       0.15160501 0.07300266 -0.15914758 0.048197154
000060 2e 3d 87 3d f3 e8 4e bd 9d aa 86 bc a9 02 2e 3c
       0.06603466 -0.050515126 -0.016438777 0.010620751
000070 a3 5f 89 3b 2d 97 f2 3d ec b6 f7 3d c5 04 53 bd
       0.004192309 0.11845241 0.120954365 -0.05151822
000080 02 b3 af bd 2f 3a ec 3d a2 c3 8e bd 15 1b df 3d
       -0.08579065 0.11534535 -0.06970908 0.10893837
000090 ca 2d ea bd 0a 33 15 be 28 3c 7c bd da b6 e3 bc
       -0.11434515 -0.14570251 -0.061580807 -0.027797151
0000a0 af 77 02 be f5 e2 8d 3d f5 ab e9 3d 3e 20 ce bd
       -0.12740968 0.06928054 0.11409751 -0.100647435
0000b0 40 cd 66 bd 27 f2 4b 3c 69 40 14 be 8c b1 05 be
       -0.056348085 0.01244787 -0.14477696 -0.1305601
0000c0 f2 2a 09 3d 59 b6 2a be e3 ee 61 3d e9 dd 3c be
       0.03348822 -0.16671123 0.05515946 -0.18444027
0000d0 3e 3d ad bd c4 95 a4 bd a6 42 ac 3c f1 5b d8 3d
       -0.08458947 -0.08036378 0.021027874 0.105644114
0000e0 f9 54 07 3e 77 c8 44 be ff 9b fc 3c c3 63 ec 3d
       0.13216008 -0.19217096 0.030836103 0.115424655
0000f0 57 e7 d2 bd 88 80 1a bd 9a 85 8f bd f7 56 10 bd
       -0.10298031 -0.037720233 -0.07007904 -0.035239186
000100 90 c9 36 3e de 01 6c 3e c3 81 29 be 90 69 3c 3e
       0.17850327 0.23047587 -0.16553406 0.18399644
000110 9c 05 a9 bd 4b 78 e2 bd a8 9e d7 3d 09 1c 0d be
       -0.08253023 -0.110581 0.10528308 -0.13780226
000120 27 17 a4 bd 86 60 9a 3c 0e 5c 2f be 94 93 1a bc
       -0.080122285 0.018844854 -0.1712496 -0.009434599
000130 29 2c 13 3e 82 49 17 3e a4 6f 77 bd 64 6f 34 3e
       0.14372315 0.14774135 -0.060409203 0.17620617
000140 ca d7 f1 bc fe 2b 09 3e 3f 9c 96 3d 3b b9 58 bd
       -0.029521842 0.13395688 0.0735402 -0.052911025
000150 f2 4b 34 3c 87 96 34 3b 9c 03 fb bd 78 06 f0 bc
       0.011004435 0.0027555542 -0.12256548 -0.02929996
000160 77 16 be 3d 7f 2b b1 3c 90 33 e2 3d df ea b0 bb
       0.092816286 0.021627186 0.11044991 -0.0053990926
000170 2a 45 0e 3e 2b 4b 42 be 77 62 69 3c d6 89 01 3e
       0.13893571 -0.18973987 0.014244667 0.12650236
000180 6b 95 27 3e eb b6 35 3e 4a 82 7b 3d 6f fc 24 3e
       0.16365592 0.17745559 0.06140355 0.16111921
000190 9f 7c c1 3d 94 73 2c bd 32 4c 9a bd d2 db e0 bd
       0.09447598 -0.04210241 -0.07534064 -0.109794274
0001a0 fa 1f dd bd ef 5b bd bd 10 83 cf 3d 6d d9 a2 bd
       -0.10797115 -0.092460506 0.1013242 -0.07951627
0001b0 6c 5b da 3d d0 37 0b be 46 54 b8 bb 77 ad ca bd
       0.106619686 -0.1359551 -0.0056252806 -0.09896367
0001c0 e0 ae 34 bd f2 44 11 3e 80 af 2b 3e 12 bb 06 3e
       -0.044112086 0.14186457 0.16766167 0.13157299
0001d0 00 c9 31 bd 71 a2 bc 3d fc b4 36 be c4 46 2e bd
       -0.04340458 0.09210671 -0.17842478 -0.042547956
0001e0 64 43 8e bd 9c 6a f9 bd a9 ac 1b bd 22 30 0b 3e
       -0.069464475 -0.12178537 -0.03800646 0.1359258
0001f0 cb f7 d1 bd c1 ef 21 be 96 21 d4 bc 6a 58 67 3d
       -0.10252341 -0.15814115 -0.025894921 0.056480803
000200 9c ef ce 3c 4c 0c 40 be 66 fb 00 3e 11 f5 01 3c
       0.025260739 -0.18754691 0.12595901 0.007931964
000210 11 d5 19 3e 03 35 da bd b6 6e e0 bc c8 a5 97 3d
       0.15022685 -0.106546424 -0.027396541 0.07404667
000220 17 0b 21 be 27 0e 8c bd 2c f8 60 3e 72 72 42 bd
       -0.15726887 -0.06838637 0.2196967 -0.047472425
000230 83 d7 a2 bd 4d 45 29 3d 97 13 87 3c ca 62 20 be
       -0.07951262 0.041325856 0.016488833 -0.15662685
000240 50 23 5f 3d 49 a7 37 bd 70 18 91 3d 95 16 0f 3d
       0.054477036 -0.04483727 0.07084739 0.034933645
000250 33 8c 98 bb f0 45 1e 3e 9f dc 1a 3e 44 8a 8a 3d
       -0.004655385 0.15456367 0.15123223 0.06764653
000260 e8 06 88 3d a3 f1 b0 3d e6 da db 3d 08 03 33 3e
       0.06641942 0.086398385 0.10735111 0.17481625
000270 6a 95 34 bd 0b 4d a4 bd 02 a7 58 be 30 76 38 be
       -0.044087805 -0.08022507 -0.21157458 -0.18013835
000280 e8 2a ab bd 6a bc a0 3d 1e 8d 18 be a6 b9 ff 3d
       -0.08357793 0.07848437 -0.14897582 0.124865815
000290 c3 20 39 3d 5b ff c7 3d bf 0f fc bd 68 1e ed 3d
       0.04519726 0.09765502 -0.12307691 0.11578065
0002a0 34 a1 66 bd 55 7c 9c 3d 1d 0c 19 3e 53 ac 15 be
       -0.05630608 0.07640902 0.14946027 -0.14616518
0002b0 d1 fe 85 3c 4c 8d eb bc b1 8f d9 3d 40 40 9f bd
       0.016356857 -0.028753899 0.1062311 -0.077759266
0002c0 95 4a 06 3e e4 30 31 be 02 ca f2 bb 50 eb bd bd
       0.13114388 -0.17303807 -0.007409335 -0.09273398
0002d0 64 b8 a7 3d 4e a7 3e 3e ae 88 57 3e 8b cd 44 bd
       0.081894666 0.18618509 0.21048233 -0.048047584
0002e0 fc 7d 17 3e 06 d2 d4 bd bb 5b 07 be a5 94 3d bd
       0.14794153 -0.10391621 -0.13218586 -0.046284337
0002f0 e7 b6 7b bd 0a 6f 46 3e 43 42 b6 3d 4b 88 d7 bc
       -0.061453726 0.19378296 0.08899357 -0.026310107
000300 c3 6a 57 3c 29 80 1c bd d7 76 98 3d 80 e7 05 3e
       0.013148013 -0.03820816 0.07444542 0.13076591
000310 7e ef 09 3e f2 e3 c6 3d cb e1 12 3e 99 ec 9c bc
       0.13470265 0.09711446 0.14343946 -0.019155787
000320 1d b7 c1 3d 0c 97 1e bd fe cd 23 3c 95 90 16 3e
       0.09458754 -0.03871827 0.009997843 0.14703591
000330 aa 3e 07 3e 11 34 a2 3d 48 6c 01 bd 29 cf 46 3d
       0.13207498 0.07920087 -0.031597406 0.048537407
000340 36 ed 45 3d 3d 64 bf 3d 68 f9 7d bd 05 0d 96 bd
       0.048321925 0.09345291 -0.06200543 -0.07326702
000350 07 68 9a 3d 8c 1c b4 bd b6 24 b8 3c 63 92 3d bd
       0.07539373 -0.087945074 0.022478443 -0.046282183
000360 b6 52 27 3e 1e 88 04 be 54 4e 79 3d 76 a4 c2 3d
       0.16340145 -0.1294255 0.060865715 0.09504025
000370 b6 c9 f8 bd 32 56 b9 3d d5 0d 73 bc 8a 81 8e 3a
       -0.12147848 0.090496436 -0.014834841 0.0010872346
000380 2d 98 a1 bd f7 51 8d 3d b5 b4 32 bc 77 a5 1d 3d
       -0.07890353 0.06900399 -0.010907342 0.038487878
000390 dd 41 36 bd a7 70 25 3d b9 cc 22 be a6 55 b6 3c
       -0.044496406 0.040390637 -0.15898408 0.022257637
0003a0 36 2a 2b be 0e 9d 5e bd 7d b2 50 3e 1f 54 22 be
       -0.16715321 -0.054348998 0.20380588 -0.15852402
0003b0 2a 53 cb bd 8c d5 1e be d7 ce ae 3d 41 48 e5 bd
       -0.09927972 -0.15511149 0.08535545 -0.11195422
0003c0 b4 63 ed 3d ce 43 69 bd fb 13 0d be 30 3a 56 3c
       0.115912825 -0.05694943 -0.13777153 0.013075396
0003d0 56 1a d3 3d 2f 44 c1 3d 38 72 20 3e 9c 08 11 3e
       0.103077576 0.09436833 0.15668571 0.1416344
0003e0 28 ab 0d be a8 18 88 bd 1a ab ba 3c 16 3a b3 bd
       -0.13834822 -0.06645328 0.022786666 -0.087513134
0003f0 fa 94 82 bd 0b 7f 10 3e 44 f9 bc bd e2 4d 54 be
       -0.06376071 0.14110963 -0.09227231 -0.20732835

weight f4 [32, 32, 9]
000000 c1 61 35 bd aa 0c c8 3c dc 87 a3 3c c2 b5 13 3d
       -0.04428268 0.024420101 0.019962244 0.03606201
000010 5a a8 56 bd 61 d8 02 bd 2e 02 bb 3c c7 76 4f bc
       -0.052406646 -0.031944636 0.022828188 -0.012662596
000020 e8 59 d5 3c 06 d7 e2 bb 03 02 5f 3c 36 f5 a9 bd
       0.026043847 -0.0069226054 0.0136113195 -0.082987234
000030 ef b7 17 bd a7 8e 9e bd f8 68 af bc fa ad 35 bc
       -0.037040647 -0.077420525 -0.021412358 -0.0110888425
000040 e6 23 b8 3c f5 c7 11 3d 76 9b ea bc 1d f5 5d 3c
       0.022478055 0.035591085 -0.028638583 0.013547209
000050 a7 de 44 3d ed 25 2c 3d 25 2a 87 ba 5c 38 90 3d
       0.0480639 0.042028356 -0.0010312243 0.07042
000060 60 ad ad 3c 65 8f f1 bb cc c7 66 3c ac 8b 76 3d
       0.021200836 -0.0073718303 0.014085721 0.060191795
000070 11 ff d8 bc 6b c2 12 3c b4 f7 94 3c 4c 38 fb bc
       -0.026488813 0.008957486 0.01818452 -0.030666493
000080 fc 7e 29 bd bc 2c 82 bc 65 20 7e 3c 51 89 03 3d
       -0.041380867 -0.015890472 0.015510653 0.032113377
000090 09 e9 1c bd 37 a0 b2 bc a7 04 db bc e9 c0 6b 3c
       -0.038308177 -0.021804912 -0.026735617 0.014389255
0000a0 3f 19 a3 3c e5 b0 e3 bb 17 17 31 3d 46 6d 7a 3c
       0.0199095 -0.0069485777 0.04323491 0.015284842
0000b0 be a6 80 bd c0 42 cb 3c ea b1 51 3d 15 7a 1a bd
       -0.062818035 0.024812102 0.051195063 -0.037714083
0000c0 8e b7 e2 3c bb 9d 68 3d 79 94 49 3d 7f 58 3a 3d
       0.027675416 0.05679105 0.04921386 0.045494553
0000d0 ae 97 84 bc ea 55 5c bd 68 64 b0 bc 87 08 78 3b
       -0.016185608 -0.05379287 -0.021532252 0.003784688
0000e0 f4 34 20 bd 79 e2 f5 3c c5 17 0a bd 70 f6 3b 3d
       -0.039113 0.030015217 -0.033714075 0.045889318
0000f0 cd 4a 63 3d b6 27 51 3d 7f 7d 5b 3d a9 73 d9 3d
       0.055491257 0.051063262 0.05358648 0.106177635
000100 a5 0b 65 bc 18 09 30 3c 99 c6 86 3d 78 f9 48 bd
       -0.013979827 0.010744356 0.06580848 -0.049066037
000110 d4 5b de 3b 60 fa ef 3b 8b c9 95 3d 3f 15 dd 3d
       0.006785849 0.007323548 0.07313832 0.10795068
000120 d7 8f ee bc 9f 7b 59 b8 ac be b3 bc 75 bb 64 3d
       -0.029121323 -5.1851963e-05 -0.021941505 0.055842835
000130 06 6a b7 3a 34 17 40 3d b7 27 12 3d 5a 6a ce 3c
       0.001399339 0.04689713 0.035682406 0.025197197
000140 9f 52 8e bd f8 0d 05 3c 3b 23 a0 3c 3e df a5 3d
       -0.069493525 0.008121006 0.01954805 0.08099221
000150 e4 99 bd 3c 82 4a 9b bc 45 e1 08 bc 78 7e 3a bd
       0.02314467 -0.018956427 -0.00835449 -0.045530766
000160 96 14 03 bd 14 e5 32 3d 1c ef 5b 3c ab 48 2b ba
       -0.032002054 0.043675497 0.013423707 -0.00065339607
000170 b1 af f3 3c 70 ab 89 bd 5a a8 57 bd be 26 27 bd
       0.029746862 -0.06722152 -0.052650787 -0.04080843
000180 a6 e6 71 bd 71 1c ab 3d 51 32 41 bd 41 41 5d 3d
       -0.059057854 0.08355034 -0.047167126 0.05401731
000190 e3 2f 1d 3d f0 d3 b0 bc 59 e2 e2 bc 8b 14 17 bd
       0.038375746 -0.021585435 -0.027695822 -0.036884826
0001a0 cb d5 e3 3c a1 d3 1e 3d 06 62 3f bd 4a 55 d3 bc
       0.027811905 0.038776044 -0.04672434 -0.025797505
0001b0 66 57 aa 3b 41 6a 63 bd 1f 8d 2e bd c9 b5 e5 3c
       0.005198407 -0.055521253 -0.042615052 0.028040783
0001c0 55 5b c8 bc 05 11 0d 3c b3 28 8e bd c2 25 34 bd
       -0.024457613 0.008610015 -0.069413565 -0.04398132
0001d0 09 56 36 bc 0a 94 b5 3b 28 62 91 3c 91 69 65 bd
       -0.011128911 0.0055413293 0.017747 -0.05600888
0001e0 38 34 5e 3c da 07 0b bd 5e 98 56 bd de 47 ab 3b
       0.013562255 -0.033943035 -0.052391402 0.005227073
0001f0 5e 3b 40 3c b0 b8 ac 3d 8b 85 37 bd da 70 30 bd
       0.011732904 0.08433664 -0.04480509 -0.043076374
000200 c8 bb 22 bd 2d dd 19 3d 58 92 c3 38 b9 57 b1 bd
       -0.039729863 0.037564445 9.325583e-05 -0.0865931
000210 4c a2 3e bd 23 50 b0 3a b7 22 47 bd 31 54 78 bd
       -0.046541497 0.0013451617 -0.04861709 -0.060627166
000220 41 76 7e bb bf b2 40 3c ea 1e 85 bc 8b 67 b9 3c
       -0.003882781 0.011761366 -0.016250093 0.022632381
000230 42 14 41 3d 82 76 b6 3d 7b 8c 84 bb e1 4f 8a bb
       0.04713846 0.08909322 -0.004045067 -0.004220948
000240 69 b3 6c 3d ef 21 07 bd c9 c1 53 bd 7c 25 1a bc
       0.057788286 -0.032991346 -0.05169848 -0.009408351
000250 81 b1 f0 3c 2b 97 12 bd 52 ea 64 3c 21 91 5d 3d
       0.029381515 -0.035788696 0.013971882 0.054093484
000260 e8 5e 4c 3d 87 87 a3 bc 92 37 9f bc 14 af 60 bd
       0.049895197 -0.019962085 -0.019435678 -0.054854468
000270 81 22 0c 3e 93 4a 75 be 3e 68 a6 bd 9c 5b 98 3d
       0.13685037 -0.23954229 -0.08125351 0.07439348
000280 5d 7c 81 bd 55 6c 15 bd ff 49 28 bd f2 0c 79 bd
       -0.063225485 -0.036480267 -0.041086193 -0.06080336
000290 e0 03 79 bc 6d 7f 94 3b e6 dc eb 3d 41 f7 23 bd
       -0.015198678 0.004531792 0.115167424 -0.04003072
0002a0 58 95 21 3d a2 5f a4 bc c9 9a b9 bd 4a 08 7d 3d
       0.039449066 -0.020065133 -0.09062726 0.061775483
0002b0 08 95 7d 3d ae 9f 73 3d d4 be 66 bc dd 20 0f 3d
       0.061909705 0.059478454 -0.014083583 0.03494345
0002c0 43 fb 26 3b 40 02 63 bd 86 cc 8f 3c 4b 96 d0 bc
       0.0025479353 -0.055422068 0.017553579 -0.02546229
0002d0 03 96 bf 3d 8d 1e ad bd 11 fb 4a 3d 32 48 0f be
       0.09354784 -0.08453093 0.04955584 -0.13992384
0002e0 db f6 da 3d 2a 21 18 3d c9 65 5b bd 89 5f d7 39
       0.10691615 0.037141003 -0.053563867 0.00041079175
0002f0 0b cf 0b 3e d1 1f 04 bc f5 10 15 3d e4 67 e8 3c
       0.136532 -0.008064226 0.036393125 0.028369851
000300 76 f2 3a 3d 08 15 f5 bb 62 c5 e7 bc 81 7a 53 bc
       0.045641385 -0.0074793138 -0.028292362 -0.012907625
000310 32 ce 12 3d 98 4e 3c 3d d0 d6 45 bd 0d c8 6d 3c
       0.035841174 0.04597339 -0.048300564 0.014513028
000320 21 86 25 3d 4f b4 10 bc db e1 02 bd 5c 61 5c 3d
       0.04041112 -0.008832051 -0.031953674 0.053803787
000330 6f 62 d0 3b 90 f1 a1 3c e4 56 73 3d 81 04 01 bd
       0.0063593904 0.019768506 0.059409037 -0.031498436
000340 53 e7 bf 3c 96 df 45 bd 53 d9 a1 3d 19 5e 62 bc
       0.023425734 -0.04830893 0.079027794 -0.01381638
000350 13 c0 82 bc b4 82 2d 3d 60 4b 15 3d 57 9c b7 3c
       -0.015960729 0.042360976 0.036448836 0.022413416
000360 75 df e7 3c bd 21 48 3d f3 7f b1 bb ab 34 63 bd
       0.028304795 0.0488603 -0.005416864 -0.05547015
000370 4d a6 19 bd db c0 28 bd 4d d7 e5 bc 2a c5 78 bd
       -0.037512112 -0.041199546 -0.028056765 -0.060734905
000380 01 3d 5d bd 3a 86 32 bb ad 5b f3 ba d6 59 88 3d
       -0.054013256 -0.002724065 -0.001856675 0.0665776
000390 b1 84 17 3c ab 09 d5 3b 6b a6 37 bd fa 4c e5 bc
       0.009247945 0.0065013967 -0.044836443 -0.027990807
0003a0 e2 78 2c bd 5e 84 d4 bb 9f bc ab bc 9b 2e 13 bb
       -0.04210747 -0.006485506 -0.020963965 -0.00224582
0003b0 74 17 27 3d e4 16 19 bc 5f 1d 14 bd ed 6d 6f 3d
       0.04079385 -0.009343836 -0.036160823 0.058454443
0003c0 6d db ed 3c dd 17 64 bc f2 ce 77 3d f4 8a 58 3d
       0.029035294 -0.013921705 0.060500093 0.05286689
0003d0 27 33 48 3d ce 30 1a 3d ed 4d 34 3d fa 63 99 bb
       0.048876908 0.0376442 0.04401963 -0.0046811076
0003e0 f0 6d a8 3b c9 fc 37 3d ca 10 f8 3c de 84 f2 3b
       0.0051400587 0.04491881 0.030281443 0.007401093
0003f0 2e d6 e5 bc 94 94 73 bc 0c e7 34 bc 2e e8 aa 3c
       -0.02805623 -0.014866967 -0.011041414 0.020862665

bias f4 [32]
000000 24 31 11 bd 21 3e 45 bd c4 7d fc bc 80 9d 40 bd
       -0.035447255 -0.048154954 -0.030821688 -0.047025204
000010 82 31 7c 3d f6 f4 5d 3d 97 e1 b5 3b 96 2d 64 3d
       0.06157065 0.05418869 0.005550574 0.055707537
000020 ce 1d 10 bd 1c a9 2a bd 0d 4e f5 bc 01 dc 1f 3c
       -0.035184674 -0.04166518 -0.029944444 0.009757043
000030 02 ce b0 3c d4 ce 79 bd 4b d2 16 bc a6 04 40 3d
       0.021582607 -0.060988262 -0.009205411 0.046879433
000040 9e a3 1a 3d 1f 73 60 bd 76 28 3e bd 42 d0 72 bc
       0.037753694 -0.054797288 -0.046425305 -0.01482016
000050 3d 0e 78 3d ac f7 4b bd 06 9c f3 bc cf 5a 82 bc
       0.060560454 -0.049796745 -0.029737484 -0.015912442
000060 52 24 e5 bc e1 9c 24 bc 4f b9 ad 3c 3a 07 46 bd
       -0.02797142 -0.0100471685 0.021206526 -0.048346736
000070 4f b5 c9 bb 4a 2a 03 bb c8 7f 98 bd 9b 69 4c 3d
       -0.006155647 -0.002001422 -0.07446247 0.0499054

weight f4 [64, 2]
000000 3f bc 0b bf 95 2a f8 3e f0 21 1a 3f fe 91 a9 bd
       -0.54584116 0.48469988 0.60208035 -0.08279799
000010 65 9d ba be 8b 71 fb be ba 11 1c bf 61 bc aa be
       -0.36448207 -0.49110064 -0.6096455 -0.33346847
000020 27 2e 1d be 57 ce c6 be 03 79 ff 3c d8 7c fd 3e
       -0.15349637 -0.388293 0.031185633 0.4950931
000030 bb e4 2e bf 85 4d 6f 3e 90 32 8e bc b1 c7 d0 3e
       -0.68317765 0.23369415 -0.017358094 0.40777352
000040 05 e8 27 bf c4 02 2f bf 6a 14 b8 3e e3 4e 3d be
       -0.6558841 -0.68363595 0.35953075 -0.18487124
000050 15 67 d7 3e 65 bc 15 3f 6c 25 2a 3f 2f ac 2c bf
       0.42070833 0.5849059 0.6646335 -0.6745023
000060 74 ec e5 be 1d 91 19 3f 2c 7d c7 3e 91 65 66 be
       -0.44906962 0.5998705 0.38962686 -0.22499682
000070 72 18 13 3f 6f 9f 56 3d e1 dc f9 bb 3c dd 70 be
       0.57459176 0.05239814 -0.007625208 -0.23521894
000080 79 08 17 3f 56 57 15 bf 61 92 bc be da 23 09 bc
       0.58997303 -0.5833639 -0.36830428 -0.008370364
000090 18 90 a4 bd e0 d1 07 3e 77 96 10 bf 67 2a 46 bd
       -0.08035296 0.13263655 -0.5647959 -0.04838028
0000a0 d1 88 07 bf 51 93 01 bf a0 d1 19 3e 4c 49 bf 3e
       -0.5294314 -0.5061541 0.15021372 0.3736061
0000b0 c1 dd c2 be e5 9e 14 3e 77 fd 95 3e 14 3e 2b 3f
       -0.3805981 0.14513738 0.2929494 0.668916
0000c0 11 40 a9 be 54 2f 64 bd c6 c2 2e bf bd 05 90 3d
       -0.3305669 -0.055709198 -0.6826595 0.070323445
0000d0 aa cf 83 be f4 d2 04 be 82 7e 08 bf a7 ab 2d bf
       -0.25744373 -0.12971097 -0.53318036 -0.67840046
0000e0 8b eb 8b 3e 40 5c b4 be 9f 12 eb be 4c 9a 0a 3f
       0.27328143 -0.3522663 -0.45912644 0.5414169
0000f0 4b bf 9c be 6c 87 48 3d e1 a4 54 3d 06 e4 0a 3f
       -0.30614695 0.048957273 0.051915053 0.54254186
000100 4a c0 d2 3e 84 d8 33 be db cc 6d be 90 bb 9b 3c
       0.4116233 -0.17563063 -0.23222677 0.019010335
000110 29 59 5b be 16 f7 10 3f a5 81 c1 3e e9 64 f3 be
       -0.2142073 0.56627023 0.37794223 -0.47537926
000120 e3 7d 8d be be 57 f3 3e c9 62 24 bf 30 8b 07 3f
       -0.27635106 0.4752788 -0.64213234 0.5294676
000130 2a 1d a1 3e e4 db 28 3f e6 dc 0c bf ab 7d 06 3f
       0.31467563 0.65960526 -0.55024564 0.52535504
000140 07 34 22 3f e2 a3 34 3f 62 53 37 3e c3 e8 fe 3c
       0.6336064 0.70562565 0.17902902 0.031116849
000150 a1 18 6d bd 02 e5 d8 be 90 2e 9f bb f0 cb 73 be
       -0.057884816 -0.4236222 -0.0048578456 -0.23808265
000160 2a fd 1d 3f 7b c8 32 3f 52 f3 b3 be 70 be 2f 3f
       0.6171442 0.6983716 -0.35146576 0.6864996
000170 95 95 cb be 76 5f 52 bd a1 5d 30 bf d3 00 8e be
       -0.3976256 -0.05136057 -0.68892866 -0.27735004
000180 58 b7 2d 3f 21 1c 31 bf f6 56 af 3d 40 45 ec be
       0.67857885 -0.69183546 0.08561508 -0.46146584
000190 01 c1 96 be c4 ca 08 bf 16 69 ae be cb e4 13 bf
       -0.29444125 -0.53434396 -0.3406455 -0.57770985
0001a0 5f 34 84 be ec 13 2e 3e 66 33 a6 be 07 6a 1d 3f
       -0.25821206 0.16999787 -0.3246109 0.6148991
0001b0 e7 6d 9d bc 02 9e f8 be f7 45 9d be 46 24 22 be
       -0.019217445 -0.4855805 -0.3071744 -0.1583415
0001c0 d1 99 07 bd 8c 43 bc be 62 99 e2 3e a8 45 29 3f
       -0.033105675 -0.36770284 0.44257647 0.6612191
0001d0 2d a3 ee be ae f7 21 3c fd c6 97 3d 7d 3d 01 3f
       -0.46608868 0.009885712 0.07411001 0.5048445
0001e0 75 43 dc 3e 94 45 4f 3e 01 da 1b 3f a9 d0 31 be
       0.43020216 0.20241386 0.6087952 -0.17364754
0001f0 07 5b 20 3f 55 35 54 3e a8 0b a2 3d 86 b8 2a 3f
       0.62638897 0.2072347 0.079123795 0.6668781

bias f4 [64]
000000 13 37 26 3e dd 5c 22 3f 2a e7 0a bf c1 b7 1d 3f
       0.16231947 0.6342295 -0.5425898 0.6160851
000010 8f 9d c4 3e 22 38 24 bf 99 08 6c be a4 66 7a 3e
       0.38401458 -0.6414815 -0.23050155 0.24453217
000020 80 97 d9 3d fb d0 a5 3e d1 5e 27 3f 62 b4 25 bf
       0.106245995 0.32386002 0.65379053 -0.6472837
000030 31 d4 80 3d df ec e9 be 31 9b 8a be 36 ae 6c 3e
       0.06290472 -0.4568853 -0.27071527 0.23113331
000040 65 e1 c5 be 77 6f f0 3d 87 6f 1a 3e bf 9a e0 3c
       -0.38648525 0.1174001 0.15081607 0.027417539
000050 12 5e e1 be 24 98 f4 3e b5 fa 0f 3f 0c 9a fa be
       -0.44017082 0.47772324 0.56241924 -0.48945653
000060 48 ee 2c bf af bd 90 3e 1f 14 af be 0f 3a 1b 3f
       -0.6755109 0.28269717 -0.3419504 0.60635465
000070 01 f7 2c bf 02 3a 66 bc a6 79 74 3e 15 4b 20 bf
       -0.675644 -0.014051916 0.2387453 -0.62614566
000080 21 f1 ee 3e 95 30 29 bf 90 59 c5 3e 8b 7c 27 3f
       0.46668342 -0.66089755 0.38544893 0.6542441
000090 34 d5 fb be 7a 8c 04 3f 4a 34 6a be 58 88 1c bf
       -0.491861 0.5177685 -0.22871509 -0.61145544
0000a0 c2 87 a5 3e 27 e8 e4 3e 32 b2 14 3f 93 c0 15 3f
       0.32330137 0.44708368 0.58084404 0.5849697
0000b0 7c cd e7 3e fa d6 1e bf 47 ab 74 3e 4d 09 2f be
       0.4527396 -0.6204678 0.23893462 -0.17093392
0000c0 8e cf 61 3d 45 8b 1d 3f 97 f3 a8 3d 49 98 08 bc
       0.05512958 0.61540633 0.08249586 -0.008337089
0000d0 6d bf 83 3c 23 b2 2d bf 09 4e 7f be 9b 00 8c 3e
       0.01608249 -0.6784994 -0.24932112 0.27344212
0000e0 98 f2 13 3f 13 ea 15 3f 14 0c 16 3f 39 cc e1 3e
       0.57792044 0.58560294 0.5861218 0.44101122
0000f0 e9 b2 02 bf ff c2 2c be 88 3e a6 be 9b 12 24 3f
       -0.51054245 -0.1687126 -0.32469583 0.6409089
