docs/models/piano2egtr_full.pt (torch, 143755 bytes, 24 tensors)

weight f4 [32, 1, 9]
0	0x3e5b6dea	0.21428648
1	0x3eab6cab	0.33481345
2	0x3efc7c0f	0.493134
3	0x3f0be276	0.54642427
4	0x3e05ebd8	0.13078249
5	0x3eb51ecc	0.3537506
6	0x3cdb7c82	0.026792768
7	0x3e997d3d	0.29978362
8	0x3eb479ea	0.35249263
9	0x3d24a1f5	0.040193517
10	0x3e831e75	0.25609174
11	0x3f584806	0.844849
12	0x3f106dde	0.56417644
13	0x3e153274	0.14570028
14	0xbed195fe	-0.40934747
15	0xbe0d08e4	-0.13772923
16	0x3e641e64	0.22277218
17	0xbd12b752	-0.03581936
18	0x3f092e8c	0.5358665
19	0x3f355b1b	0.7084214
20	0x3e187876	0.14889702
21	0x3ebc5965	0.36786953
22	0xbe8659f9	-0.2624052
23	0xbf188e1a	-0.5959183
24	0xbf00099b	-0.50014657
25	0x3e1ed728	0.15511763
26	0x3e60c32a	0.21949449
27	0xbf1a37b6	-0.6024126
28	0x3d0ffc6d	0.03515284
29	0xbe9a7229	-0.30165222
30	0xbf083acd	-0.5321472
31	0x3e2a2d71	0.16618897
32	0x3ef88d64	0.48545372
33	0x3f66eae2	0.9020215
34	0x3e26634e	0.16248819
35	0x3e54357c	0.20723528
36	0xbf3bf5a7	-0.7342171
37	0xbf0467c1	-0.51720816
38	0xbf55f80a	-0.835816
39	0xbf03a698	-0.51426077
40	0xbd8b5ab8	-0.068044126
41	0x3eb64f6e	0.35607475
42	0x3eb00f61	0.34386733
43	0x3e1a53a1	0.15070964
44	0x3dd965bf	0.1061511
45	0xbdeaf96a	-0.11473353
46	0xbca05fd0	-0.019576937
47	0xbd52e47b	-0.051487427
48	0x3e661a23	0.22470908
49	0xbe1e0c59	-0.15434398
50	0x3db5e232	0.08881034
51	0xbe966685	-0.2937509
52	0x3de0d7d7	0.10978668
53	0x3d9da333	0.076971434
54	0xbf42e9af	-0.7613782
55	0xbf84dc3f	-1.0379714
56	0xbed80ae9	-0.42195824
57	0xbefcbd78	-0.49363303
58	0xbf14a785	-0.58068115
59	0xbe9aa971	-0.302074
60	0x3ec1455c	0.3774823
61	0x3e672929	0.22574295
62	0x3ee64db0	0.44981146
63	0x3e94d0e4	0.2906562
64	0x3d7c7864	0.06163825
65	0x3f2a26af	0.66465276
66	0x3f0eb775	0.55748683
67	0xbe37dcf7	-0.17955385
68	0xbe8406f8	-0.25786567
69	0xbeb2e1a2	-0.3493777
70	0x3e96acf8	0.2942884
71	0xbf352eb6	-0.707744
72	0xbe112964	-0.14175946
73	0x3dc266e3	0.0949228
74	0x3f4d587e	0.80213153
75	0x3ebea5ef	0.37235972
76	0x3f4650f9	0.77467304
77	0xbe34af61	-0.17645027
78	0x3a2ac8bb	0.00065148965
79	0xbe84b70b	-0.259209
80	0xbcd6d439	-0.026224243
81	0x3e9e4fcd	0.30920258
82	0x3f7d6678	0.9898448
83	0x3f5803cd	0.843808
84	0x3f092c9b	0.5358369
85	0x3f16f5a8	0.5896859
86	0x3ec21f15	0.3791434
87	0xbe76d1f9	-0.24103536
88	0xbe3793e5	-0.17927511
89	0xbf27a729	-0.6548944
90	0xbee733a0	-0.45156574
91	0xbf538fcc	-0.8264129
92	0xbf68fcfb	-0.9101102
93	0xbf294006	-0.66113317
94	0xbe599b09	-0.21250547
95	0x3ef3e366	0.4763443
96	0x3f02aa00	0.5104065
97	0xbe2a075d	-0.16604371
98	0x3f06efba	0.52709544
99	0xbe956596	-0.29179066
100	0xbefb46a6	-0.49077338
101	0xbeb24c66	-0.34823912
102	0xbebff04b	-0.37488016
103	0x3dbe32fd	0.09287069
104	0x3db61ac3	0.08891823
105	0x3e812f6d	0.25231495
106	0xbe331d6d	-0.17491694
107	0xbd6d5f3d	-0.057952154
108	0xbd8e2f70	-0.06942642
109	0x3e91cc9f	0.28476426
110	0xbde42a3a	-0.111408666
111	0x3e7f7c1a	0.24949685
112	0x3e3a5476	0.18196282
113	0xbe2f1c7b	-0.17100708
114	0xbe140f1c	-0.14458889
115	0x3d22d1ee	0.039750986
116	0xbdce42f6	-0.100713655
117	0xbf146093	-0.5795986
118	0xbf352bd9	-0.7077003
119	0xbf2e45db	-0.6807534
120	0xbf3823cc	-0.7192962
121	0xbdae8e83	-0.08523276
122	0x3eac8c89	0.3370097
123	0x3ef7cb32	0.48397213
124	0xbe2fd9af	-0.17172883
125	0x3ea8bffc	0.32958972
126	0x3eadf060	0.33972454
127	0x3f0a975e	0.5413722
128	0x3f4aa8e1	0.7916394
129	0x3f8a4028	1.0800829
130	0x3f22a14c	0.6352737
131	0x3dad4984	0.084612876
132	0xbeb1e158	-0.34742236
133	0x3d85cfbc	0.06533763
134	0xbea46b48	-0.321131
135	0x3d321b3c	0.043483004
136	0x3f2a657a	0.6656109
137	0x3f755d7e	0.9584578
138	0x3f011e05	0.5043643
139	0x3f18efa2	0.5974065
140	0x3eda9936	0.42695016
141	0x3cfdba5e	0.030972656
142	0xbee1b16b	-0.44080672
143	0xbe18b523	-0.14912848
144	0xbeda9e94	-0.4269911
145	0xbf6d732e	-0.92753875
146	0xbf9f6545	-1.245278
147	0xbf66efcd	-0.90209657
148	0xbf796591	-0.97420603
149	0xbe963acb	-0.2934173
150	0x3ebd9af2	0.37032276
151	0xbeb58bcc	-0.3545822
152	0x3e7b2ac4	0.24528033
153	0x3e31b626	0.1735464
154	0xbe669828	-0.2251898
155	0x3ebb9cba	0.3664301
156	0x3ea5882a	0.32330447
157	0xbe596f21	-0.21233799
158	0xbf4696d0	-0.7757387
159	0xbf6c21f5	-0.92239314
160	0x3d0b766f	0.034048494
161	0xbd63c895	-0.05561121
162	0x3bded187	0.00679988
163	0xbf1c45f2	-0.6104423
164	0x3c107d31	0.00881891
165	0xbe46427a	-0.19361296
166	0xbecd87d1	-0.40142682
167	0xbea04d6d	-0.3130907
168	0x3d973318	0.07382792
169	0xbd9d136f	-0.07669722
170	0xbeaffd08	-0.34372735
171	0xbebf090f	-0.373116
172	0xbe80e90b	-0.25177798
173	0xbf5681ab	-0.8379161
174	0xbf54016e	-0.8281468
175	0x3dc026d8	0.09382409
176	0x3e842e8e	0.25816768
177	0x3f0f5d29	0.56001526
178	0xbc5b486c	-0.013383966
179	0x3f24f410	0.6443491
180	0x3ec60eff	0.38683316
181	0x3f1cea64	0.6129515
182	0xbcaa34f9	-0.020777212
183	0x3ea7dfc5	0.3278791
184	0x3f27105a	0.65259326
185	0x3ed4a8eb	0.41535124
186	0xbd80587a	-0.062668756
187	0xbd900eda	-0.07034083
188	0xbd372aaf	-0.04471844
189	0xbe1a31b7	-0.15058027
190	0x3db27520	0.08713746
191	0xbe8e9a1b	-0.27851948
192	0xbf3b35d1	-0.7312899
193	0xbec6f887	-0.38861486
194	0x3cc43d18	0.023954913
195	0xbe9ec553	-0.3100992
196	0xbd545951	-0.05184299
197	0xbe814f7c	-0.25255954
198	0x3e824f1c	0.2545098
199	0x3e8da58d	0.27665368
200	0x3ed21ceb	0.41037688
201	0x3f091eb2	0.5356246
202	0x3e03d7cd	0.1287529
203	0x3e81837a	0.2529562
204	0x3ca0c785	0.019626388
205	0x3e97c3c3	0.29641542
206	0xbe1a8a68	-0.1509186
207	0x3d7033c7	0.05864313
208	0x3eaf93da	0.3429249
209	0x3f0e221e	0.5552081
210	0x3f5d3d31	0.86421496
211	0x3e9ad90a	0.30243713
212	0xbf13c267	-0.5771851
213	0xbf23133f	-0.6370124
214	0x3e7e9a7d	0.2486362
215	0xbf4324d5	-0.76228076
216	0x3f221fcc	0.6332977
217	0x3f289235	0.65848094
218	0x3efc988b	0.4933513
219	0x3ec7b03b	0.3900164
220	0x3d2598ea	0.040429033
221	0x3db599fc	0.08867261
222	0xbe9554f0	-0.29166365
223	0x3e40e2b3	0.18836479
224	0xbe331ac8	-0.17490685
225	0x3f23c142	0.63966763
226	0x3efe052a	0.49613315
227	0x3f653763	0.8953764
228	0x3eee45b7	0.46537563
229	0xbe7ead2d	-0.24870749
230	0xbf54df18	-0.83152914
231	0xbee44109	-0.44580868
232	0xbcaaf079	-0.02086662
233	0xbe8202da	-0.253928
234	0x3e3aa0bd	0.1822538
235	0x3f7a3e8e	0.977517
236	0x3f7b5747	0.9818005
237	0x3e27707f	0.16351508
238	0x3f3e2322	0.7427236
239	0x3eebab46	0.4602911
240	0x3e2195c3	0.15779786
241	0xbe7fe2af	-0.24988817
242	0xbe9fc554	-0.31205237
243	0xbd9bdbd2	-0.07610287
244	0xbee1f9a9	-0.44135788
245	0xbed11e25	-0.4084331
246	0xbf163e8f	-0.58689207
247	0x3f122502	0.5708772
248	0x3f1d4e50	0.6144762
249	0x3f59508f	0.8488855
250	0x3c5d62b2	0.0135123
251	0x3efeaa28	0.49739194
252	0x3eb7b48e	0.3587994
253	0x3fa211d4	1.2661691
254	0x3f725c86	0.9467243
255	0x3ed1d7ce	0.40984958

bias f4 [32]
0	0x3e8d8421	0.2763987
1	0x3e778c46	0.24174604
2	0x3e82afd9	0.25524786
3	0xbe2442ac	-0.16041058
4	0x3e5fca1e	0.21854445
5	0xbe417632	-0.18892744
6	0xbe529835	-0.20565875
7	0x3e96fd13	0.29489955
8	0xbe1b3e94	-0.1516059
9	0x3eb91ce8	0.36154866
10	0x3e91ad55	0.28452554
11	0x3e84969c	0.25896156
12	0xbe2d43fe	-0.16920468
13	0xbea6f358	-0.32607532
14	0x3e7175e0	0.23580122
15	0x3cde29b1	0.02711949
16	0x3e0d3bf1	0.13792397
17	0xbe8a6ff1	-0.2703853
18	0x3e4f35d1	0.20235373
19	0x3d244d76	0.040112935
20	0xbe8a3ba2	-0.2699862
21	0x3d1f11f2	0.038835473
22	0xbea437a5	-0.32073703
23	0x3e6d72ba	0.23188296
24	0x3e165c1b	0.14683573
25	0x3d9d8977	0.07692235
26	0xbe34abd4	-0.17643672
27	0xbeb2ab5e	-0.34896368
28	0x3e5595ec	0.20857972
29	0xbe1b6d17	-0.15178333
30	0x3de0c036	0.10974161
31	0x3d0e3756	0.03472074

weight f4 [64, 2]
0	0xbd3f7c44	-0.04674937
1	0xbd8082a1	-0.062749155
2	0x3eb12043	0.34594926
3	0xbf06507b	-0.52466553
4	0xbf1e4176	-0.61818635
5	0x3d08ee33	0.03343029
6	0xbe94ee01	-0.29087833
7	0x3e235054	0.15948611
8	0xbd0815bc	-0.033223853
9	0x3eefc141	0.4682713
10	0xbecf2d18	-0.4046409
11	0xbeb5cddb	-0.35508618
12	0xbf1603cb	-0.5859954
13	0x3d37e80d	0.044899035
14	0x3ebb1164	0.36536705
15	0xbed069ba	-0.40705663
16	0x3f166ae3	0.58756846
17	0x3ecfbdad	0.405744
18	0x3e5f37f9	0.21798696
19	0xbec34577	-0.38138935
20	0xbcb68e1a	-0.022284556
21	0x3e992c32	0.2991653
22	0x3de55ab3	0.1119894
23	0xbec985a6	-0.39359778
24	0x3f238eed	0.6388996
25	0x3cd461f8	0.025925621
26	0xbf2646cd	-0.64951783
27	0x3f163d68	0.5868745
28	0xbe847395	-0.25869432
29	0xbf054a87	-0.52066845
30	0x3e5dcd56	0.2166036
31	0xbf2f6bb9	-0.68523747
32	0x3f208c03	0.6271364
33	0xbe6b6aaa	-0.22989908
34	0x3e5b36c7	0.21407615
35	0xbe158f2e	-0.146054
36	0xbe9b27fa	-0.30303937
37	0xbf1e02d8	-0.6172309
38	0xbe8f358b	-0.27970538
39	0xbe6cff21	-0.23144199
40	0x3e7eb771	0.24874665
41	0xbed2c58d	-0.41166344
42	0xbed382b9	-0.4131067
43	0x3dd4dc85	0.10393623
44	0xbef44bd6	-0.47714108
45	0xbddfffe2	-0.10937478
46	0xbf15af69	-0.5847078
47	0x3de28b87	0.11061769
48	0x3efa946b	0.4894136
49	0xbe145d83	-0.14488797
50	0xbf185d0f	-0.59516996
51	0x3e99afcc	0.30016935
52	0xbe3e46af	-0.18581651
53	0xbed1fe58	-0.4101436
54	0x3e472770	0.19448638
55	0x3ef8e822	0.48614603
56	0xbf03675a	-0.51329577
57	0xbe34ac0d	-0.17643757
58	0xbda90005	-0.08251957
59	0x3df64122	0.12024142
60	0x3f344a9b	0.7042634
61	0xbd86d9ed	-0.06584535
62	0x3e0f241b	0.13978617
63	0x3e68b482	0.22725108
64	0xbe16deb9	-0.147334
65	0xbe5acfa1	-0.21368267
66	0x3ea82627	0.32841608
67	0x3f33cc42	0.7023355
68	0xbf1bdef9	-0.60887104
69	0xbe892c45	-0.26791587
70	0x3e186d11	0.14885356
71	0x3f22896b	0.63490933
72	0xbe624fb6	-0.2210072
73	0x3d328c00	0.043590546
74	0xbea36dd1	-0.3191972
75	0xbdbcac85	-0.09212593
76	0xbee619c3	-0.4494153
77	0x3eed6648	0.46367097
78	0x3ef0ea40	0.4705372
79	0x3da301bb	0.079593144
80	0x3f26ac22	0.65106404
81	0x3f2932e3	0.6609327
82	0x3eeb59e2	0.45967013
83	0x3ef0e473	0.47049293
84	0xbe8dd4b2	-0.27701336
85	0x3ef81fd5	0.48461786
86	0xbdb48d45	-0.088160075
87	0x3d099541	0.033589605
88	0x3c53b214	0.012920875
89	0x3e6724a9	0.22572578
90	0x3d40b994	0.04705198
91	0xbece16f3	-0.40251884
92	0xbeb43d9d	-0.35203257
93	0xbf14989d	-0.5804537
94	0x3ee724bd	0.45145217
95	0x3ef17f73	0.4716755
96	0xbf014bab	-0.50506085
97	0x3ed845ee	0.42240852
98	0x3f0c1ad5	0.5472844
99	0x3e3bf34d	0.1835453
100	0x3ed3dafb	0.41378006
101	0xbe1f8940	-0.155797
102	0x3f094913	0.5362713
103	0xbddf12f6	-0.108922884
104	0xbe60ec91	-0.21965243
105	0xbf0da052	-0.55322754
106	0xbe07eed8	-0.13274705
107	0xbecedc05	-0.40402237
108	0xbf332000	-0.69970703
109	0xbf117e59	-0.56833416
110	0xbef7106f	-0.48254725
111	0xbf314f21	-0.69261366
112	0x3ef52dca	0.47886497
113	0x3f2f0e2f	0.6838102
114	0xbe86dde7	-0.26341173
115	0xbddf509c	-0.10904047
116	0x3da04f6b	0.07827648
117	0x3d1f1b62	0.038844474
118	0x3ed2018a	0.410168
119	0x3ead11da	0.33802682
120	0x3d1f8984	0.038949504
121	0x3e824a2c	0.25447214
122	0xbf03d49c	-0.5149629
123	0x3ed2f4d9	0.4120243
124	0x3f2d6416	0.67730844
125	0xbeae44f8	-0.34036994
126	0x3ec7f786	0.39056033
127	0xbf123ab2	-0.5712081

bias f4 [64]
0	0xbefb110c	-0.49036443
1	0x3f14c4d8	0.5811286
2	0xbee57fff	-0.44824216
3	0xbf16f178	-0.589622
4	0x3ed10198	0.40821528
5	0xbf143c71	-0.57904726
6	0x3f4d3265	0.8015502
7	0xbf3f23be	-0.74663913
8	0xbece7466	-0.4032318
9	0xbf372557	-0.7154135
10	0xbee55b3b	-0.44796166
11	0x3f137371	0.57598025
12	0xbe0b74a5	-0.13618715
13	0xbec9db1e	-0.39424986
14	0x3ea02a0e	0.31282085
15	0x3f33ed71	0.7028418
16	0xbe968e59	-0.29405478
17	0x3ef0eb14	0.4705435
18	0x3ee29bd3	0.4425951
19	0x3f336ec1	0.7009087
20	0xbd81e1e7	-0.063419156
21	0xbf2a646b	-0.66559476
22	0xbe95faef	-0.2929301
23	0xbe7fa40f	-0.24964927
24	0x3ed87a8e	0.42281002
25	0xbf88372f	-1.0641841
26	0xbf065ad0	-0.5248232
27	0xbdde2da0	-0.10848546
28	0xbebe1d52	-0.37131745
29	0x3f1fe880	0.6246414
30	0x3f1749f6	0.5909723
31	0x3f43e8fb	0.76527375
32	0x3d5e3765	0.054252047
33	0x3e4f641a	0.2025303
34	0x3eb969c9	0.3621352
35	0x3eb568ab	0.35431418
36	0xbf10d9a0	-0.5658207
37	0xbde3ce5b	-0.111233436
38	0xbf0bbb6f	-0.54582876
39	0x3cca1e63	0.024672693
40	0x3f15cf48	0.5851941
41	0xbed94a65	-0.4243957
42	0x3ee873bf	0.45400807
43	0x3ea9eee4	0.33190072
44	0x3ecc8716	0.39946812
45	0x3df0f965	0.11766318
46	0xbebf86d1	-0.37407544
47	0xbf1b7606	-0.60726964
48	0x3f00334a	0.5007826
49	0xbd7d2140	-0.061799288
50	0x3f13f56a	0.5779635
51	0x3e50684c	0.20352286
52	0x3f04599b	0.5169923
53	0x3f08195e	0.5316371
54	0x3eef73fc	0.46768177
55	0x3dd3863e	0.10328339
56	0x3f1e0fca	0.6174284
57	0xbeded390	-0.43520784
58	0xbf2096b6	-0.62729967
59	0xbf2bfee7	-0.67185825
60	0x3ef6c5c3	0.48197755
61	0xbefbf477	-0.4920995
62	0xbea7ff5c	-0.3281201
63	0x3ea80c80	0.32822037

weight f4 [32, 1, 1]
0	0x3cc4cefa	0.024024475
1	0xbf4ce195	-0.8003171
2	0xbe35a3a9	-0.17738213
3	0xbf3eb55a	-0.7449547
4	0x3e6e1665	0.2325073
5	0x3f97458b	1.1818098
6	0xbdc7c593	-0.09754481
7	0x3e8824a6	0.2659046
8	0xbcf3c23f	-0.02975571
9	0x3ecef4eb	0.40421233
10	0xbf460655	-0.7735341
11	0xbf21ab0c	-0.6315162
12	0x3bddd5cc	0.0067698713
13	0xbe2936d8	-0.16524827
14	0xbf20ac79	-0.6276317
15	0xbd06b943	-0.032891523
16	0xbecf684c	-0.4050926
17	0x3ced7010	0.0289841
18	0xbf066b8e	-0.52507865
19	0x3ef4b4fc	0.4779433
20	0xbef77911	-0.48334554
21	0x3f149dd3	0.5805332
22	0xbe8258e8	-0.25458455
23	0x3f4470ef	0.76734823
24	0xbf47bd4e	-0.7802323
25	0x3f1521d2	0.5825473
26	0x3dff6f03	0.12472346
27	0x3e4e6b8d	0.20158215
28	0xbea90b23	-0.3301631
29	0x3e5830d1	0.21112372
30	0xbf628f5c	-0.885
31	0x3f23dad5	0.64005786

weight f4 [32, 32, 9]
0	0xbc8c9343	-0.017160064
1	0x3db3af93	0.087737225
2	0x3e09b942	0.13449576
3	0x3d4243f0	0.04742807
4	0x3deeb3e7	0.116554074
5	0xbdbf5199	-0.093417354
6	0x3da6de00	0.08147812
7	0xbd85b419	-0.065284915
8	0xbda20033	-0.07910194
9	0x3b8bf57c	0.0042712074
10	0xbcd813a5	-0.026376555
11	0x3d1a920b	0.037736934
12	0x3cdbc041	0.026825072
13	0xbacc0005	-0.0015563971
14	0x3d0eb9e6	0.034845255
15	0x3db57f74	0.088622004
16	0x3be79c67	0.007068205
17	0xbbb6ec10	-0.00558234
18	0xbc905ed3	-0.01762334
19	0xbcaa5aa0	-0.020795166
20	0xbd411646	-0.047140382
21	0x3ca56bcf	0.020193009
22	0x3d81d18e	0.063387975
23	0xbd1f43c7	-0.038882997
24	0xbd4f86f3	-0.050665807
25	0x3cc911d5	0.024544636
26	0xbd5fc202	-0.05462838
27	0xbd1cd341	-0.038287405
28	0x3ce68fce	0.028144743
29	0xbc4e5e59	-0.012595736
30	0x3d17101e	0.036880605
31	0xbcadced2	-0.021216784
32	0x3d1b8581	0.037969116
33	0xbc9d7038	-0.01921855
34	0xbbf21949	-0.007388268
35	0x3d66fafd	0.056391705
36	0x3d87e7ea	0.06636031
37	0x3d94e7d8	0.07270783
38	0xbcfa98ba	-0.030590404
39	0x3cf0cc8c	0.02939441
40	0x3ca8d4e5	0.020609329
41	0x3d46966a	0.04848329
42	0xbd6cbe49	-0.057798658
43	0x3db2a7d7	0.08723419
44	0x3d169980	0.036767483
45	0xbe86cb9c	-0.26327217
46	0xbf08d32e	-0.53447235
47	0xbe373b7a	-0.17893782
48	0x3e0e2b30	0.13883662
49	0x3e8909dd	0.26765338
50	0xbda503cd	-0.080573656
51	0x3e0872dc	0.13325065
52	0xbe8c5b00	-0.27413177
53	0x3d1aecc5	0.037823457
54	0x3d4ca5d5	0.049962837
55	0x3d653871	0.05596203
56	0x3c759c31	0.014990852
57	0xbc99486d	-0.018711293
58	0x3c998040	0.018737912
59	0xbc8fe7c5	-0.017566571
60	0xbd9f73af	-0.07785737
61	0x3dfc511f	0.1232016
62	0x3c61b29f	0.013775497
63	0x3cf7b095	0.030235568
64	0xbc4dfe98	-0.012572907
65	0xbc49c770	-0.012315616
66	0x3c006741	0.007837118
67	0x3e0a5947	0.13510619
68	0xbb93ebcb	-0.0045141927
69	0xbd55c5ab	-0.052190464
70	0x3e1d489f	0.15359734
71	0xbceae877	-0.028675301
72	0x3cc86544	0.02446235
73	0xbc0ae58b	-0.008477579
74	0xbce91c6e	-0.02845594
75	0xbcfc325e	-0.030785736
76	0x3b5bd6c5	0.003354476
77	0x3cac4446	0.021028649
78	0xbd005ece	-0.031340413
79	0xbcfde2e9	-0.030991988
80	0x3d38487e	0.04499101
81	0x3d374a8b	0.044748824
82	0x3d944ce0	0.07241225
83	0x3d82c306	0.06384854
84	0xba83d1dc	-0.001005705
85	0x3d49a1e2	0.04922665
86	0xbd1db094	-0.038498476
87	0xbd873306	-0.06601529
88	0x3dad9700	0.084760666
89	0xbbeba635	-0.0071914443
90	0xbcc1360f	-0.023585347
91	0xbd4d9ede	-0.050200336
92	0xbd5b6f66	-0.053573035
93	0xbd09d325	-0.03364863
94	0xbd4f80e7	-0.05066004
95	0x3c13e6ac	0.009027164
96	0xbc06bfe9	-0.008224466
97	0xbd2d0e78	-0.042250127
98	0x3d9cf526	0.07663946
99	0x3c967a88	0.018368974
100	0x3da7729d	0.081761576
101	0xbd0dde5c	-0.034635887
102	0x3cb99d43	0.022657996
103	0x3d844c2c	0.06459841
104	0xbca5363f	-0.020167468
105	0x3c725f28	0.014793195
106	0x3be5238e	0.006992764
107	0xbd6306aa	-0.055426277
108	0x3d66aa5f	0.056314822
109	0x3d5ef793	0.054435324
110	0x3d20b429	0.039234314
111	0xbc1532c9	-0.009106346
112	0x3d443501	0.04790211
113	0x3c4d2b58	0.012522541
114	0x3cc44b2f	0.023961632
115	0xbc629815	-0.0138302045
116	0x3c8d94bc	0.017282836
117	0x3bca501f	0.006174102
118	0xbc20f686	-0.009824401
119	0xbc8ad8d2	-0.016949091
120	0xbafb4f5a	-0.0019173429
121	0xbdc5d702	-0.0966015
122	0x3d821eb4	0.063535124
123	0x3d854f5d	0.06509278
124	0xbdec95cf	-0.11552011
125	0x3d1c0eb6	0.038099967
126	0x3cafc7fe	0.021457668
127	0x3b8c2a6a	0.004277517
128	0xbcdae22b	-0.026719173
129	0x3d8bd22f	0.06827199
130	0x3c8540c3	0.016266232
131	0xbcaa4637	-0.020785434
132	0x3d94f5d7	0.07273453
133	0xbcc8a4c1	-0.024492623
134	0x3d5b3363	0.053515803
135	0x3d004019	0.03131113
136	0xbccec87e	-0.025242086
137	0x3c76d3a1	0.015065105
138	0x3db3c8fe	0.087785706
139	0x3c89848f	0.016786842
140	0xbc358ff7	-0.011081687
141	0x3dbe41e3	0.09289911
142	0xbe158f71	-0.146055
143	0xbd22716a	-0.03965894
144	0xbd04352f	-0.032277282
145	0xbcc44f86	-0.023963701
146	0x3d2e6783	0.042579185
147	0x3cd4ee62	0.025992576
148	0x3d3be88a	0.045876063
149	0xbd6954b6	-0.056965552
150	0xbbd3a7f8	-0.0064592324
151	0xbc962678	-0.01832889
152	0x3cca1517	0.02466826
153	0x3d3768df	0.044777747
154	0x3d829c4b	0.06377467
155	0x3c7a205d	0.015266505
156	0xbd0db681	-0.034597877
157	0xbd891fae	-0.066954955
158	0x3df9a712	0.12190069
159	0x3d599815	0.053123552
160	0x3e0e11eb	0.13874023
161	0x3b2c3a8d	0.0026280016
162	0x3cc4bde8	0.024016336
163	0x3cb686fc	0.022281162
164	0xbd318ee7	-0.043349173
165	0xbd053732	-0.03252334
166	0x3d08b493	0.033375334
167	0xbd2349db	-0.039865356
168	0xbd812ef1	-0.063077815
169	0xbc056675	-0.008142103
170	0xbd4a96fd	-0.0494604
171	0x3d956190	0.07293999
172	0x3d5cd96b	0.053918283
173	0xbd253fa5	-0.0403439
174	0xbd474c58	-0.04865679
175	0x3e09f444	0.13472086
176	0xbd9bb90b	-0.076036535
177	0xbe19b1c3	-0.15009217
178	0x3e19bb30	0.15012813
179	0xbdeadc07	-0.11467748
180	0xbd311622	-0.043233998
181	0x3d0bc489	0.034122977
182	0xbcbb3332	-0.02285156
183	0xbb39abb8	-0.0028331112
184	0x3d2a40ef	0.04156583
185	0xbd2952fb	-0.041338902
186	0xbd22c1eb	-0.039735716
187	0x3cb5a3a5	0.022172758
188	0xbbe141ac	-0.006874284
189	0xbd32babf	-0.043635126
190	0x3d0435b2	0.03227777
191	0xbcbb5b3d	-0.022870654
192	0xbcda077b	-0.026614895
193	0xbc813eaa	-0.01577695
194	0xbd8c9c53	-0.06865754
195	0x3d8da558	0.069163024
196	0xbc933886	-0.017971288
197	0x3ce28f04	0.027656086
198	0x3cbaaad6	0.022786539
199	0x3d75b83d	0.059990156
200	0x3d336af9	0.04380319
201	0xbd80de67	-0.0629242
202	0xbd20d178	-0.039262265
203	0x3d63c6e8	0.055609614
204	0xbd1aef80	-0.03782606
205	0x3cf5644d	0.029955054
206	0x3d44140f	0.047870692
207	0xbd0554d2	-0.032551594
208	0x3c94cacf	0.018163113
209	0x3c269d1d	0.010169295
210	0xbdd96f57	-0.106169395
211	0x3e4a714d	0.19769783
212	0xbdd8fe1b	-0.10595342
213	0xbd2d8b3e	-0.04236912
214	0x3db70eee	0.089383945
215	0x3c4f71f9	0.012661451
216	0x3cd318ba	0.025768626
217	0xbd8f6d4f	-0.07003271
218	0x3d3dda9e	0.046351068
219	0xbbae119d	-0.0053121583
220	0x3ce4d8c6	0.027935397
221	0xbbb3b841	-0.0054846113
222	0xbcda60df	-0.02665752
223	0xbd8a6bc4	-0.06758836
224	0x3d1d20db	0.03836141
225	0x3d63fb2c	0.055659458
226	0xbd01f77c	-0.03173016
227	0xbd0da251	-0.034578625
228	0xbc90cafb	-0.017674914
229	0x3deb528b	0.11490353
230	0xbce336a1	-0.02773601
231	0xbd98d8ad	-0.074632026
232	0x3da2a520	0.07941651
233	0x3c2fa805	0.010721211
234	0xbbf27d1c	-0.007400168
235	0x3dbe9451	0.09305633
236	0xba37d5f4	-0.00070127775
237	0xbda8a71c	-0.082349986
238	0xbc564e23	-0.013080153
239	0x3cbea8bd	0.02327382
240	0xbda0b3cf	-0.07846796
241	0x3d9cff5c	0.076658934
242	0x3a97bbe6	0.0011576384
243	0x3c69671d	0.0142457755
244	0xbd7986ae	-0.060919456
245	0x3d298df0	0.041395128
246	0x3c8bf147	0.017082823
247	0xbae7b3c7	-0.0017677479
248	0x3d374698	0.044745058
249	0x3d1e4518	0.03864011
250	0x3b5c37f5	0.003360269
251	0xbc7785b9	-0.015107566
252	0xbcb9a476	-0.022661429
253	0x3dc613ac	0.09671721
254	0x3d65a7a7	0.05606809
255	0xbd84a0c8	-0.06475979

bias f4 [32]
0	0xbbffbc84	-0.0078044552
1	0xbd6631ff	-0.056200024
2	0x3c9fc3c5	0.01950253
3	0x3d410bf4	0.04713054
4	0xbc317f16	-0.010833522
5	0x3cfec828	0.031101301
6	0x3d2908ec	0.041268274
7	0xbd4c926c	-0.049944326
8	0xbd0927a0	-0.033485055
9	0xbbdcf08f	-0.006742544
10	0xbca74c4d	-0.020422125
11	0xbcecf335	-0.028924564
12	0x3d36cccd	0.044628907
13	0x3c95807e	0.018249746
14	0x3c1bd0bf	0.009510218
15	0x3cd3a820	0.025837004
16	0xbc325fae	-0.01088707
17	0xbcfbde20	-0.030745566
18	0xbd615c5d	-0.055019725
19	0xbcfdf2bb	-0.030999532
20	0xbbca40fb	-0.006172297
21	0x3c68a5a1	0.014199645
22	0xbd00a1a1	-0.03140414
23	0xbca90fd1	-0.020637425
24	0xbd0ce849	-0.034401212
25	0xbcbe884f	-0.023258356
26	0x3cdc85a2	0.02691919
27	0xbcd10475	-0.02551482
28	0xbd36b038	-0.04460165
29	0xbc247d92	-0.010039704
30	0x3cea66aa	0.028613407
31	0xbb7ac0ab	-0.0038261812

weight f4 [64, 2]
0	0x3ed0556b	0.4069017
1	0x3e477a69	0.1948029
2	0xbea3ab09	-0.31966427
3	0x3f34c9dd	0.7062052
4	0xbe508bf4	-0.20365888
5	0xbe4b5347	-0.19855987
6	0x3e5b7b31	0.21433713
7	0x3eb3ef22	0.3514338
8	0x3e2d9e6f	0.16954969
9	0xbf2f3dee	-0.6845387
10	0x3e730971	0.2373407
11	0xbe17b7da	-0.14816228
12	0x3f26bb37	0.6512942
13	0xbe103c5d	-0.14085527
14	0x3ee87457	0.4540126
15	0xbe1186df	-0.14211605
16	0xbe138057	-0.14404427
17	0x3deb4ef5	0.11489669
18	0x3ea49eb6	0.32152337
19	0x3d80cbc5	0.06288866
20	0xbde91534	-0.11380997
21	0xbf240c50	-0.6408129
22	0xbe097c54	-0.13426334
23	0x3e9065c3	0.28202638
24	0xbe7e176a	-0.2481362
25	0x3e93edab	0.28892264
26	0xbee325bb	-0.44364724
27	0x3ecd1e64	0.4006225
28	0x3eaebcb6	0.3412835
29	0x3eb8c5f9	0.3608854
30	0xbd072700	-0.032996178
31	0xbe6db876	-0.23214898
32	0xbf160ab2	-0.5861007
33	0x3e01fa15	0.12693055
34	0x3ef83eb1	0.4848533
35	0xbba7a962	-0.0051166276
36	0x3f019b46	0.50627553
37	0x3d47d360	0.048785567
38	0xbe8671ba	-0.2625864
39	0xbeccedd5	-0.400252
40	0xbef86e4c	-0.4852165
41	0xbddaf362	-0.10690953
42	0xbf192e6e	-0.5983647
43	0xbed8d2f7	-0.42348453
44	0x3f300fa3	0.6877386
45	0x3f0ee72f	0.5582151
46	0x3ddddde9	0.10833342
47	0xbf1c272f	-0.6099729
48	0xbe9d3fad	-0.30712643
49	0xbe6838b8	-0.22677886
50	0x3eb2e1b4	0.34937823
51	0x3f0b57ee	0.54431045
52	0x3f21d7c6	0.6321987
53	0x3c4ed1ae	0.012623234
54	0xbf25700e	-0.64624107
55	0xbf09c0d6	-0.5380987
56	0x3e76d671	0.2410524
57	0xbec1ed45	-0.37876335
58	0xbe3d7890	-0.18503022
59	0x3f29092d	0.66029626
60	0xbebce18a	-0.36890823
61	0x3f019189	0.50612694
62	0xbf214698	-0.6299834
63	0xbf232cab	-0.6374003
64	0xbeaee73d	-0.34160796
65	0xbe820a4d	-0.25398484
66	0xbea568f8	-0.32306647
67	0x3f23a755	0.63927203
68	0xbed421a8	-0.41431928
69	0x3e41399c	0.18869632
70	0xbf2fc2df	-0.68656725
71	0x3eb6bc1b	0.35690388
72	0x3e93c806	0.28863543
73	0x3e938076	0.28808945
74	0xbf01f8d5	-0.5077031
75	0xbe948d2a	-0.2901395
76	0xbe557218	-0.20844305
77	0x3f28c8da	0.65931475
78	0x3f177280	0.5915909
79	0x3f1b6ce4	0.6071303
80	0xbe65fc2f	-0.22459482
81	0xbdf87a5a	-0.12132712
82	0x3ec1a279	0.3781927
83	0x3e0c627b	0.13709442
84	0x3e044cbc	0.12919897
85	0xbe142c69	-0.14470066
86	0x3e0fc400	0.14039612
87	0x3dbeecc4	0.09322503
88	0x3e37e446	0.17958173
89	0xbefdf2e3	-0.4959937
90	0xbefed18f	-0.49769256
91	0x3eec352a	0.4613431
92	0x3f1c49be	0.6105002
93	0x3f19b834	0.60046697
94	0xbecd2ca4	-0.4007312
95	0x3edc19c2	0.42988402
96	0xbe944b1d	-0.28963557
97	0xbe78a045	-0.24279888
98	0x3f30c3b8	0.69048643
99	0xbd81c890	-0.063370824
100	0xbea0addc	-0.31382644
101	0xbe2fbc8b	-0.17161767
102	0xbec6ac23	-0.38803205
103	0x3d89dcd9	0.067315765
104	0xbf18552d	-0.5950497
105	0xbf21a453	-0.63141364
106	0xbdd79ee0	-0.1052835
107	0x3e982dd4	0.29722464
108	0x3ed11377	0.40835163
109	0x3dcf64d9	0.10126657
110	0x3f01c268	0.50687265
111	0xbf10e782	-0.5660325
112	0xbf33a7ab	-0.70177716
113	0x3da23cfa	0.079217866
114	0xbdb6ff26	-0.089353845
115	0x3f27bf7f	0.65526575
116	0x3e48aa56	0.19596228
117	0xbf06ccfd	-0.5265654
118	0xbf299a79	-0.6625133
119	0x3f03dc10	0.51507664
120	0xbeff2df0	-0.49839735
121	0x3f1fe26c	0.6245487
122	0xbf2a9517	-0.66633743
123	0x3eed711c	0.46375358
124	0xbef87e35	-0.48533788
125	0xbf2ddcb4	-0.6791489
126	0x3e8a2c69	0.26987007
127	0xbf049e2a	-0.5180384

bias f4 [64]
0	0x3e83aad6	0.25716275
1	0x3e2c988d	0.16855069
2	0xbf05314c	-0.52028346
3	0x3ef4c54e	0.47806782
4	0xbee30736	-0.4434144
5	0xbf6eb8be	-0.93250644
6	0x3f0567f8	0.5211177
7	0x3d9a547e	0.07535647
8	0x3eac6782	0.3367272
9	0xbf49b4f4	-0.7879174
10	0x3c7dd120	0.015491754
11	0xbeddc9e6	-0.433181
12	0xbee16c80	-0.4402809
13	0x3ece08d3	0.40241107
14	0xbf165d0b	-0.5873572
15	0xbf1f11d8	-0.621366
16	0xbe483d06	-0.19554529
17	0x3e8246b3	0.25444564
18	0xbf2e0be6	-0.67986906
19	0xbe2e5abb	-0.17026798
20	0x3f280a0e	0.6564034
21	0xbebdc250	-0.3706231
22	0xbf4bd1f2	-0.79617226
23	0x3ec5c3af	0.38625857
24	0xbf2d4e6c	-0.6769779
25	0xbe3cd755	-0.18441518
26	0x3f17cbb4	0.592952
27	0xbe7a14c9	-0.24421991
28	0xbf28b767	-0.6590485
29	0xbf064649	-0.52450997
30	0xbe5f5717	-0.21810566
31	0x3f2a9925	0.6663993
32	0x3e83a20e	0.25709575
33	0xbefec027	-0.49755976
34	0xbeab2a3f	-0.3343067
35	0xbe9c2e4b	-0.3050407
36	0xbeac18ed	-0.33612767
37	0xbcd16403	-0.025560385
38	0x3eb074dc	0.34464157
39	0x3f16740f	0.5877084
40	0x3e1db3a0	0.15400553
41	0xbe57e312	-0.21082714
42	0x3e9629ce	0.2932877
43	0x3eee93ac	0.4659704
44	0xbf1a1f8f	-0.60204405
45	0x3ed0519d	0.40687266
46	0xbe8a0a8f	-0.2696118
47	0xbef5345e	-0.47891515
48	0xbf2b9e63	-0.67038554
49	0xbec982a6	-0.3935749
50	0x3eac9346	0.3370611
51	0xbee8ab4d	-0.45443192
52	0xbe645847	-0.222993
53	0x3e971e01	0.2951508
54	0xbef1b78c	-0.47210348
55	0x3f236ce8	0.6383805
56	0xbf31e336	-0.6948732
57	0x3ddcf789	0.10789401
58	0x3c6950f5	0.014240493
59	0x3f0748be	0.5284537
60	0xbf315189	-0.6926504
61	0xbcde14d5	-0.027109543
62	0x3e9ddf44	0.308344
63	0xbf112e84	-0.567116

weight f4 [32, 32, 1]
0	0xbd9916aa	-0.07475026
1	0xbddd9176	-0.1081876
2	0xbdc500fd	-0.09619329
3	0x3e1298c7	0.14316092
4	0xbe02c5e8	-0.12770808
5	0x3cbb729f	0.022881804
6	0x3d7064f3	0.058690023
7	0xbd627b52	-0.05529339
8	0xbd925974	-0.07145968
9	0x3d83bbf6	0.06432335
10	0xbdd4b565	-0.10386161
11	0xbe22fc5d	-0.15916581
12	0xbd07f009	-0.0331879
13	0xbd5d8048	-0.054077417
14	0x3cfb6e48	0.030692235
15	0x3d91c081	0.07116795
16	0x3de9c2eb	0.11414131
17	0x3d910d67	0.070826344
18	0xbe0654e8	-0.13118327
19	0xbdf1f931	-0.118151076
20	0xbbdb94e5	-0.006701099
21	0x3dfbd87a	0.12297149
22	0x3dcfbf60	0.10143924
23	0xbe360f0f	-0.17779182
24	0xbc15de3d	-0.009147224
25	0x3c3578b9	0.011076146
26	0xbe3b66de	-0.1830096
27	0xbd8fc086	-0.07019143
28	0xbe38c3a7	-0.18043385
29	0x3dea427a	0.11438461
30	0x3e34fabc	0.17673773
31	0xbdfed3f3	-0.1244277
32	0xbdf58a16	-0.119892284
33	0x3dee8b67	0.11647683
34	0xbe03327a	-0.12812224
35	0xbe0699db	-0.13144629
36	0x3df153da	0.117835715
37	0x3ddd895a	0.10817213
38	0xbd927542	-0.071512714
39	0x3d871394	0.06595531
40	0x3e0f6911	0.14004923
41	0x3e1155eb	0.14192931
42	0xbd3ca6d7	-0.04605755
43	0x3e2c60cc	0.168338
44	0x3d90cf9c	0.07070848
45	0x3dfe76c3	0.12424996
46	0xbe0e090a	-0.13870636
47	0xbd098cf3	-0.033581685
48	0xbdf018af	-0.11723458
49	0x3da39058	0.07986516
50	0x3bdd37d5	0.0067510405
51	0x3d3a3cbd	0.04546808
52	0xbd8cdd9e	-0.068782076
53	0xbd62a1ef	-0.055330213
54	0xbd21f101	-0.03953648
55	0xbdb11d8e	-0.08648215
56	0xbe112c10	-0.14176965
57	0x3d3c1c7c	0.045925602
58	0x3e01fe73	0.12694721
59	0x3dba56c8	0.090985835
60	0x3dc23a41	0.09483767
61	0x3d5dfebf	0.054198023
62	0xbcfb4c10	-0.030675918
63	0xbde09fb4	-0.10967961
64	0x3cf35e81	0.029708149
65	0x3d8990a7	0.06717043
66	0x3dae1156	0.084994
67	0xbd58089d	-0.05274259
68	0xbb1fe2a1	-0.0024396556
69	0xbe0f782d	-0.14010687
70	0x3da1dfc7	0.0790401
71	0xbc1b70ed	-0.009487373
72	0xbdf377d1	-0.118880875
73	0x3db2b337	0.08725589
74	0xbd871701	-0.065961845
75	0xbd1d929c	-0.038469896
76	0xbcbc1f7f	-0.022964237
77	0xbca2f44a	-0.019891877
78	0x3ca10b57	0.019658728
79	0xbe165d96	-0.14684138
80	0x3dc64d4c	0.09682712
81	0x3c7a8f8d	0.015293014
82	0x3d4cd6d8	0.05000958
83	0x3e331105	0.17486961
84	0xbcb1b25a	-0.02169149
85	0x3b0e8f8c	0.002175304
86	0x3d41de81	0.047331337
87	0x3e4e0411	0.20118739
88	0xbd4d5bc1	-0.05013633
89	0xbd07eb14	-0.033183172
90	0xbd6418c1	-0.05568767
91	0xbe2212c6	-0.15827474
92	0xbdfe89c8	-0.124286234
93	0xbe1fb27b	-0.15595429
94	0xbe329b5f	-0.17442082
95	0x3e2b2afc	0.16715616
96	0xbde20d17	-0.11037653
97	0x3d875a0a	0.066089705
98	0xbe33d18e	-0.17560408
99	0x3d9a90ab	0.075471245
100	0xbdd4c46b	-0.10389026
101	0x3e809894	0.25116408
102	0xbe35ffe4	-0.17773396
103	0x3c1b314a	0.009472201
104	0x3da5d85e	0.080979094
105	0xbd03dccc	-0.03219299
106	0x3df84d89	0.12124164
107	0xbd563011	-0.052291933
108	0x3e0f4abb	0.13993351
109	0x3d9cd838	0.07658428
110	0xbdd204f4	-0.10254851
111	0xbd408418	-0.047000974
112	0xbcd59329	-0.026071148
113	0xbd4102fd	-0.04712199
114	0x3d8d3e36	0.068966314
115	0x3d24cb3a	0.040232874
116	0xbde1face	-0.11034165
117	0xbdb3a275	-0.087712206
118	0xbdbc043b	-0.091804944
119	0x3d9da382	0.07697202
120	0x3d8257e6	0.063644215
121	0xbe150d18	-0.14555776
122	0xbddd995e	-0.10820268
123	0x3dbf6160	0.09344745
124	0xbdc398f3	-0.09550657
125	0x3dea8874	0.114518076
126	0x3d3b1c46	0.04568126
127	0x3ade7d8b	0.001697467
128	0x3dbe2527	0.0928443
129	0xbe0ebfc4	-0.1394034
130	0x3d717df2	0.058958
131	0xbe0e5050	-0.13897824
132	0x3dda4df0	0.10659397
133	0x3d3fb614	0.046804503
134	0x3e026a52	0.1273587
135	0x3df478be	0.11937092
136	0xbda46946	-0.08027892
137	0xbe24b6a1	-0.16085292
138	0x3a6e5a62	0.00090924476
139	0x3e1d2293	0.1534522
140	0xbe13ea4c	-0.14444846
141	0x3bf98df3	0.0076157986
142	0xbcc60de9	-0.024176555
143	0x3dd52956	0.10408275
144	0x3e298d51	0.16557814
145	0xbe2012ab	-0.15632121
146	0xbe02577a	-0.12728682
147	0xbe008c70	-0.12553573
148	0x3dffaa38	0.124836385
149	0x3e20ce67	0.15703736
150	0x3e034b23	0.12821631
151	0x3d777398	0.060412973
152	0x3e13b184	0.14423186
153	0xbd8c3b8a	-0.06847294
154	0x3cfe5466	0.031046104
155	0xbe0f5ed3	-0.14001016
156	0x3d94abbf	0.072593205
157	0xbd8de5d6	-0.06928603
158	0xbcaadae3	-0.020856326
159	0xbd98839b	-0.07446977
160	0x3e13c384	0.14430052
161	0xbdd3fa35	-0.103504576
162	0x3dcd71d3	0.10031476
163	0x3d0b0476	0.0339398
164	0xbd4ca79b	-0.04996453
165	0x3ddc9ca7	0.107720666
166	0x3d98a592	0.07453455
167	0x3e1e5d9d	0.15465398
168	0x3d85a3be	0.06525372
169	0x3d200ebd	0.039076556
170	0x3e0c2225	0.136849
171	0xbb27d4ae	-0.0025608945
172	0xbde67472	-0.11252679
173	0x3d028af5	0.0318708
174	0xbe060b92	-0.13090351
175	0x3c2a016c	0.010376316
176	0xbcf11de1	-0.029433193
177	0x3d9dbe9b	0.07702371
178	0xbe2355ac	-0.1595065
179	0xbdbd6aec	-0.09248909
180	0x3d54d9e9	0.051965628
181	0xbdd59a97	-0.10429876
182	0xbd96bea3	-0.0736058
183	0x3c8b4ff8	0.017005906
184	0x3d6faa8b	0.05851225
185	0x3d4dc641	0.050237898
186	0x3e6b4634	0.22975999
187	0xbdf3a59e	-0.11896823
188	0x3d85cd5e	0.06533311
189	0x3d17d0a6	0.037064217
190	0xbdc97fc4	-0.098388225
191	0xbe2a6183	-0.1663876
192	0xbd19184a	-0.03737668
193	0x3da3370a	0.07969482
194	0x3dd0d47d	0.10196779
195	0xbe0df87c	-0.1386432
196	0x3db75899	0.089524455
197	0x3da58fcb	0.08084067
198	0xbde76245	-0.1129804
199	0xbe1bb4cd	-0.15205689
200	0xbe2b7503	-0.16743855
201	0x3e0a8767	0.13528214
202	0xbdf53ab5	-0.11974088
203	0x3d49ec62	0.049297698
204	0xbc08aae1	-0.008341522
205	0x3e0fc91b	0.1404156
206	0xbd976715	-0.07392708
207	0xbe186779	-0.14883222
208	0x3e125ce1	0.14293243
209	0x3d468718	0.04846868
210	0x3e18b1b9	0.14911546
211	0x3e0b4a92	0.13602665
212	0xbdf71abd	-0.12065647
213	0xbd88c073	-0.06677332
214	0xbd778778	-0.060431927
215	0xbb0d7712	-0.0021585864
216	0xbde67bbe	-0.11254071
217	0x3e21805b	0.1577162
218	0xbdbb94cb	-0.091592394
219	0xbd9f00f9	-0.077638574
220	0x3d9e774f	0.077376
221	0xbde8a67b	-0.11359879
222	0x3d12e7dd	0.035865653
223	0x3e269b39	0.1627015
224	0xbdb30345	-0.08740858
225	0x3e31f267	0.17377625
226	0x3bd974a4	0.006636219
227	0x3d12e717	0.035864916
228	0xbe26dd9c	-0.16295475
229	0xbdcbd5ac	-0.09952864
230	0xbd81cb8e	-0.06337653
231	0x3de2d999	0.1107666
232	0x3dce1f9b	0.10064622
233	0x3da2b3ab	0.07944425
234	0xbd8ee684	-0.06977561
235	0xbe32094b	-0.17386357
236	0xbdc7bd4e	-0.09752904
237	0x3e41d440	0.18928623
238	0x3e1cf253	0.15326814
239	0x3df6e1cd	0.12054787
240	0x3daebe84	0.08532432
241	0x3d48c8f9	0.049019787
242	0x3dffdf5c	0.12493774
243	0x3db0be3b	0.086300336
244	0x3d8c0631	0.068371184
245	0xbd89eb3f	-0.06734323
246	0x3e10869e	0.14113852
247	0xbe03b9c6	-0.12863836
248	0xbe34494d	-0.17606087
249	0x3c943193	0.018090045
250	0x3d427316	0.047473036
251	0xbd682a68	-0.056681067
252	0x3c0d4ccf	0.00862427
253	0x3dbd2ff9	0.09237666
254	0x3e060491	0.1308768
255	0xbddf24bc	-0.108956784

weight f4 [32, 32, 9]
0	0xbe9e81d2	-0.3095842
1	0x3e59ace2	0.21257356
2	0xbc95223b	-0.018204799
3	0xbe4ac825	-0.19802912
4	0x3eadcf4b	0.33947214
5	0xbe79a7fb	-0.24380486
6	0x3dbec6c2	0.09315254
7	0x3e4e338f	0.20136856
8	0xbdba3b13	-0.09093299
9	0x3d384cab	0.04499499
10	0x3c2c3273	0.010510075
11	0xbcbc85f0	-0.023013085
12	0xbd57ece9	-0.05271617
13	0x3d16e4b2	0.036839195
14	0x3cb617d3	0.022228157
15	0x3d367455	0.044544537
16	0x3d5e24e1	0.05423439
17	0x3d901819	0.07035846
18	0x3d8f8f7c	0.07009789
19	0xbc842a99	-0.016133593
20	0x3da5685b	0.08076545
21	0xbc2d4122	-0.010574611
22	0xbd27d474	-0.040974095
23	0x3e6f8d5e	0.23393771
24	0xbbd7b75f	-0.006583139
25	0xba8c4274	-0.0010700957
26	0x3e5684ed	0.20949145
27	0xbd8825ec	-0.06647858
28	0x3a283c43	0.0006417671
29	0xbdd9fd07	-0.10643964
30	0xbd7befb3	-0.061507892
31	0x3ded5de3	0.11590173
32	0xbd25e7f4	-0.04050441
33	0xbd4c0e82	-0.049818523
34	0xbb47dcc5	-0.003049658
35	0xbe2a8728	-0.1665312
36	0x39a75c60	0.00031921547
37	0x3cac89d0	0.021061808
38	0xbc83f31e	-0.016107138
39	0xbc86e147	-0.016464842
40	0xbd187965	-0.037225146
41	0x3d8169d7	0.063190155
42	0xbb18a188	-0.002328964
43	0x3d1be8a4	0.03806366
44	0x3ca4dc8e	0.0201247
45	0xbdc3d321	-0.09561754
46	0x3cdd830d	0.027040029
47	0xbc952fc7	-0.018211259
48	0xbe19a558	-0.1500448
49	0x3da8828d	0.082280256
50	0xbdb0b8ce	-0.08628999
51	0x3d943472	0.07236566
52	0xbab7dde0	-0.0014027916
53	0xbdc38ded	-0.095485546
54	0xbc4b98fb	-0.01242661
55	0x3d061ed6	0.03274425
56	0x3c0cdafa	0.00859713
57	0x3d399f45	0.045317907
58	0x3b6f0649	0.0036472252
59	0x3da7d340	0.081945896
60	0xbd373332	-0.044726558
61	0xbca7994e	-0.020458844
62	0x3d9feb54	0.07808557
63	0x3c21c3fb	0.009873386
64	0xbc9a1159	-0.0188071
65	0x3d19e7a9	0.037574444
66	0xbd3e8bac	-0.04651992
67	0x3d500eb6	0.05079528
68	0xbd4665b9	-0.048436854
69	0x3d44b52c	0.04802434
70	0x3d5416c6	0.05177953
71	0x3d102073	0.035187196
72	0xbd3dfbcc	-0.04638271
73	0x3afb950a	0.0019194197
74	0xbd55d76d	-0.0522074
75	0xbcc2b46c	-0.023767672
76	0x3d620a0e	0.05518537
77	0xbcaa2e8e	-0.020774152
78	0x3ad9bbf8	0.0016611805
79	0x3cdbc8d9	0.02682917
80	0x3dad8c40	0.08474016
81	0xbd6b8076	-0.057495557
82	0xbe328205	-0.17432411
83	0x3d064a08	0.032785445
84	0xbe169b42	-0.14707664
85	0x3e0d08f2	0.13772944
86	0x3bad4709	0.005288009
87	0xbe10d625	-0.1414419
88	0xbc91223f	-0.017716525
89	0xbbef9a62	-0.007312105
90	0xbcaf2c21	-0.021383347
91	0x3c4a7960	0.01235804
92	0xbd6c602e	-0.05770891
93	0x3d113624	0.035452023
94	0xbd4a588b	-0.049400847
95	0xbccf382c	-0.02529534
96	0x3b8120ff	0.003940701
97	0xbd298840	-0.041389704
98	0xbd13a8a3	-0.036049496
99	0xbd9591b0	-0.07303178
100	0xbd74153b	-0.05959056
101	0x3dc97c42	0.098381534
102	0xbd4ad373	-0.04951806
103	0x3e7e3c6c	0.24827737
104	0xbdb21335	-0.0869507
105	0x3d9c65c5	0.076365985
106	0x3db4195d	0.087939
107	0xbe8703df	-0.2637014
108	0x3da15eb6	0.07879393
109	0x3d808def	0.06277072
110	0x3d8cf842	0.06883289
111	0x3cbb0c2b	0.02283295
112	0xbcec0e69	-0.028815465
113	0x3d2d4840	0.04230523
114	0x3c1445d8	0.009049855
115	0xbd01a240	-0.031648874
116	0x3e297538	0.16548622
117	0xbd6018f4	-0.054711297
118	0x3d27e4e6	0.04098978
119	0x3d393530	0.04521674
120	0xbce864d2	-0.028368387
121	0xbcde10cc	-0.027107619
122	0xbcd53c36	-0.026029687
123	0xbcf09dea	-0.029372174
124	0xbcaf6524	-0.021410532
125	0x3cb349c8	0.021885768
126	0x3d6b51b3	0.05745096
127	0x3cca812c	0.024719797
128	0xbc38fbdf	-0.0112905195
129	0xbced27ae	-0.028949585
130	0x3d6158a8	0.05501619
131	0xbcc038ae	-0.023464527
132	0xbd34ce29	-0.044141922
133	0x3c7a2db0	0.015269682
134	0xbd978777	-0.07398885
135	0x3c87bd95	0.016569892
136	0x3d05d734	0.032675937
137	0xbd5d196b	-0.05397932
138	0x3d54121e	0.05177509
139	0x3d3aea89	0.045633826
140	0x3d86ada3	0.06576087
141	0xbca98f2a	-0.020698149
142	0x3d3e8ae7	0.046519186
143	0x3b9fc4bb	0.004875747
144	0xbcde9e2e	-0.027175035
145	0xbc14e75d	-0.009088364
146	0x3c03d44f	0.008046224
147	0xbd4405da	-0.047857143
148	0xbc5ef701	-0.013608695
149	0xbd907f34	-0.07055512
150	0xbc01ef8b	-0.007930647
151	0xb9c697a9	-0.000378785
152	0xbd0607db	-0.032722335
153	0xbd15489a	-0.03644619
154	0x3d27870a	0.040900268
155	0xbd43f656	-0.047842346
156	0x3cad4e32	0.02115545
157	0x3d2bbda9	0.04192892
158	0xbd1e72c3	-0.038683664
159	0x3b4eabc9	0.0031535497
160	0xbcf987a9	-0.030460196
161	0xbbb7444d	-0.005592859
162	0x3d10f0db	0.035385948
163	0x3d6a0ad2	0.057139225
164	0x3c39b683	0.011335018
165	0x3b9456aa	0.0045269327
166	0xbcad6605	-0.02116681
167	0xbc9f2117	-0.019424958
168	0x3d88f475	0.066872515
169	0x3d0f8f70	0.035048902
170	0x3d88bc09	0.0667649
171	0xbd422bc2	-0.047405012
172	0x3d0998e5	0.033593077
173	0xbbf27f0d	-0.0074003995
174	0xbd0668d7	-0.032814827
175	0xbd1304e4	-0.035893336
176	0x3c958aee	0.018254723
177	0xbc42b8ca	-0.011884877
178	0xbd3725f4	-0.04471393
179	0xbcd7a334	-0.026322939
180	0xbe434049	-0.19067492
181	0xbd49eb79	-0.04929683
182	0x3dcf185e	0.101120695
183	0xbdd4fd93	-0.10399928
184	0x3e490698	0.19631422
185	0xbe7bf329	-0.24604477
186	0x3c5ca324	0.01346663
187	0x3d795b8a	0.060878314
188	0xbe99e52b	-0.30057654
189	0x3c807a3b	0.015683284
190	0x3ae842c1	0.001772009
191	0x3d2bb8b8	0.04192421
192	0xbd80f778	-0.06297201
193	0xbd20a627	-0.039220955
194	0xbc7ed8d0	-0.015554622
195	0xbcbc291e	-0.022968825
196	0x3caee279	0.021348225
197	0x3d525c99	0.05135784
198	0xbda29b77	-0.07939809
199	0xbc3453a7	-0.011006272
200	0x3d1d280c	0.03836827
201	0xbd69f012	-0.057113715
202	0x3dcaacdf	0.09896254
203	0xbd438c08	-0.047740966
204	0x3d6360d9	0.055512283
205	0x3d88424b	0.066532694
206	0xbe43e337	-0.19129644
207	0x3baac39c	0.0052113067
208	0x3d24bf21	0.040221337
209	0xbc72f968	-0.014829971
210	0xbd8db553	-0.069193505
211	0xbc047ad6	-0.008085927
212	0x3d0645a6	0.032781266
213	0x3d64c2b6	0.055849753
214	0x3cdd61ee	0.027024236
215	0x3cfc0b02	0.030766968
216	0xbd1a2d89	-0.037641082
217	0xbcb7feb9	-0.022460328
218	0xbd67e8a6	-0.056618355
219	0xbd41d501	-0.047322277
220	0x3d7d68c9	0.06186751
221	0xbd023538	-0.031789035
222	0xbc8d8a83	-0.017277962
223	0xbd064686	-0.0327821
224	0x3d2beb2d	0.041972328
225	0x3dd5fe0f	0.104488485
226	0x3bc0948a	0.0058770822
227	0xbd56b693	-0.05242021
228	0xbc75a43a	-0.014992768
229	0xbe052e0a	-0.13005844
230	0x3e40d357	0.1883062
231	0xbd8be34e	-0.06830464
232	0xbdac3af2	-0.084096804
233	0x3daf6d9b	0.085658275
234	0x3e07811d	0.13232847
235	0xbd655cf0	-0.055996835
236	0x3c11313c	0.008861836
237	0x3e1b4bb1	0.15165593
238	0xbe02b363	-0.12763743
239	0x3d3061c7	0.043061998
240	0x3d8f8fd3	0.07009854
241	0xbac7527d	-0.0015207079
242	0x3dfb09cd	0.12257729
243	0x3db7df30	0.089781165
244	0xbd721f8a	-0.05911211
245	0x3c90226d	0.01759454
246	0xbae78636	-0.0017663899
247	0xbd65a57b	-0.056066018
248	0x3d714568	0.05890408
249	0x3c5eb6ae	0.013593359
250	0xbcffbb92	-0.03121737
251	0x3de4b236	0.111668035
252	0x3e10a67f	0.14126013
253	0xbd8fcc5f	-0.070214026
254	0xbcefd336	-0.029275518
255	0x3dbb1937	0.09135669

bias f4 [32]
0	0xbce20d90	-0.027594358
1	0x3b916977	0.004437621
2	0x3bb5db1f	0.005549803
3	0x3d51e5b3	0.05124445
4	0xbcca1f15	-0.024673024
5	0xbca92f45	-0.020652423
6	0x3cd969be	0.02653968
7	0x3c3de25a	0.011589611
8	0x3d0d2295	0.034456808
9	0x3d9a36a4	0.07529953
10	0xbc93edcd	-0.018057728
11	0xbcbddce2	-0.023176614
12	0xbd4cd231	-0.05000514
13	0xbd0103b5	-0.031497676
14	0xbd8869ab	-0.066607796
15	0x3cefeef4	0.029288746
16	0x3ca26fb8	0.019828662
17	0xbd369533	-0.04457588
18	0xbc9a364f	-0.018824724
19	0x3cc66b1e	0.024221
20	0xbcb75c06	-0.022382747
21	0xbcbf09c7	-0.023320092
22	0x3d499a11	0.049219195
23	0x3cf30100	0.029663563
24	0xbd63699a	-0.05552063
25	0x3cf5a88c	0.029987596
26	0x3b2159be	0.002462014
27	0x3ca360b7	0.019943578
28	0x3c99cd93	0.018774783
29	0xbd62c90c	-0.055367514
30	0x3cc0d12e	0.023537245
31	0xbd07aacd	-0.033121873

weight f4 [64, 2]
0	0xbe85e25c	-0.2614926
1	0xbf2d9aed	-0.67814523
2	0xbd1ae566	-0.037816428
3	0x3ea8a985	0.32941833
4	0x3e3a7c83	0.1821156
5	0xbf138c78	-0.57636213
6	0xbe35a2ec	-0.17737931
7	0xbea70bdf	-0.32626244
8	0x3ed0fbe0	0.40817165
9	0x3f2ef6de	0.6834544
10	0xbf09bc60	-0.5380306
11	0x3ef3097f	0.47468182
12	0x3f2eca7d	0.6827772
13	0x3ecf8eb8	0.40538573
14	0x3c8ba2b9	0.017045366
15	0x3e01a0f6	0.12659058
16	0xbf0b1065	-0.5432189
17	0x3c46211f	0.012092858
18	0xbebc19c8	-0.3673842
19	0x3e47b16f	0.1950128
20	0x3e077dbb	0.13231556
21	0xbc7dbd4d	-0.015487027
22	0x3eed034f	0.46291587
23	0xbeb7fee9	-0.3593667
24	0xbf34f2ea	-0.7068316
25	0xbf2abbb5	-0.6669267
26	0xbf15c346	-0.5850109
27	0x3f1536cc	0.5828674
28	0x3e289d0c	0.16466159
29	0x3eb30068	0.34961247
30	0x3f29f2f3	0.66386336
31	0xbf0f546d	-0.559882
32	0xbd961593	-0.07328334
33	0x3ebb6a74	0.36604655
34	0x3d827074	0.06369105
35	0xbf052507	-0.52009624
36	0xbebdf34d	-0.37099686
37	0xbd9af264	-0.075657636
38	0xbe981e9a	-0.29710847
39	0x3ed03da7	0.40672037
40	0x3e07a11c	0.13245052
41	0x3e421b82	0.18955806
42	0x3ed1effb	0.41003403
43	0x3f121c38	0.5707431
44	0xbeebd12f	-0.46058032
45	0xbd6ac23e	-0.05731415
46	0xbab6e2f4	-0.0013953135
47	0xbd881d1e	-0.06646179
48	0x3e6a73cc	0.22895736
49	0xbe516427	-0.20448361
50	0x3eee3d3e	0.465311
51	0xbdcf0fc6	-0.101104304
52	0xbee1f008	-0.44128442
53	0x3ed05f57	0.4069774
54	0xbe8540f9	-0.26026133
55	0xbf1e8871	-0.61926943
56	0xbe423aaa	-0.18967691
57	0xbe85e3f6	-0.26150483
58	0xbe3725bb	-0.17885487
59	0x3e99c015	0.3002936
60	0xbe7a0a60	-0.2441802
61	0x3eacd70a	0.33757812
62	0xbda01fdd	-0.078185774
63	0x3e28f3c7	0.16499244
64	0xbf032ea5	-0.5124305
65	0x3e81cdcf	0.25352332
66	0xbedc4a98	-0.4302566
67	0x3e21f6c1	0.15816785
68	0x3e5736c7	0.2101699
69	0xbefe4939	-0.4966524
70	0x3e8b9c72	0.27267796
71	0xbed89b91	-0.42306188
72	0x3e80e92e	0.25177902
73	0x3f32795b	0.69716424
74	0xbe840ba9	-0.25790146
75	0xbe8881ba	-0.26661474
76	0x3ed2c8eb	0.41168913
77	0xbd757291	-0.059923712
78	0x3f0710f8	0.5276027
79	0x3e7a8a84	0.24466902
80	0x3e0e6f22	0.13909581
81	0x3e5256d2	0.20540932
82	0x3f2443c1	0.64165884
83	0x3f2bedc4	0.67159677
84	0xbef165df	-0.47148034
85	0x3e4b9e96	0.19884714
86	0x3d8d5609	0.069011755
87	0x3e4f62ba	0.20252505
88	0xbf0c667e	-0.5484389
89	0x3f0f25d7	0.55917114
90	0xbef50fe2	-0.4786368
91	0x3e9966c7	0.29961225
92	0xbea61fbb	-0.32446083
93	0x3dcb4a2d	0.09926257
94	0x3f17ddf2	0.59323037
95	0xbe0308ba	-0.12796298
96	0x3e19ee00	0.15032196
97	0x3e8052c1	0.25063136
98	0xbf1e0ec5	-0.61741287
99	0x3deeac20	0.11653924
100	0xbc67de14	-0.014152069
101	0x3f1c509a	0.6106049
102	0xbf2e0c3d	-0.67987424
103	0x3f0b53a7	0.5442452
104	0x3f10d842	0.56579983
105	0x3eb00fea	0.3438714
106	0x3e8c352e	0.27384323
107	0xbf1b745a	-0.60724413
108	0x3d512a31	0.051065627
109	0xbea026ae	-0.3127951
110	0xbe63dcc0	-0.22252178
111	0xbea4566c	-0.32097185
112	0xbf2268bd	-0.6344107
113	0xbe48b863	-0.19601588
114	0x3edf298b	0.43586382
115	0xbdc7eb48	-0.09761673
116	0x3f0c0427	0.54693836
117	0xbebe962e	-0.37223953
118	0x3f183fbc	0.5947225
119	0x3d80e42a	0.06293519
120	0x3d1be548	0.038060457
121	0x3e640c8c	0.22270411
122	0x3f073156	0.52809656
123	0x3eda0ba3	0.42587003
124	0xbe176075	-0.14782889
125	0x3e2f1e48	0.17101395
126	0x3f03afae	0.5143994
127	0x3ef4e7bb	0.47833046

bias f4 [64]
0	0x3f1eebf8	0.6207881
1	0x3e0fac53	0.1403058
2	0x3eb9c2fc	0.36281574
3	0x3ec19ab4	0.37813342
4	0xbf3b1e3d	-0.73093015
5	0xbd804b16	-0.062643215
6	0x3ed3eef0	0.41393232
7	0xbe0f5067	-0.13995515
8	0xbe60378d	-0.21896191
9	0xbf515b7b	-0.81780213
10	0x3f1ae5de	0.60507
11	0x3f3d323d	0.7390478
12	0xbf071a1e	-0.52774227
13	0x3f05e955	0.5230916
14	0xbf2aadcb	-0.6667144
15	0x3f35e3ba	0.7105061
16	0x3f41835b	0.7559106
17	0x3f4e745c	0.806463
18	0x3f259196	0.6467527
19	0x3f32ff2d	0.6992062
20	0xbf4113d8	-0.75420904
21	0x3d99d526	0.07511358
22	0xbf1c2534	-0.6099427
23	0xbf0870b4	-0.5329697
24	0x3e13b76e	0.14425442
25	0xbe6f32b5	-0.23359187
26	0xbf141fe5	-0.5786117
27	0xbf091434	-0.5354645
28	0x3f031500	0.5120392
29	0xbdfffc8f	-0.124993436
30	0xbf098c13	-0.5372936
31	0x3ea1b126	0.31580466
32	0xbf27a837	-0.6549105
33	0xbe26f54e	-0.16304514
34	0x3c73ae3e	0.014873086
35	0x3e23d031	0.15997387
36	0x3e550210	0.20801568
37	0xbedf32f9	-0.43593577
38	0x3e8aef3d	0.2713565
39	0x3eabdcde	0.33566946
40	0x3ec0d945	0.37665763
41	0xbd4c1f6d	-0.049834657
42	0xbf2bf2f3	-0.67167586
43	0xbe881612	-0.26579338
44	0x3e729dd4	0.23693019
45	0xbee17a4e	-0.44038624
46	0xbf310845	-0.69153243
47	0xbdc8e7b5	-0.098098196
48	0x3f125f78	0.57176924
49	0xbec8a629	-0.3918927
50	0x3e94cc2d	0.29062024
51	0xbed4f1ae	-0.41590637
52	0xbf041587	-0.5159535
53	0x3eec2029	0.46118286
54	0xbe52a17d	-0.20569415
55	0x3ed1ab7d	0.40951148
56	0x3f26c89e	0.6514987
57	0xbebac09a	-0.36475068
58	0x3e3d4842	0.18484595
59	0xbe3b0af2	-0.18265894
60	0x3f0bd38d	0.54619676
61	0xbb2774d8	-0.0025551822
62	0xbe4dbf88	-0.20092595
63	0xbe0255fd	-0.12728114
