docs/models/synth2synth_full.pt (torch, 219019 bytes, 24 tensors)

weight f4 [32, 1, 15]
0	0xbe8c2116	-0.27368993
1	0xbea7f51a	-0.32804185
2	0xbe55545f	-0.20832966
3	0x3c31f82b	0.0108623905
4	0xbe7c6200	-0.24646759
5	0x3e8b3127	0.27185938
6	0xbecd960d	-0.40153542
7	0x3ea11d22	0.3146754
8	0x3f0b6ebd	0.5446585
9	0xbd8a01dc	-0.06738636
10	0x3e0db0fe	0.13837048
11	0x3f40f3dd	0.75372106
12	0x3ec9a0c6	0.39380473
13	0x3e3da4ee	0.18519947
14	0x3e2e92b4	0.1704815
15	0xbf12334b	-0.57109517
16	0xbc971748	-0.018443719
17	0xbe8e6303	-0.27809915
18	0xbe0cbb1b	-0.1374325
19	0x3e879078	0.26477408
20	0x3db44859	0.08802862
21	0xbeacf7bd	-0.3378276
22	0xbe46377d	-0.19357105
23	0x3d9e6c19	0.07735462
24	0xbf12f4d8	-0.5740485
25	0x3d71aa92	0.05900056
26	0xbf4e4e22	-0.8058797
27	0xbe784ca2	-0.24247983
28	0x3d37b155	0.04484685
29	0xbdc05791	-0.09391702
30	0x3ea6aa6b	0.32551894
31	0x3e5d61c6	0.21619329
32	0xbc1974da	-0.0093662385
33	0x3dec4f9e	0.11538623
34	0x3ea5fee3	0.32421026
35	0x3ec1c489	0.37845257
36	0x3ef07b1e	0.4696893
37	0x3f349dbc	0.70553184
38	0x3eff127f	0.498188
39	0xbe2534a2	-0.16133359
40	0xbe03d9a5	-0.12875994
41	0xbf03d5b9	-0.5149799
42	0x3ea1a6c9	0.3157256
43	0xbe84fcc5	-0.25974098
44	0xbe029462	-0.12751916
45	0x3d98fa2f	0.07469594
46	0x3ef19aba	0.4718836
47	0xbd74117a	-0.05958698
48	0xbdd4154a	-0.10355623
49	0xbe48306b	-0.1954972
50	0x3e7ee374	0.24891454
51	0x3d29e268	0.041475683
52	0xbe95193d	-0.29120818
53	0x3e641550	0.22273755
54	0x3ee77044	0.4520284
55	0xbc471fb5	-0.012153556
56	0x3ecf2762	0.40459734
57	0x3ec5e47b	0.3865088
58	0xbe45db48	-0.1932193
59	0xbbeab6cc	-0.0071629044
60	0xbdc6f4f1	-0.097146876
61	0x3e06632f	0.13123773
62	0x3e9eaf45	0.30993095
63	0x3ea76404	0.32693493
64	0xbdd3892c	-0.10328898
65	0x3f2ad4a3	0.6673071
66	0x3e769b4a	0.24082676
67	0xbe4e9cb7	-0.2017697
68	0xbe968592	-0.2939878
69	0x3eba14c5	0.3634397
70	0x3e9f5d4e	0.31125873
71	0xbe437549	-0.1908771
72	0xbd2c8466	-0.042118452
73	0xbe95fe23	-0.29295453
74	0x3d729e0c	0.059232756
75	0xbe7b73d7	-0.24555908
76	0xbe778778	-0.24172771
77	0xbdc88c89	-0.0979243
78	0xbeb3f23e	-0.35145754
79	0xbe40cf29	-0.18829025
80	0xbe46656d	-0.19374628
81	0xbe6f36ef	-0.23360799
82	0xbe8a7a2b	-0.27046332
83	0xbe46e82a	-0.19424501
84	0xbe79689b	-0.2435631
85	0xbdbce4ee	-0.092233524
86	0x3f1f6d44	0.622761
87	0xbcdde851	-0.027088316
88	0xbd1b44de	-0.037907474
89	0x3e3d9137	0.18512426
90	0xbe5c0f8c	-0.21490306
91	0x3e89ffce	0.26952976
92	0x3e270205	0.16309364
93	0xbde6e0ca	-0.11273344
94	0x3e7732e5	0.24140508
95	0x3e0f9814	0.14022857
96	0xbda954ab	-0.08268102
97	0x3ec3f376	0.38271683
98	0x3e73145e	0.23738238
99	0xbc1312e1	-0.008976669
100	0x3e3b2a04	0.18277746
101	0xbec8f790	-0.39251375
102	0xbd6d2748	-0.05789879
103	0xbe81d01c	-0.25354087
104	0xbde71f6f	-0.11285292
105	0x3e38af24	0.18035561
106	0xbdcf8666	-0.10133056
107	0x3bc38f1a	0.005967987
108	0xbe98543b	-0.29751763
109	0x3d87a34c	0.06622943
110	0xbaaffc0c	-0.0013426556
111	0xbe2d7a23	-0.16941123
112	0xbd4bd44f	-0.04976302
113	0x3e32c17f	0.17456625
114	0xbe93f4f4	-0.28897822
115	0x3e33bca9	0.17552437
116	0xbeca2d20	-0.39487553
117	0xbca02f0f	-0.01955369
118	0x3d18c828	0.03730026
119	0x3e082d8f	0.13298629
120	0xbe5789e8	-0.21048701
121	0x3e07fb23	0.13279395
122	0xbeb0330b	-0.34413943
123	0x3da5082f	0.080582015
124	0xbe9f08ff	-0.3106155
125	0xbe100138	-0.14062965
126	0xbed4b387	-0.41543218
127	0xbf215861	-0.6302548
128	0xbf365da8	-0.7123666
129	0x3e1b394c	0.15158576
130	0x3d2c3e0a	0.042051353
131	0x3ec055f7	0.37565586
132	0x3e0d6a9c	0.138102
133	0x3e8f46e9	0.27983788
134	0x3e19b0fb	0.15008919
135	0x3ead4a29	0.33845642
136	0x3f2d5189	0.6770254
137	0x3e17158e	0.14754316
138	0x3d18391a	0.03716383
139	0x3e7081fd	0.23487087
140	0x3d909c13	0.07061019
141	0x3edb8d06	0.4288103
142	0xbc813aed	-0.015775168
143	0x3ea7f6d9	0.32805517
144	0xbe253d8e	-0.16136762
145	0xbd1d0f2e	-0.038344555
146	0xbf214090	-0.6298914
147	0xbe4278b1	-0.18991353
148	0x3deb0eec	0.114774555
149	0xbeaa1306	-0.3321764
150	0xbd5d34af	-0.05400532
151	0x3d9c9d78	0.07647222
152	0xbe186c63	-0.14885096
153	0xbe3b66eb	-0.18300979
154	0x3cd13702	0.025538925
155	0xbe04bb4d	-0.12962075
156	0xbedac2dd	-0.42726794
157	0x3c30c127	0.010788239
158	0x3e069a35	0.13144763
159	0x3ec9c7f8	0.39410377
160	0x3eea9b73	0.45821723
161	0x3efedf25	0.4977962
162	0x3e75e470	0.24012923
163	0x3d78a1bd	0.06070112
164	0xbcff5c5d	-0.031171972
165	0x3e7b02b2	0.24512747
166	0x3f361586	0.7112659
167	0x3f0bdc53	0.54633063
168	0x3e620c6d	0.22075053
169	0x3e586658	0.21132791
170	0x3d94a270	0.07257545
171	0x3d430d3b	0.04762004
172	0x3e49c814	0.1970523
173	0xbf35d248	-0.7102399
174	0xbda0537f	-0.078284256
175	0xbf1f741a	-0.6228653
176	0xbf71d606	-0.944672
177	0xbe4e36bf	-0.20138071
178	0xbd713a93	-0.05889375
179	0xbf55a3b6	-0.8345293
180	0x3d6d9a7b	0.058008652
181	0x3e3caa12	0.18424252
182	0x3d4372fe	0.047717087
183	0x3ea98981	0.3311272
184	0xbd8fc200	-0.070194244
185	0xbe5d183b	-0.21591274
186	0xbec76626	-0.3894512
187	0xbe2d6443	-0.16932778
188	0x3eac07de	0.33599752
189	0xbee8129f	-0.45326707
190	0xbd06daae	-0.032923393
191	0xbf3c7b2b	-0.7362544
192	0xbe8f6aae	-0.28011078
193	0x3db8eb11	0.0902921
194	0x3d834cd4	0.06411138
195	0x3db62476	0.08893673
196	0x3f3495ed	0.7054127
197	0x3e0e3e62	0.13890985
198	0xbe4bae93	-0.19890814
199	0x3e6e0f43	0.2324801
200	0x3f4ef939	0.80849034
201	0x3f65edae	0.89815795
202	0x3d585db8	0.052823752
203	0x3ea4a93d	0.3216037
204	0x3dd63aa3	0.10460403
205	0xbe968a3c	-0.2940234
206	0x3f97f605	1.1871954
207	0xbe282b44	-0.16422755
208	0x3de257e2	0.110519186
209	0x3ec24bd1	0.37948468
210	0x3e906a18	0.28205943
211	0x3eb924a7	0.36160776
212	0x3ebf8cc1	0.37412074
213	0x3e870faa	0.26379138
214	0x3f0b0513	0.5430462
215	0x3ecf6e34	0.40513766
216	0x3f06894d	0.52553254
217	0x3f048fd6	0.51781976
218	0x3f3bc69c	0.7334993
219	0x3f412714	0.75450253
220	0x3f0c67be	0.548458
221	0x3f2a99a7	0.66640705
222	0x3e38f838	0.18063438
223	0x3ee6cc1d	0.450776
224	0x3dcaaa07	0.098957114
225	0xbe5355e8	-0.2063824
226	0xbd8de257	-0.069279365
227	0xbec8dd61	-0.392314
228	0xbea853da	-0.32876474
229	0xbdb613b0	-0.08890474
230	0xbeeb101f	-0.45910737
231	0xbe705f5c	-0.23473877
232	0xbec61113	-0.38684902
233	0x3e8ab61d	0.27092066
234	0x3e6c0107	0.23047267
235	0xbd91229d	-0.0708668
236	0x3dd6f4bc	0.10495898
237	0xbe26ef85	-0.16302307
238	0x3d1de9f3	0.03855319
239	0x3d253158	0.04033026
240	0xbe66b68a	-0.2253057
241	0xbf09fcfc	-0.5390165
242	0xbf0a43e0	-0.5400982
243	0xbed60f9a	-0.41808778
244	0xbf2e11fd	-0.679962
245	0xbf17c8e9	-0.5929094
246	0xbe8d7e09	-0.2763522
247	0xbedb60d9	-0.42847326
248	0xbde0806f	-0.10961997
249	0x3d31115e	0.043229453
250	0xbef3ad3e	-0.4759311
251	0x3e089db0	0.13341403
252	0xbe79d02e	-0.2439582
253	0xbe072716	-0.13198504
254	0xbe6c4eee	-0.23076984
255	0x3defc346	0.11707167

bias f4 [32]
0	0xbe2878fa	-0.16452399
1	0xbe4f5e56	-0.2025083
2	0x3e1c0f52	0.15240219
3	0x3e1975f2	0.14986399
4	0x3e937669	0.28801277
5	0xbd9e993c	-0.07744071
6	0xbe889263	-0.26674184
7	0x3e64eba3	0.22355513
8	0x3e6b391a	0.22971001
9	0x3d3c3ad7	0.04595455
10	0x3c07fd4f	0.00830014
11	0x3e25804a	0.1616222
12	0xbdb4c455	-0.0882651
13	0x3d1b3baa	0.037898697
14	0xbe0aad84	-0.13542753
15	0x3e174d5a	0.14775601
16	0xbe16a324	-0.1471067
17	0xbba54a5e	-0.0050442657
18	0xbded5c8c	-0.115899175
19	0x3e37a032	0.17932203
20	0x3e84bf65	0.25927272
21	0xbd1ec36b	-0.038760584
22	0x3c99ddf6	0.018782597
23	0x3e913378	0.2835958
24	0x3e0cdbcb	0.1375572
25	0xbdd22759	-0.10261411
26	0xbc4c036a	-0.012451986
27	0xbe5cb0ad	-0.21551771
28	0xbe017e2b	-0.12645786
29	0x3e03db6b	0.1287667
30	0xbe36786c	-0.17819375
31	0x3d2d80e1	0.042359237

weight f4 [64, 2]
0	0xbe1c3168	-0.15253222
1	0x3ea38434	0.319368
2	0xbed084ac	-0.4072622
3	0x3e9f3c8d	0.31100884
4	0x3e55917f	0.20856284
5	0x3e8f839f	0.28030106
6	0x3f17c6d1	0.59287745
7	0x3ec74f25	0.3892757
8	0xbe50d660	-0.20394278
9	0x3f349620	0.7054157
10	0x3db4acb2	0.088220015
11	0x3e83488b	0.25641283
12	0xbf0659df	-0.5248088
13	0x3ef7fb54	0.48433936
14	0xbdcd4a90	-0.10023987
15	0xbed1329f	-0.40858933
16	0x3c907555	0.017634073
17	0x3e834e9e	0.25645918
18	0x3f13db33	0.57756346
19	0x3c11c1ac	0.008896273
20	0xbd1fa41f	-0.038974877
21	0xbe9a1a04	-0.30097973
22	0xbeba2319	-0.36354902
23	0x3e7460c3	0.23865037
24	0x3e8a83ed	0.27053776
25	0xbe90a997	-0.28254387
26	0xbdada7b7	-0.08479255
27	0x3d9db333	0.07700195
28	0xbe8dcc41	-0.27694896
29	0x3e02de85	0.12780197
30	0xbee8142f	-0.453279
31	0xbf0a6f73	-0.5407631
32	0x3ed19916	0.40937108
33	0xbe66328b	-0.22480218
34	0x3f1f0e81	0.62131506
35	0x3e352d63	0.17693095
36	0x3f01f70c	0.5076759
37	0x3f1404a7	0.578196
38	0xbdb000ab	-0.085938774
39	0x3f2f4f41	0.68480307
40	0xbe3f1381	-0.18659784
41	0x3efb6b39	0.49105242
42	0xbef5446e	-0.4790377
43	0x3e7ad902	0.24496844
44	0xbbae2c08	-0.0053153075
45	0xbe6b6540	-0.22987843
46	0xbf2c49bf	-0.6730003
47	0x3f096019	0.5366226
48	0x3ed921be	0.42408556
49	0xbf2af259	-0.66776043
50	0xbf11a326	-0.5688957
51	0xbf165602	-0.5872499
52	0xbd710e45	-0.0588515
53	0x3da78267	0.08179169
54	0x3e8f8de0	0.2803793
55	0x3e7f797a	0.24948683
56	0xbf0ceb16	-0.5504621
57	0xbdfe3281	-0.124119766
58	0xbf2eee83	-0.6833269
59	0x3f0adb2f	0.542407
60	0x3f1534f9	0.58283955
61	0xba68fddf	-0.00088879274
62	0x3efa5bf8	0.48898292
63	0xbe9b51a1	-0.30335715
64	0xbdd7a642	-0.10529758
65	0x3ec4e4cd	0.3845581
66	0xbda361e5	-0.07977656
67	0xbe42ae14	-0.19011718
68	0x3d43c34f	0.047793683
69	0x3f191077	0.5979075
70	0xbe5b4a61	-0.21415092
71	0xbe90a02a	-0.28247195
72	0x3f3166c1	0.69297415
73	0xbf3023f0	-0.68804836
74	0xbe9dc530	-0.30814505
75	0xbf2f8aaa	-0.6857096
76	0x3eaaa4a3	0.33328733
77	0x3f2e7557	0.68147796
78	0xbf0f671a	-0.56016695
79	0x3ebb634e	0.365992
80	0xbe07ff76	-0.13281044
81	0xbd2fdaed	-0.042933393
82	0xbf06c750	-0.52647877
83	0x3ea3a73a	0.3196352
84	0xbeba4e9b	-0.36388096
85	0xbeea3f5a	-0.45751458
86	0xbf0b08f6	-0.5431055
87	0xbea2414f	-0.31690452
88	0x3ef6a62f	0.48173663
89	0x3e8bbd48	0.27292848
90	0x3ebb3dcc	0.36570585
91	0xbe15192e	-0.14560387
92	0xbf122417	-0.5708632
93	0x3e03e344	0.12879664
94	0xbec3d576	-0.38248795
95	0x3d0575fc	0.03258322
96	0xbe9d6223	-0.30738935
97	0x3f01f4a2	0.50763905
98	0xbdd91a81	-0.10600758
99	0xbdd40e39	-0.10354275
100	0xbe8455eb	-0.258468
101	0x3ea670d4	0.32507956
102	0x3eafdc0d	0.34347573
103	0xbed238de	-0.4105901
104	0x3effc235	0.49952856
105	0xbe6a1928	-0.22861159
106	0xbbd2f109	-0.006437425
107	0xbdc420c7	-0.09576564
108	0xbe308c63	-0.17241053
109	0xbe807707	-0.2509081
110	0x3e953c0d	0.29147378
111	0xbe725e25	-0.23668726
112	0x3e3eb5e6	0.18624076
113	0x3f17c828	0.5928979
114	0x3f2309f9	0.6368709
115	0xbf01b55f	-0.50667375
116	0x3f27f6fe	0.65611255
117	0xbf31015d	-0.69142705
118	0x3f2a850b	0.6660926
119	0x3e9d3b09	0.30709103
120	0xbdf22f41	-0.11825419
121	0xbe9e2774	-0.30889475
122	0xbea63435	-0.32461706
123	0x3e849ef0	0.2590251
124	0x3ee8c3ec	0.45461977
125	0x3d5636f5	0.052298505
126	0xbddfaebe	-0.10922001
127	0x3d989d10	0.07451832

bias f4 [64]
0	0xbee38a2b	-0.4444135
1	0x3f41ea83	0.7574846
2	0x3f749051	0.9553271
3	0x3ee6ea40	0.45100594
4	0xbee5d6c3	-0.44890413
5	0xbe5c6e43	-0.21526437
6	0x3dd8fc32	0.105949774
7	0xbec22c1b	-0.37924275
8	0xbef3e3cb	-0.4763473
9	0xbf3bb229	-0.73318726
10	0xbf4cc120	-0.79982185
11	0x3f58781a	0.8455826
12	0xbeace6be	-0.33769792
13	0x3f0e1a0e	0.55508506
14	0xbf6c98a5	-0.9242042
15	0x3e43e2f2	0.19129542
16	0xbed0194b	-0.40644297
17	0xbec257af	-0.37957522
18	0xbe52c66b	-0.20583503
19	0x3f2edcc8	0.68305635
20	0x3e58f268	0.2118622
21	0x3f009424	0.50226045
22	0x3effeae1	0.49983886
23	0xbf282af1	-0.65690523
24	0x3ea330b1	0.31873086
25	0x3f3abd4b	0.7294509
26	0x3ef75e63	0.483142
27	0xbebe5097	-0.3717086
28	0x3f3a0f96	0.7268003
29	0x3f105b88	0.56389666
30	0xbf164e42	-0.5871316
31	0x3f0a1692	0.5394069
32	0x3ecd9e74	0.40159953
33	0xbe97796b	-0.29584822
34	0xbf03aae1	-0.51432616
35	0xbf199bbd	-0.6000326
36	0x3f0e7cf2	0.556594
37	0xbeb870ae	-0.36023468
38	0xbf025669	-0.509131
39	0x3f1ff272	0.6247932
40	0x3e6b6b04	0.22990042
41	0xbf21b176	-0.6316141
42	0x3f1da4f6	0.61579835
43	0xbee76573	-0.45194587
44	0x3e92d009	0.28674343
45	0xbec96ff9	-0.3934324
46	0xbe1211a5	-0.14264543
47	0x3eebbd5a	0.460429
48	0x3e670c99	0.225634
49	0x3ea7d2c4	0.3277799
50	0x3ecc7876	0.39935654
51	0x3ee391b6	0.44447106
52	0xbe540fdb	-0.20709173
53	0x3e768006	0.24072275
54	0xbea18e0b	-0.31553683
55	0x3f0ab358	0.54179907
56	0x3daf78f1	0.085679896
57	0x3f2979e0	0.6620159
58	0xbf1888ce	-0.5958375
59	0x3ef5c460	0.48001385
60	0x3f2abe06	0.666962
61	0xbeed9312	-0.46401268
62	0x3d6832cd	0.056689072
63	0x3ec469be	0.38361925

weight f4 [32, 1, 1]
0	0xbf464943	-0.7745554
1	0xbf53d136	-0.82741106
2	0xbe96a556	-0.29423016
3	0x3f19efeb	0.6013171
4	0x3f1a49f1	0.60269076
5	0xbee19c8b	-0.44064745
6	0xbf4ea852	-0.80725586
7	0x3f2c3453	0.6726734
8	0xbf636cce	-0.888379
9	0x3f61d3d5	0.88213855
10	0x3f009eaf	0.5024213
11	0xbf2dd26d	-0.6789921
12	0x3e814daf	0.2525458
13	0x3f4ad986	0.79238164
14	0x3dac5bd9	0.08415956
15	0x3f213e11	0.6298533
16	0xbdf091b5	-0.117465414
17	0xbf2fae38	-0.6862521
18	0xbdfc57bc	-0.123214215
19	0x3eb8e26b	0.36110243
20	0x3f2fff2c	0.68748736
21	0x3f56de9f	0.8393344
22	0x3ef4b819	0.47796705
23	0x3f688b22	0.908373
24	0xbebd0185	-0.36915222
25	0xbf4c2a72	-0.79752266
26	0x3f817c24	1.011601
27	0xbed98f04	-0.42491925
28	0x3e05ad31	0.13054349
29	0xbf10d1a9	-0.56569916
30	0xbf31869d	-0.6934603
31	0x3f1203c5	0.57037

weight f4 [32, 32, 15]
0	0x3d012ae6	0.03153505
1	0x3d03b611	0.032156054
2	0xbd9246ad	-0.071423866
3	0xbd0d322d	-0.03447168
4	0xbbcbf9e4	-0.0062248576
5	0xbc119a1e	-0.008886842
6	0x3cafcca5	0.021459887
7	0x3ccc4292	0.024934087
8	0xbdaa1f67	-0.08306771
9	0x3b3110ff	0.0027018187
10	0xbd457903	-0.04821111
11	0x3cd5e646	0.02611078
12	0xbd115a75	-0.035486657
13	0xbd1f1193	-0.03883512
14	0xbcf7cf82	-0.030250315
15	0x3d0af87a	0.033928372
16	0x3cd77980	0.026303053
17	0xbde55983	-0.11198714
18	0xbe0b5439	-0.13606347
19	0xbd4998a2	-0.049217828
20	0xbb5e6e3d	-0.003394022
21	0x3df39474	0.118935496
22	0xbc3376a3	-0.010953578
23	0xbd02144b	-0.031757634
24	0xbd323ab3	-0.04351301
25	0x3d4523d9	0.04812989
26	0x3dab9698	0.08378333
27	0x3dbf2bdf	0.093345396
28	0x3c2121f0	0.0098347515
29	0xbbb4f2b5	-0.005522097
30	0xbe0ceab5	-0.13761409
31	0xbce09061	-0.027412595
32	0x3dba73eb	0.09104141
33	0x3ddb34c4	0.107034236
34	0x3db1091f	0.08644318
35	0x3a7c80af	0.00096322125
36	0xbe9257e7	-0.2858269
37	0xbdaeb8b7	-0.08531325
38	0x3da6f1ac	0.08151564
39	0x3d36910f	0.044571932
40	0x3e140a3b	0.14457028
41	0xbd3094ac	-0.043110535
42	0xbb8115e5	-0.0039393776
43	0x3b914f3d	0.004434495
44	0xbcb79745	-0.022410998
45	0xbd5d9210	-0.054094374
46	0x3d2b2c90	0.041790545
47	0x3d7cd82c	0.061729595
48	0x3cbed537	0.023295028
49	0x3c8cecd1	0.017202767
50	0xbd06bcda	-0.032894947
51	0xbd538103	-0.051636707
52	0xbd21ee7f	-0.03953409
53	0x3d4d2ee5	0.05009355
54	0x3d31c346	0.043399118
55	0x3bdd569e	0.0067547103
56	0xbaffb1f7	-0.0019507994
57	0x3ca1fcdf	0.019773899
58	0x3d38f13f	0.045151945
59	0xbd488f5f	-0.048964854
60	0x3d88dacb	0.066823564
61	0x3d3e5c73	0.046474885
62	0xbc224929	-0.009905138
63	0xbd96f9b2	-0.07371844
64	0xba836977	-0.0010025938
65	0x3d1820fc	0.03714083
66	0x3af1c3e1	0.0018445217
67	0x3d2ac239	0.04168913
68	0x3d9e8e4c	0.07741985
69	0xbc81b3d0	-0.015832812
70	0xbd1a8c84	-0.037731662
71	0xbd88b796	-0.06675641
72	0x3d8c2341	0.06842662
73	0x3c62dff2	0.013847338
74	0x3cf851c7	0.030312432
75	0xbd1689ba	-0.03675244
76	0xbd51c275	-0.05121084
77	0x3b0d9bef	0.0021607836
78	0xba12f093	-0.00056053064
79	0x3c3c8dcb	0.011508415
80	0x3cd96a5d	0.026539976
81	0xbd1c3da7	-0.038144734
82	0xbd41a3a1	-0.04727519
83	0xbd1afbcc	-0.03783779
84	0xba425d21	-0.000741439
85	0x3b74157c	0.003724425
86	0x3c2027e1	0.009775133
87	0xbc903887	-0.01760508
88	0xbc015f97	-0.007896326
89	0x3c438ff3	0.011936176
90	0xbb2119f4	-0.002458212
91	0xbc2bfd99	-0.010497474
92	0x3c610d3a	0.013736064
93	0xbcb2f229	-0.021843987
94	0x3c2a2f76	0.010387292
95	0x3c8d3e81	0.017241718
96	0x3c1c8ff5	0.009555806
97	0xbcd019dd	-0.025402958
98	0xbc0f36a6	-0.008741057
99	0xbcbc2e71	-0.022971364
100	0x3b3ec715	0.0029110361
101	0x3c83c088	0.016083017
102	0xbd291a67	-0.041284945
103	0xbd0a3975	-0.0337462
104	0x3d17c12b	0.037049454
105	0xbd23fa74	-0.040033773
106	0x3ba29963	0.004962133
107	0x3d5070e3	0.050888907
108	0xbcac9a0f	-0.021069555
109	0xbd1986a9	-0.037481938
110	0x3c9dc9c3	0.019261247
111	0xbd28fce5	-0.041256804
112	0x3cd99bc2	0.026563529
113	0x3ca525fc	0.020159714
114	0xbcdbec17	-0.026845975
115	0x3cc89e14	0.02448944
116	0xbd11ad76	-0.035565816
117	0xbd0dee06	-0.034650825
118	0xba0b3190	-0.00053098146
119	0x3ca4ebc8	0.02013196
120	0xbd8eabf2	-0.0696639
121	0xbd108575	-0.035283525
122	0xbd2a0d11	-0.041516367
123	0x3dbea17c	0.093081445
124	0xbc11c997	-0.00889816
125	0x3d25ed64	0.040509596
126	0xbe2670c3	-0.16253953
127	0xbd246589	-0.040135894
128	0x3da75ee5	0.081723966
129	0xbc81b861	-0.015834989
130	0x3e09bab0	0.13450122
131	0xbd29ae89	-0.041426215
132	0xbd76e1d6	-0.060273968
133	0x3c7fabe0	0.015604943
134	0xbd1d8b1e	-0.03846275
135	0x3cc7e97c	0.024403326
136	0x3c042118	0.008064531
137	0x3d3ab0b6	0.04557868
138	0xbc7ad83b	-0.015310342
139	0xbbb25322	-0.005442039
140	0xbd042be7	-0.03226843
141	0x3d8afd36	0.067865774
142	0x3cd78aea	0.026311357
143	0x3d40889a	0.047005273
144	0x3c233cb2	0.009963201
145	0xbba34363	-0.0049823984
146	0x3d2552fd	0.040362347
147	0xbc1b209d	-0.009468225
148	0xbc5027f5	-0.012704839
149	0x3d415e5b	0.047209125
150	0x3ced1f76	0.028945666
151	0x3a2cf6bf	0.00065980473
152	0xbd33d6ac	-0.0439059
153	0x3ce67ff7	0.02813719
154	0xbc1c21c8	-0.009529538
155	0x3cdfa7a6	0.02730162
156	0x3bb3b860	0.0054846257
157	0xbb99de20	-0.004695669
158	0xbd376173	-0.04477067
159	0xbd2cff2c	-0.04223554
160	0xbc75df26	-0.015006816
161	0xbd041082	-0.032242306
162	0x3d0d2aa4	0.034464493
163	0x3d9bba26	0.07603864
164	0xbc573eaf	-0.0131375035
165	0xbbfe9563	-0.007769273
166	0x3d0be5bb	0.034154635
167	0xbe0c3196	-0.1369079
168	0x3d0ed97b	0.034875374
169	0x3dfa59a0	0.12224126
170	0x3df1174f	0.11772024
171	0x3dd313e4	0.10306528
172	0xbd805571	-0.06266297
173	0xbdb4a257	-0.08820026
174	0xbcb50e7d	-0.022101635
175	0x3d78081d	0.060554612
176	0x3c95bad4	0.018277563
177	0xbd94677f	-0.07246303
178	0xbcb7ab5f	-0.022420583
179	0xbddae343	-0.10687878
180	0x3c5eb5b2	0.013593124
181	0xbd084746	-0.033271097
182	0x3d131f40	0.035918474
183	0x3d336701	0.043799404
184	0xbd1185d8	-0.035528034
185	0xbd5595b4	-0.05214472
186	0x3b26a787	0.0025429444
187	0xbce0fd8c	-0.02746465
188	0x3d1a1109	0.037613902
189	0x3cd8096d	0.026371682
190	0x3cd074e5	0.025446365
191	0xbd504144	-0.050843492
192	0xbd0c58f5	-0.034264524
193	0x3d7d78af	0.06188267
194	0xbc35e9b3	-0.0111030815
195	0xbda8e0c2	-0.08245994
196	0x3db1fd3c	0.08690879
197	0x3d46bd8e	0.048520617
198	0x3e0c7da2	0.137198
199	0x3ca777c9	0.02044286
200	0xbe0ba8c0	-0.13638592
201	0xbe3d6c7b	-0.18498413
202	0xbdc67f9a	-0.09692307
203	0x3db0f5a0	0.08640599
204	0x3e151eaa	0.14562479
205	0x3caa9c34	0.020826437
206	0xbd8249fc	-0.06361768
207	0xbd50c3ee	-0.050968103
208	0xbaf03728	-0.0018326985
209	0xbc00615b	-0.007835711
210	0xbdd8652a	-0.105661705
211	0x3d8226fa	0.063550904
212	0x3db2faa4	0.08739212
213	0xbe1b3da2	-0.1516023
214	0xbd2dae3f	-0.042402502
215	0x3dbe9106	0.09305005
216	0x3ef646d8	0.48100924
217	0x3e13a490	0.14418244
218	0xbe6ddf84	-0.23229796
219	0xbe4a75b8	-0.19771469
220	0xbdd4d992	-0.10393061
221	0x3ebbd269	0.36683968
222	0x3ebbf699	0.36711577
223	0x3c444389	0.011978992
224	0xbe11953b	-0.14217083
225	0xbc990f9f	-0.018684207
226	0x3ce1deac	0.027571999
227	0xbd250242	-0.040285356
228	0xbd9e7b4c	-0.07738361
229	0xbd40cede	-0.047072284
230	0x3cdfd771	0.02732441
231	0x3d0dd713	0.03462894
232	0xbcb59310	-0.022164851
233	0x3d4e84e6	0.05041971
234	0xbca025f7	-0.019549353
235	0x3c6f9e42	0.014625134
236	0xbd43b394	-0.04777868
237	0x3c5ec533	0.013596821
238	0x3c3c69f1	0.011499868
239	0x3c432069	0.011909583
240	0xbdc2abb7	-0.09505408
241	0xbd47841f	-0.048709985
242	0x3d759b6f	0.059962686
243	0x3e04d55d	0.12972017
244	0x3cd6c272	0.026215766
245	0xbd0154e9	-0.031575117
246	0xbdf16b40	-0.117880344
247	0xbd9fb0b7	-0.077973776
248	0xbc316fa4	-0.01082984
249	0x3db73fe2	0.089477316
250	0x3de747b4	0.11292973
251	0x3b09de47	0.0021037029
252	0xbda539a2	-0.08067633
253	0x3cd49e5c	0.025954418
254	0x3ce4c52f	0.027926056
255	0x3ce25907	0.027630342

bias f4 [32]
0	0x3d12587b	0.035728913
1	0xbd18a139	-0.03726313
2	0x3cb240ce	0.021759417
3	0xbcdce697	-0.026965423
4	0x3c64a10b	0.013954411
5	0xbd2a78c8	-0.041619092
6	0xb9f62c11	-0.00046953608
7	0xbcd9c6bc	-0.026584022
8	0x3c3fe1b3	0.011711526
9	0x3d1baac3	0.038004648
10	0xbcc2ac77	-0.023763878
11	0x3d049bbc	0.032375082
12	0xbd0035d8	-0.03130135
13	0xbcfcaaeb	-0.030843219
14	0x3caf0a61	0.021367254
15	0x3d60adf8	0.05485341
16	0xbc7050d2	-0.014667707
17	0x3d85f8fc	0.065416306
18	0x3d2ded03	0.04246236
19	0x3cfe459d	0.031039054
20	0x3d763afd	0.06011485
21	0xbce62fa8	-0.028098896
22	0xbadd6927	-0.00168923
23	0xbbedef20	-0.007261172
24	0x3b9c6159	0.004772347
25	0x3cc60e7a	0.024176825
26	0x3cc97aaf	0.024594633
27	0x3bd6ef53	0.0065592914
28	0xbc0561e6	-0.008141017
29	0x3ce94726	0.028476309
30	0x3d1b6754	0.03794034
31	0x3c7dc671	0.015489207

weight f4 [64, 2]
0	0xbb8ac0cd	-0.0042344094
1	0xbea3d24b	-0.31996378
2	0x3efdddbb	0.4958323
3	0x3e8067d6	0.2507922
4	0x3eee00f8	0.46485114
5	0x3bb0982a	0.005389233
6	0x3e88e9c8	0.2674086
7	0x3f2fe670	0.68710995
8	0x3d364c84	0.044506565
9	0xbef06cc0	-0.4695797
10	0xbe1aa1df	-0.15100811
11	0x3f2a9d02	0.66645825
12	0xbe575e16	-0.21031985
13	0xbeb91f2b	-0.36156592
14	0x3e7dc2bd	0.24781318
15	0xbe89f75d	-0.26946536
16	0xbefd02cb	-0.49416193
17	0xbf014b8f	-0.5050592
18	0x3da30b24	0.07961109
19	0xbc4fb613	-0.012677687
20	0xbe1e8a24	-0.15482384
21	0xbf14da89	-0.5814596
22	0x3f234aa6	0.6378578
23	0xbe3280cc	-0.17431945
24	0x3d3a8335	0.045535285
25	0xbd7a129e	-0.06105291
26	0xbe4af8b4	-0.19821435
27	0xbf044dce	-0.5168122
28	0xbdb668ab	-0.089066826
29	0xbe7015eb	-0.23445861
30	0xbf31ba1c	-0.69424605
31	0x3f26c399	0.6514221
32	0xbe4bb838	-0.19894493
33	0x3f1b5f24	0.6069205
34	0x3f1475a5	0.5799201
35	0xbef38b8f	-0.47567412
36	0xbd2b9497	-0.041889753
37	0x3ea8d62b	0.32975897
38	0x3ed4bcd8	0.41550326
39	0xbe0c87d9	-0.13723697
40	0xbecfe018	-0.40600657
41	0xbf2eacfc	-0.68232703
42	0x3e3ea2da	0.1861681
43	0x3f1068b4	0.56409764
44	0xbe18467d	-0.14870639
45	0x3e26f687	0.1630498
46	0xbef28a3a	-0.47371083
47	0xbc8dea43	-0.017323619
48	0xbf12c7e0	-0.57336235
49	0x3ed7abcb	0.42123255
50	0x3949f7a6	0.0001926111
51	0xbdd3c5e0	-0.10340476
52	0x3eee557e	0.465496
53	0x3e36d4f2	0.1785467
54	0xbf0b9c34	-0.5453522
55	0x3e73826c	0.23780221
56	0x3e8958eb	0.26825652
57	0x3ba9826f	0.0051730196
58	0x3ebc1a0c	0.36738622
59	0xbda44ea5	-0.08022813
60	0x3d8949e7	0.06703549
61	0xbec181d6	-0.3779437
62	0x3eb3a6ca	0.35088187
63	0xbed6b536	-0.41935128
64	0xbefb52a1	-0.49086478
65	0xbec35374	-0.38149607
66	0x3eb75305	0.35805526
67	0x3be83a00	0.0070869923
68	0xbf23f372	-0.64043343
69	0x3eba78e1	0.36420348
70	0xbf1eea62	-0.6207639
71	0xbf213461	-0.6297055
72	0xbee7dc2d	-0.45285168
73	0xbf07fca9	-0.53119904
74	0x3f18374a	0.59459364
75	0x3f207dd1	0.6269198
76	0xbdb84f34	-0.08999482
77	0x3e977017	0.29577705
78	0xbee7cae9	-0.45271996
79	0xbf23a0c6	-0.63917196
80	0xbd86639e	-0.06561969
81	0x3e49231e	0.19642302
82	0xbea2f2f8	-0.31825995
83	0xbe816205	-0.25270095
84	0x3e8923a1	0.26784995
85	0xbf0a9436	-0.541324
86	0xbf0cb585	-0.54964477
87	0x3e749d28	0.23888075
88	0x3d8f23dd	0.06989262
89	0xbef5aaa9	-0.47981766
90	0xbe6f320e	-0.23358938
91	0x3ce7d04a	0.028297562
92	0xbed3d25f	-0.41371438
93	0x3f140b62	0.5782987
94	0x3d61215b	0.05496345
95	0x3ea29262	0.31752306
96	0x3f067588	0.5252309
97	0x3f1b0bd2	0.6056491
98	0x3ba3dff0	0.0050010607
99	0xbeb1c3d0	-0.34719706
100	0xbe160d4a	-0.14653507
101	0xbf2cd958	-0.6751914
102	0xbe5238b4	-0.20529443
103	0xbe7419eb	-0.23838012
104	0x3eb00683	0.34379968
105	0x3e36c13c	0.1784715
106	0xbf0c6683	-0.5484392
107	0xbdd16ac2	-0.102254406
108	0xbf11fb07	-0.5702366
109	0xbf217431	-0.6306792
110	0x3e386cd0	0.18010259
111	0xbe8ba91f	-0.27277467
112	0x3bdfd2fc	0.006830571
113	0xbe5b4ff8	-0.21417224
114	0xbee5d9a0	-0.44892597
115	0x3f10d7b8	0.5657916
116	0x3f19efc4	0.6013148
117	0x3eff86e9	0.49907616
118	0xbeaec4b0	-0.34134436
119	0x3e87a99e	0.26496595
120	0xbe792ff8	-0.24334705
121	0x3e00113a	0.12506571
122	0x3ed3e7c6	0.41387767
123	0xbe892a23	-0.2678996
124	0x3e8a03d4	0.26956046
125	0xbe2c477d	-0.16824146
126	0xbea40e08	-0.32041955
127	0x3f26b226	0.6511558

bias f4 [64]
0	0xbf56fc55	-0.8397878
1	0x3ede6817	0.4343879
2	0x3f2c4bfb	0.67303437
3	0xbe58d021	-0.21173145
4	0xbe321e92	-0.17394474
5	0x3f1ff54a	0.62483656
6	0x3eb3d5d4	0.35124075
7	0x3e6562ff	0.22401045
8	0x3ecfb407	0.40567037
9	0x3e207716	0.15670428
10	0x3f0a4b70	0.5402136
11	0x3cf7b73e	0.030238744
12	0xbe066f60	-0.13128424
13	0xbeca60f1	-0.39527085
14	0xbf2341fd	-0.63772565
15	0xbf325b6b	-0.6967074
16	0x3f078aeb	0.52946347
17	0xbe95d1b3	-0.2926155
18	0xbef2473f	-0.4731998
19	0xbe23d199	-0.15997924
20	0xbe2804a1	-0.16408016
21	0x3d8bd64b	0.068279825
22	0xbee918ad	-0.4552664
23	0xbee7edd4	-0.45298636
24	0xbee3dd98	-0.44505
25	0x3da12fed	0.07870469
26	0x3de76a02	0.11299516
27	0x3f134d16	0.575395
28	0x3f14854e	0.58015907
29	0x3e908591	0.28226903
30	0x3f1869cc	0.59536433
31	0xbefda13d	-0.49537078
32	0x3ef0284e	0.4690575
33	0x3eab368f	0.33440062
34	0xbebddd35	-0.3708283
35	0xbefce151	-0.49390653
36	0x3efffd2f	0.4999785
37	0x3f20686c	0.62659335
38	0x3e739978	0.23789012
39	0xbedd03c6	-0.4316694
40	0x3e17ebdf	0.14836071
41	0xbe214d99	-0.15752257
42	0xbe8bd809	-0.2731326
43	0x3dde941b	0.108680926
44	0x3ef5039d	0.4785432
45	0xbe50b615	-0.20381959
46	0xbf0ad7a2	-0.5423528
47	0xbeeb0393	-0.45901164
48	0xbe9b945e	-0.30386633
49	0x3f276728	0.6539178
50	0x3efd5922	0.49482065
51	0xbec9e9e7	-0.39436266
52	0x3f191b15	0.5980695
53	0xbde28eaa	-0.11062367
54	0xbf3093dd	-0.6897562
55	0x3f27a465	0.6548522
56	0x3f1c71ab	0.61110944
57	0x3ee37a86	0.44429415
58	0x3f2a998d	0.6664055
59	0x3e8a7ab5	0.27046743
60	0x3e9b184f	0.30291983
61	0xbdb68639	-0.0891232
62	0xbf2235fe	-0.63363636
63	0x3cebf339	0.028802501

weight f4 [32, 32, 1]
0	0xbdb26733	-0.0871109
1	0x3d40e109	0.04708961
2	0x3e4558fe	0.19272229
3	0x3b188c66	0.0023277043
4	0xbc152c8f	-0.009104862
5	0x3e476fc3	0.19476227
6	0x3e1b605a	0.15173474
7	0x3c816d8b	0.015799304
8	0xbe2c6104	-0.16833884
9	0x3e23e876	0.16006646
10	0xbe1fb692	-0.15596989
11	0x3d84ac55	0.06478182
12	0xbe109691	-0.14119937
13	0xbca8b44c	-0.020593785
14	0x3e5f6f5a	0.21819821
15	0xbdbe2952	-0.09285225
16	0xbdbd4ae5	-0.092428006
17	0xbd832280	-0.06403065
18	0xbda28411	-0.07935346
19	0xbd64e95c	-0.05588661
20	0x3e24b05c	0.16082901
21	0xbde17672	-0.1100892
22	0x3de4595b	0.11149856
23	0xbd8a6900	-0.067583084
24	0xbdeedc2b	-0.116630875
25	0x3ca4e6a4	0.02012951
26	0xbdbc824d	-0.092045404
27	0xbe46b8f8	-0.19406497
28	0xbde73576	-0.11289494
29	0xbd73436f	-0.05939048
30	0xbe093df4	-0.1340254
31	0xbcec8d0f	-0.028875856
32	0x3dcf9e53	0.1013762
33	0xbde43a8f	-0.11143982
34	0x3e06d733	0.1316803
35	0x3cc74133	0.024323082
36	0xbe0071d4	-0.12543422
37	0x3dde2e74	0.10848704
38	0x3dbd9ab6	0.092580244
39	0x3cdc1988	0.026867643
40	0x3dc7f21f	0.09762978
41	0xbc609a43	-0.013708654
42	0xbceb384d	-0.02871337
43	0x3d76aff5	0.0602264
44	0xbe115c2c	-0.14195317
45	0x3e458bf5	0.1929167
46	0x3ea00d26	0.3126003
47	0xbd23f0f8	-0.040024728
48	0xbdbb2698	-0.091382205
49	0xbe0208a2	-0.12698606
50	0xbc3e2377	-0.011605135
51	0x3d807eee	0.0627421
52	0x3d2331dc	0.03984247
53	0x3baee25e	0.0053370437
54	0x3e23a1ba	0.15979663
55	0xbd4cd833	-0.05001087
56	0xbe3aeddb	-0.18254797
57	0x3e09b7d7	0.13449036
58	0xbe15018f	-0.14551376
59	0xbcde38d7	-0.027126713
60	0xbe32ebda	-0.17472783
61	0x3db3bc1c	0.087761134
62	0x3e11d161	0.14240028
63	0xbd9ed66d	-0.07755742
64	0xbc590e99	-0.013248109
65	0xbe330593	-0.17482595
66	0xbd6d8771	-0.057990495
67	0x3de69aa4	0.11259964
68	0xbd8e3205	-0.06943134
69	0xbdd0b8b8	-0.10191482
70	0xbd7309b6	-0.059335433
71	0x3e1d2c2b	0.1534888
72	0xbe25ee58	-0.16204202
73	0xbcf98640	-0.030459523
74	0xbdb1f9e9	-0.08690245
75	0xbaecb9db	-0.001806076
76	0xbd33b9de	-0.04387843
77	0xbc87be8f	-0.016570358
78	0xbe746a21	-0.2386861
79	0x3cf228d1	0.029560478
80	0xbcb388ee	-0.02191588
81	0x3d6b70ce	0.057480626
82	0x3dd7cd5e	0.105372176
83	0xbe0a39ff	-0.13498686
84	0x3e37565a	0.17904034
85	0x3c1ad1a3	0.009449395
86	0xbe1d62a9	-0.15369667
87	0x3e58b6aa	0.21163431
88	0xbcac3bbc	-0.021024577
89	0x3e59b4c1	0.21260358
90	0xbbbeb452	-0.0058198357
91	0x3e25a030	0.16174388
92	0x3db75558	0.08951825
93	0xbe2bb486	-0.16768083
94	0x3d855c1d	0.0651171
95	0x3c71796a	0.01473842
96	0x3d2e2b48	0.042521745
97	0xbdf157fd	-0.117843606
98	0xbdcf8236	-0.10132258
99	0x3d6bf2c9	0.057604585
100	0xbd9428ae	-0.072343215
101	0xbceddaa3	-0.029034918
102	0xbe336043	-0.1751719
103	0xbe15008c	-0.1455099
104	0x3d7d372b	0.06182019
105	0x3d93f79d	0.07224963
106	0xbe0f4f36	-0.1399506
107	0xbe3c5d6c	-0.18395013
108	0x3db90483	0.09034064
109	0x3d237091	0.039902274
110	0xbd7619a4	-0.060083047
111	0x3dc0b41a	0.09409352
112	0x3c5ec97b	0.013597841
113	0x3e0c736a	0.13715902
114	0xbe1a437c	-0.15064806
115	0x3df2f24f	0.11862623
116	0xbb874c7e	-0.0041289916
117	0x3e22c0b6	0.15893826
118	0x3e1d517f	0.1536312
119	0xbd967d62	-0.073481336
120	0x3d9b7c44	0.07592061
121	0xbb80a55f	-0.003925964
122	0x3c9f3402	0.019433979
123	0x3cab33a3	0.020898646
124	0x3ddde173	0.10834017
125	0xbc955783	-0.018230205
126	0xbe3571fa	-0.1771926
127	0xbe0e792c	-0.13913411
128	0xbe0474f1	-0.12935235
129	0xbd533512	-0.051564284
130	0x3d0ec34a	0.03485421
131	0xbc4aa19d	-0.012367633
132	0x3e152105	0.14563377
133	0xbe00f090	-0.12591767
134	0xbdc95a0a	-0.09831627
135	0xbdb1d155	-0.08682505
136	0x3dc025c4	0.09382203
137	0xbd052359	-0.032504413
138	0xbc166bbe	-0.009180961
139	0xbd891413	-0.06693282
140	0x3cf661a7	0.030075861
141	0xbdf1ada2	-0.11800696
142	0x3dd0f895	0.10203663
143	0xbd4d6f54	-0.050155
144	0x3d35e991	0.0444122
145	0x3dd0a48a	0.10187633
146	0xbc122061	-0.008918853
147	0xbe03d1c0	-0.12872982
148	0xbde688b5	-0.112565435
149	0x3c8bb2e3	0.017053073
150	0x3cc21f85	0.02369667
151	0xbe2d54d1	-0.16926886
152	0xbda8ac8c	-0.08236036
153	0xbd4cb4f8	-0.049977273
154	0x3d0b0ac3	0.03394581
155	0xbc51ab48	-0.012797184
156	0x3debf152	0.115206376
157	0x3d9e48a0	0.07728696
158	0x3df03e4d	0.11730633
159	0xbd9d17a7	-0.07670527
160	0x3e031ed9	0.12804736
161	0xbe141960	-0.14462805
162	0x3e2af70b	0.16695802
163	0x3ddd2444	0.10797933
164	0x3e08306b	0.1329972
165	0xbe103432	-0.14082411
166	0x3db4e470	0.088326335
167	0x3cb904b0	0.022585243
168	0xbc92b2f6	-0.0179076
169	0x3d30ec56	0.043194138
170	0x3bb8a32a	0.005634685
171	0xbc55cab7	-0.013048819
172	0xbde4075f	-0.111342184
173	0x3d6ebb2c	0.05828397
174	0x3a47f08f	0.00076270936
175	0x3e0e57b3	0.13900642
176	0x3e170c91	0.14750887
177	0xbd31b65c	-0.043386802
178	0x3da7bbb6	0.081901
179	0x3d0393d6	0.03212341
180	0xbdc2bcdd	-0.09508679
181	0xbe0889d2	-0.13333824
182	0xbce7fe7a	-0.028319586
183	0x3c2d67c0	0.010583818
184	0x3accea7c	0.0015633847
185	0x3e077cc7	0.13231193
186	0x3c73cc69	0.014880278
187	0x3e09b16f	0.13446592
188	0x3c53277f	0.012887835
189	0xbc527ea9	-0.012847581
190	0x3db148a7	0.086564355
191	0xbd86350f	-0.06553089
192	0xbdb46a21	-0.08809305
193	0x3e37fecd	0.17968293
194	0x3dd84245	0.10559515
195	0x3bc96d0c	0.0061470326
196	0xbe11f8b8	-0.14255035
197	0xbdab6ffc	-0.08370969
198	0x3e4a5ce0	0.19761992
199	0x3e1372ef	0.14399312
200	0x3e2c2194	0.16809684
201	0xbd40a6ee	-0.047034197
202	0x3dea08e4	0.11427477
203	0xbdb6c3c0	-0.08924055
204	0xbd4256fa	-0.04744623
205	0x3dcc83b0	0.09986055
206	0x3c306f71	0.010768757
207	0x3d3e8187	0.046510246
208	0xbdaffa82	-0.085927024
209	0xbdba9460	-0.091103315
210	0xbdcab735	-0.09898225
211	0xbd006789	-0.03134874
212	0x3da7f160	0.082003355
213	0x3d5f12d6	0.054461323
214	0xbdf91823	-0.12162807
215	0x3d921851	0.07133544
216	0x3de30c1a	0.110862926
217	0xbe3a9ba7	-0.18223439
218	0xbdef2de0	-0.11678672
219	0xbc895ed2	-0.016768847
220	0xbe07de83	-0.13268475
221	0x3dc7f96e	0.09764372
222	0x3dddd255	0.10831133
223	0xbe1f2d68	-0.15544665
224	0x3e136a7b	0.14396088
225	0xbd4b7d7a	-0.04968021
226	0x3da195f3	0.07889929
227	0x3d8f6b0f	0.07002842
228	0xbd18c339	-0.037295554
229	0x3e1998b4	0.14999658
230	0xbd929a4e	-0.071583375
231	0xbe173615	-0.14766724
232	0x3e3d9f62	0.18517831
233	0xbe151340	-0.14558125
234	0x3dbbc03a	0.09167524
235	0x3de0acac	0.109704345
236	0xbe0a412a	-0.1350142
237	0xbddf28bb	-0.108964406
238	0x3c5df301	0.013546706
239	0x3e0d9f8e	0.13830397
240	0xbe010dfd	-0.12602992
241	0x3d3bcd5f	0.045850154
242	0xbd0c7017	-0.034286585
243	0x3ca43ca9	0.020048456
244	0x3d4e8aa3	0.050425183
245	0x3dfc5246	0.1232038
246	0xbe16529f	-0.14679955
247	0xbde6eeee	-0.11276041
248	0xbcd20079	-0.025634991
249	0x3d7238d1	0.059136216
250	0xbda372e8	-0.07980901
251	0x3c24f2c7	0.010067648
252	0xbe17677c	-0.1478557
253	0x3cd1f206	0.025628101
254	0x3b246a02	0.00250876
255	0x3d9e8937	0.077410154

weight f4 [32, 32, 15]
0	0x3ba94f52	0.0051669264
1	0xbca536e1	-0.02016777
2	0xbbb09a35	-0.0053894767
3	0xba5212f0	-0.0008013686
4	0xbb87b9a3	-0.0041420027
5	0xbd7e787c	-0.06212662
6	0xbd715d3b	-0.058926802
7	0x3b3a2575	0.0028403674
8	0x3c1b0ee7	0.009464002
9	0xbd90701b	-0.070526324
10	0xbc4123c2	-0.0117883105
11	0xbda1133d	-0.078649975
12	0xba1c7eff	-0.00059698516
13	0xbcf3c3f2	-0.02975652
14	0xbce30f96	-0.027717393
15	0x3ca37dc9	0.01995744
16	0x3cc7207b	0.02430748
17	0xbba597c6	-0.005053493
18	0xbc9df500	-0.019281864
19	0xbca66079	-0.020309674
20	0x3c1d5ee6	0.009605145
21	0xbd42248a	-0.047398128
22	0xbd343b12	-0.044001646
23	0xbbf0345f	-0.007330462
24	0xba24d97b	-0.00062885106
25	0x3cbeee1e	0.023306902
26	0xbcc47e05	-0.023985872
27	0xbdafb923	-0.08580234
28	0x3c4dd176	0.012562146
29	0xbbbb0617	-0.005707513
30	0xbd22db12	-0.039759703
31	0xbd3da674	-0.04630132
32	0xbc394582	-0.011308076
33	0xbc765414	-0.015034694
34	0x3c4c9178	0.012485854
35	0xbd9bc226	-0.0760539
36	0x3c740645	0.014894073
37	0xbbf47913	-0.0074607222
38	0x3da2c701	0.07948113
39	0xbd3f11dc	-0.04664789
40	0xbc3ab814	-0.011396427
41	0x3d8660be	0.06561421
42	0x3d6e4835	0.05817433
43	0x3d8916b3	0.06693783
44	0x3ce73fea	0.028228719
45	0xbcd46c4f	-0.025930552
46	0xbc7c4edb	-0.01539966
47	0xbd5de171	-0.054170076
48	0xbd232196	-0.039826952
49	0x3d14103d	0.0361483
50	0xbd507c61	-0.050899867
51	0x3bb8b4c1	0.005636782
52	0xbd26caf8	-0.04072091
53	0x3c367e97	0.01113858
54	0xbd081742	-0.033225305
55	0xbcf27660	-0.029597461
56	0x3cd6a79e	0.026202973
57	0x3c56f1c6	0.013119167
58	0xbcfdbb71	-0.030973168
59	0xbd2edf2b	-0.0426933
60	0x3d0909c2	0.03345657
61	0x3cbdf24f	0.02318683
62	0x3cdd0243	0.026978618
63	0x3d125b43	0.035731565
64	0x3d0eaacf	0.034830865
65	0xbb0ced01	-0.002150357
66	0xbd134131	-0.035950843
67	0x3c13dcce	0.009024812
68	0x3d18281e	0.037147634
69	0xbba92e98	-0.005163025
70	0xbc622e60	-0.013805002
71	0x3c1af537	0.009457878
72	0xbcaafa9d	-0.020871455
73	0x3d2af890	0.041740954
74	0x3cac25d1	0.021014126
75	0xbc9a53f1	-0.018838855
76	0xbd4acf43	-0.049514066
77	0x3c7ae96e	0.015314443
78	0xbcf2397d	-0.029568428
79	0xbd3a5bf5	-0.045497853
80	0xbb7ce3ac	-0.0038587851
81	0xbb57acaf	-0.0032909324
82	0x3ca5d040	0.020240903
83	0xbcc57a5a	-0.024106193
84	0xbcf91d99	-0.030409621
85	0xbcdda731	-0.027057262
86	0x3cf5e238	0.030015096
87	0xbc562759	-0.013070905
88	0xbcdd051a	-0.026979972
89	0xbd00618d	-0.03134303
90	0x3cf77450	0.03020683
91	0x3b84a32d	0.0040477724
92	0x3c2e6e56	0.010646423
93	0x3bf61dcb	0.007510876
94	0x3c6064c6	0.013695901
95	0x3ba3d23d	0.0049994276
96	0x3cd1e7bb	0.025623193
97	0xbb289f77	-0.0025729814
98	0x3cd0cec4	0.025489219
99	0xbcc9caa3	-0.024632758
100	0xbb84f20c	-0.0040571745
101	0x3d8a2ad5	0.06746451
102	0xbc079ee5	-0.0082776295
103	0x3d1acb2c	0.037791416
104	0x3d1022bf	0.035189386
105	0xbcefda1a	-0.029278804
106	0xbc119ac5	-0.008886998
107	0x3ce53ab6	0.027982097
108	0xbd58a20b	-0.05288891
109	0x3bd7901d	0.006578459
110	0x3c6ec49e	0.014573244
111	0x3cae4420	0.021272719
112	0xbaa3bef4	-0.0012492822
113	0xbd26367f	-0.040579315
114	0xbb9ab0e0	-0.004720792
115	0xbd02c4fe	-0.031926148
116	0xbce42937	-0.027851684
117	0xbd91420f	-0.07092678
118	0xbce66617	-0.028124852
119	0xbca77c65	-0.020445058
120	0xbcfd136b	-0.030893048
121	0x3d409ffc	0.047027573
122	0x3d349ab5	0.044092853
123	0xbc2418c7	-0.010015673
124	0x3ca369b8	0.019947872
125	0x3bc01304	0.005861642
126	0xbbfb9616	-0.0076778037
127	0x3d662b1f	0.056193467
128	0x3cdf1c27	0.027235104
129	0x3cd6e534	0.02623234
130	0x3c3b648c	0.011437546
131	0x3d57a6e0	0.05264938
132	0x3d5c36b5	0.05376311
133	0xbc435996	-0.011923214
134	0x3cfd89ed	0.030949557
135	0x3d3f4451	0.04669601
136	0xbd7957af	-0.060874637
137	0xbc325aeb	-0.010885934
138	0xbcb4c45a	-0.022066284
139	0xbd4ba3de	-0.049716823
140	0x3c6f0abc	0.014589962
141	0x3c1dba5e	0.009626953
142	0xbbb2c57a	-0.00545567
143	0x3a2441c6	0.00062659045
144	0xbae90865	-0.0017778991
145	0xbca26c39	-0.019826995
146	0x3c146f39	0.009059721
147	0xbdd4c0e1	-0.10388351
148	0xbc903615	-0.017603913
149	0xbd48b88e	-0.04900413
150	0x3d1e7a95	0.038691122
151	0x3b414383	0.0029489703
152	0x3c871c12	0.016492877
153	0xbcd26ee2	-0.025687639
154	0xbc5726a6	-0.013131773
155	0x3cb948de	0.022617754
156	0xbd8f84e7	-0.07007771
157	0x3cd5ebee	0.026113477
158	0xbcd500e4	-0.026001401
159	0xbd295892	-0.041344233
160	0x3d91fe16	0.07128541
161	0x3d0c58c1	0.03426433
162	0xbde4ba74	-0.111683756
163	0xbd17810d	-0.036988307
164	0xbd9f1879	-0.0776834
165	0x3c9fe252	0.019517098
166	0x3c7aade5	0.015300249
167	0xbd27b13d	-0.040940512
168	0xbca6750d	-0.020319486
169	0x3cdcc623	0.026949948
170	0x3ce33d04	0.027739055
171	0x3d39c6e6	0.0453557
172	0x3d3f1056	0.04664644
173	0x3c31fbaa	0.010863224
174	0x3c508bb3	0.012728619
175	0x3d308318	0.04309377
176	0xbc15b130	-0.009136483
177	0xbc56d5a8	-0.013112463
178	0x3ce837a3	0.028346842
179	0x3a9b689c	0.0011856738
180	0x3c24c97c	0.010057803
181	0x3d39fdd7	0.045408096
182	0x3d35eda3	0.04441608
183	0xbc8fe916	-0.017567199
184	0x3c2e052c	0.01062135
185	0xbce23811	-0.027614625
186	0xbcaff36b	-0.021478375
187	0xbca42511	-0.020037206
188	0x3b824b50	0.003976263
189	0xbc64901e	-0.013950376
190	0x3cb058ed	0.021526778
191	0xbb2bc225	-0.0026208248
192	0x3d6a88ce	0.057259373
193	0x3d2302bd	0.039797533
194	0x3c84711c	0.016167216
195	0xbb2168ce	-0.002462912
196	0xbd0d6c49	-0.034527097
197	0xbd67b3f1	-0.05656809
198	0xbd2e1808	-0.042503387
199	0xbd5fb07a	-0.05461166
200	0xbc91ef5c	-0.01781433
201	0xbd009e03	-0.03140069
202	0x3ce89ad7	0.028394146
203	0x3ca2d966	0.019879054
204	0x3c3b221e	0.011421708
205	0x3d5242d4	0.051333264
206	0xbc43047c	-0.011902925
207	0x3cbf3284	0.023339517
208	0xbce2ebb9	-0.027700292
209	0x3c457d12	0.012053745
210	0xbda6e8e3	-0.08149888
211	0xbd8e5271	-0.06949318
212	0xbd8543e8	-0.06507093
213	0x3d6af017	0.057357874
214	0x3d11db5c	0.035609588
215	0xbda6c798	-0.08143538
216	0x3d044b44	0.03229834
217	0x3d18f0c2	0.03733898
218	0x3ddb2bbc	0.10701701
219	0xbe2707a6	-0.16311511
220	0x3cd875eb	0.026423415
221	0xbe016af0	-0.1263845
222	0x3c700573	0.014649737
223	0x3b513467	0.0031922103
224	0x3d0f1c20	0.03493893
225	0x3c4f7381	0.012661816
226	0x3c451674	0.012029279
227	0x3c76b3d3	0.015057522
228	0x3b7c38a7	0.0038485916
229	0x39a34c09	0.00031146433
230	0xbd29bfb1	-0.041442577
231	0xbce6a671	-0.028155537
232	0xbc8b3372	-0.016992304
233	0x3d3ea037	0.04653951
234	0xbd1ff78f	-0.03905445
235	0xbd60091b	-0.054696184
236	0xbc4a89e0	-0.0123619735
237	0x3d1f173a	0.03884051
238	0xbc41b4fa	-0.011822933
239	0x3c571a8c	0.013128888
240	0x3d4fc466	0.05072441
241	0xbd20dcc1	-0.039273027
242	0x3c9f7b3d	0.019467944
243	0xbca498ee	-0.020092454
244	0x3c62de9b	0.013847019
245	0xbcb4bb0b	-0.022061845
246	0xbbe7a885	-0.0070696496
247	0xbc323206	-0.010876184
248	0xbcb31cd2	-0.021864329
249	0xbc5dcbbe	-0.013537345
250	0xbc059fda	-0.008155787
251	0xbd46b69f	-0.048514005
252	0xbccdc67d	-0.02511906
253	0xbd43fbb2	-0.047847457
254	0x3ce96ffb	0.02849578
255	0xbb87b2e9	-0.004141201

bias f4 [32]
0	0x3c727fcf	0.01480098
1	0xbc223e94	-0.009902615
2	0xbc38651c	-0.011254575
3	0x3c478078	0.012176625
4	0xbcef21d6	-0.029190939
5	0x3ced59ee	0.028973546
6	0x3d27f418	0.04100427
7	0x3d268407	0.040653255
8	0xbd13a61f	-0.036047097
9	0xbd35b33c	-0.044360384
10	0x3cb06f95	0.021537581
11	0x3cb65fe1	0.022262516
12	0x3d55bd5a	0.052182533
13	0x3d359d47	0.044339444
14	0xbd2db402	-0.042407997
15	0xbcaa5e9a	-0.020797063
16	0xbd3c0fed	-0.045913626
17	0xbb8c9cb2	-0.0042911405
18	0xbd1ca2e1	-0.03824127
19	0xbb7543dc	-0.003742448
20	0x3cf6e9cb	0.030140778
21	0xbd0628dc	-0.03275381
22	0xbc2cafc5	-0.010539954
23	0x3ac8a765	0.0015308677
24	0xbb9e89dc	-0.0048382115
25	0xbd0cfb90	-0.034419596
26	0xbc920604	-0.017825134
27	0xbc3395b8	-0.010960989
28	0xbc9f9823	-0.019481724
29	0xbd20c9e9	-0.039255057
30	0xbbd5cf08	-0.006524924
31	0xbc87c796	-0.016574662

weight f4 [64, 2]
0	0x3f2548ed	0.645644
1	0xbf112bf2	-0.5670768
2	0xbea1229c	-0.31471717
3	0xbf034533	-0.51277465
4	0xbf145327	-0.5793938
5	0x3f0b8b10	0.5450907
6	0xbede229f	-0.4338579
7	0xbf01cb81	-0.5070115
8	0x3ed5615e	0.41675848
9	0x3f03e174	0.5151589
10	0x3f2aeefd	0.6677092
11	0x3dbd0d0a	0.09231003
12	0x3eefacc2	0.4681149
13	0xbf0b907b	-0.54517335
14	0xbebed56f	-0.37272212
15	0x3ee948ae	0.45563263
16	0x3e343931	0.17599942
17	0xbec9e5d1	-0.39433149
18	0xbeee2021	-0.46508887
19	0x3e3e415c	0.1857962
20	0xbe7ed4c4	-0.24885851
21	0xbebfc3b2	-0.3745399
22	0x3f3141cc	0.69241023
23	0x3e896ab2	0.26839215
24	0x3d7fbf1b	0.06243811
25	0x3ec648a2	0.3872729
26	0xbeadbe90	-0.3393445
27	0xbf1dd717	-0.61656326
28	0xbef3e806	-0.47637957
29	0x3e92118a	0.28529006
30	0xbe86689f	-0.26251695
31	0xbedcd856	-0.431338
32	0xbf271136	-0.65260637
33	0xbf05b928	-0.5223565
34	0xbf2d2394	-0.6763241
35	0x3d9d766f	0.07688605
36	0xbe8f55f2	-0.2799526
37	0xbd19e430	-0.037571132
38	0xbeb5cd45	-0.3550817
39	0x3f2d6b72	0.67742074
40	0xbf2ed669	-0.68295914
41	0xbe558108	-0.20850003
42	0x3a7d9bb7	0.00096743874
43	0xbee17926	-0.4403774
44	0xbe8aa359	-0.2707775
45	0x3f1ae6eb	0.605086
46	0x3e55748c	0.2084524
47	0xbe5e8cfc	-0.21733469
48	0xbf198ae5	-0.5997756
49	0x3f153852	0.5828906
50	0xbea1bd85	-0.31589904
51	0x3e1a514e	0.15070078
52	0xbeeac26e	-0.45851463
53	0x3f051ede	0.52000225
54	0x3bccbeff	0.0062483544
55	0xbe5ca378	-0.21546733
56	0xbf144a99	-0.57926327
57	0xbf2f6ae9	-0.68522507
58	0x3e77ef84	0.24212462
59	0xbe9a6f64	-0.3016311
60	0x3b8aa758	0.0042313747
61	0x3f216548	0.6304517
62	0xbe3a0ea5	-0.18169649
63	0x3f0ba01d	0.5454119
64	0xbf19f4fe	-0.60139453
65	0xbe64b4e2	-0.22334626
66	0x3f248389	0.64263207
67	0x3f04a3ae	0.51812255
68	0x3f24cd86	0.64376104
69	0xbe065e3f	-0.1312189
70	0x3eda4fff	0.42639157
71	0xbf0ee03f	-0.5581092
72	0xbe13617e	-0.14392659
73	0x3f1fffd3	0.6249973
74	0xbed24725	-0.41069904
75	0x3ea71b82	0.32638174
76	0x3f02fa34	0.5116303
77	0x3e83e815	0.25763002
78	0x3f0a87ca	0.5411345
79	0x3ef0eba7	0.47054788
80	0x3e0f7ac6	0.14011678
81	0xbe931307	-0.28725454
82	0xbc039f0d	-0.008033526
83	0xbf0eb7b3	-0.5574905
84	0x3eb70d75	0.35752454
85	0x3e319bfb	0.17344658
86	0xbf2fda99	-0.6869293
87	0xbf30a083	-0.6899492
88	0x3ea63ddd	0.32469073
89	0xbe84586f	-0.2584872
90	0xbe50d2c6	-0.20392904
91	0x3f0962d1	0.53666407
92	0xbdbd3e23	-0.09240367
93	0xbe22f27b	-0.15912811
94	0xbeac8564	-0.3369552
95	0x3e44253e	0.19154832
96	0x3ec1cf05	0.37853256
97	0x3db9616d	0.090517856
98	0x3c617e13	0.013762969
99	0xbf2a9ed7	-0.6664862
100	0x3f335f7b	0.70067567
101	0x3ec87295	0.3914992
102	0xbeccddca	-0.40012962
103	0xbd844413	-0.064582966
104	0x3df27257	0.11838215
105	0x3f083372	0.532035
106	0xbee02f9a	-0.43786317
107	0x3f276d25	0.65400916
108	0x3e13758f	0.14400314
109	0xbcfc643c	-0.030809514
110	0x3f14771b	0.5799424
111	0x3d63ea08	0.05564311
112	0xbefd7257	-0.49501297
113	0xbe05b1b7	-0.13056074
114	0x3ea2c082	0.31787497
115	0xbefdfb71	-0.49605897
116	0x3eae1cbb	0.34006295
117	0xbf0a3eb0	-0.54001904
118	0xbe083bd5	-0.13304074
119	0xbef29aa8	-0.47383618
120	0xbf0fa3fd	-0.561096
121	0xbe57fcd5	-0.21092542
122	0x3ecc15bc	0.39860332
123	0x3e7a3599	0.24434508
124	0x3f0aa802	0.5416261
125	0x3f14d4e8	0.5813737
126	0x3f32c727	0.6983513
127	0xbec620bf	-0.38696858

bias f4 [64]
0	0xbeba5639	-0.36393908
1	0xbf157480	-0.5838089
2	0xbf2c926c	-0.6741092
3	0x3eff9c00	0.49923706
4	0x3f3571de	0.7087687
5	0xbef0aa25	-0.4700481
6	0xbea03409	-0.312897
7	0x3ec6831c	0.38771904
8	0x3e87b9b4	0.26508868
9	0x3f408c05	0.7521365
10	0xbf31264f	-0.6919908
11	0x3f1fa862	0.62366307
12	0xbd885942	-0.066576496
13	0xbea869d9	-0.32893255
14	0xbea7699e	-0.32697767
15	0x3e1272fc	0.14301676
16	0x3f03701c	0.5134294
17	0x3d303c57	0.043026295
18	0x3f2116e4	0.62925553
19	0x3eb033d7	0.3441455
20	0x3cf23e3a	0.029570688
21	0x3e0f5548	0.13997376
22	0x3ee8309c	0.45349586
23	0x3d891d50	0.06695044
24	0x3eef708f	0.46765563
25	0x3f45d0c8	0.772717
26	0xbe6f902d	-0.23394842
27	0x3ebd3039	0.36950853
28	0x3f102aaf	0.5631513
29	0x3f452b78	0.77019453
30	0x3d877915	0.066148914
31	0xbefcbe2e	-0.49363846
32	0x3f158637	0.5840792
33	0x3f244fc7	0.6418423
34	0xbf1c0cb9	-0.60956913
35	0xbdfff68a	-0.124981955
36	0xbe206354	-0.1566289
37	0x3f101808	0.5628667
38	0xbe0e6ab0	-0.13907886
39	0xbf1c2521	-0.60994154
40	0x3eb72a90	0.3577466
41	0xbea205e9	-0.31645134
42	0x3ead5551	0.33854154
43	0x3e83e2b3	0.25758895
44	0x3f211286	0.6291889
45	0x3e8acc2d	0.271089
46	0xbee511a7	-0.4474003
47	0xbf121cac	-0.57075
48	0xbdc6db3a	-0.09709783
49	0xbd338690	-0.0438295
50	0xbe50462a	-0.20339265
51	0x3f1c93c4	0.6116297
52	0x3e26f175	0.16303046
53	0xbe8c5f7a	-0.27416593
54	0x3e389332	0.180249
55	0xbf154efe	-0.5832366
56	0x3f14715e	0.57985485
57	0xbeba8621	-0.36430457
58	0xbf094a91	-0.53629404
59	0xbe3d7133	-0.18500213
60	0x3cd5f3f3	0.0261173
61	0xbecd426b	-0.40089735
62	0xbdc5144d	-0.09623013
63	0xbdb810ab	-0.08987554
