models/reverb_full.pt (torch, 143755 bytes, 24 tensors)

weight f4 [32, 1, 9]
000000 bf 3d 35 3e 9e b9 75 3c 4d 4c d4 be 4c 81 ab 3e
       0.17699336 0.014997868 -0.41464463 0.33497083
000010 a3 97 85 be be 06 c6 be c0 11 e9 bd e9 b2 9a 3e
       -0.26092252 -0.3867702 -0.11380339 0.30214623
000020 2b e3 3a bf c5 c3 5c 3e 52 0a 0a 3f 98 e3 8c 3e
       -0.7300288 0.21559055 0.53922 0.2751739
000030 91 bf 03 3f 06 c9 8b be 9a 98 bb 3c 97 f9 ad bd
       0.5146418 -0.27301806 0.022899915 -0.08494871
000040 92 cd 1d be 0a 2e 29 be 1a 82 d2 bd 8a 04 4d bd
       -0.1541045 -0.16521469 -0.10278721 -0.050053157
000050 a1 9c 98 3d 02 25 44 be 7b 79 30 3e e1 f7 d9 bd
       0.074517496 -0.19154742 0.17233841 -0.10642982
000060 4c 53 a6 3b 83 ce 17 3e 64 55 aa 3e 5f 35 c4 3e
       0.0050758477 0.14824872 0.33268273 0.3832197
000070 85 f7 f5 3e d3 11 fa 3e 58 48 33 3f 33 94 1e 3f
       0.48040405 0.48841724 0.7003226 0.61944884
000080 b0 02 e1 3e a2 7d d9 3e 9e 93 60 3e 42 76 90 3e
       0.43947363 0.42478663 0.21931311 0.28215224
000090 6f 61 ef 3c c0 01 e5 bd b3 74 ad 3d 27 72 08 3d
       0.029221265 -0.111819744 0.08469524 0.03331199
0000a0 00 24 53 3d bf bc bd 3e a5 99 27 3e 57 6e 29 3e
       0.051548004 0.37058064 0.16367204 0.16545998
0000b0 6f 74 7b be 56 3e 04 bf c0 15 e1 be 13 49 10 bf
       -0.24556135 -0.5165762 -0.43961906 -0.563615
0000c0 57 6b 36 bf 63 0c 32 bf 3e f7 52 be 1c 8b 6b be
       -0.7125754 -0.6955015 -0.20602128 -0.23002285
0000d0 77 7d 97 3c 08 43 69 bd a7 2a 89 bc 7a 97 19 3d
       0.018492443 -0.05694869 -0.016743971 0.037497975
0000e0 aa c8 00 3e e5 29 3d 3f bf bb 27 be f9 7b 94 be
       0.12576547 0.7389205 -0.16380213 -0.29000834
0000f0 e5 d5 ad 3d ca 27 4e 3e 95 99 d4 be 62 47 2c 3e
       0.08488063 0.20132366 -0.41523424 0.16824105
000100 02 1d 14 be d4 44 bb 3e 09 5b fd 3e 82 3e 1d 3e
       -0.1446419 0.3657595 0.49483517 0.15355876
000110 29 70 c6 3e ce 52 81 be 35 6a 0c 3c 4c 7f da be
       0.38757446 -0.25258487 0.008570244 -0.42675245
000120 4a b3 74 3e 72 f8 f1 3d 8c a0 97 3e 7b 38 64 3e
       0.23896518 0.11814965 0.29614675 0.2228717
000130 96 23 77 3e 1a 74 8e 3e fe 59 d6 3e 68 56 ff 3d
       0.24134669 0.27822953 0.41865534 0.124676526
000140 3c 67 18 3f 6a 70 1b bf ab 2b a3 be 2f 02 cb be
       0.59532523 -0.60718405 -0.31869254 -0.39650103
000150 0c 7d 5c bf 0e b8 d3 be 5d 66 f6 be e2 79 15 3f
       -0.86128306 -0.4135136 -0.48124972 0.58389103
000160 50 78 98 be d5 92 d5 3e 8e e5 9d 3e 76 49 5b 3e
       -0.2977929 0.41713586 0.308392 0.21414742
000170 f2 9a 37 3f 8b 6c 1e 3f 76 b0 12 3d ce a9 82 3e
       0.717208 0.61884373 0.035812818 0.25520176
000180 7b 95 93 3e 57 6f 2b be 6c c8 e8 bd 27 66 8a 3d
       0.28824982 -0.16741692 -0.113663524 0.06757765
000190 51 4f 82 be 53 68 f7 3d 66 a6 81 be 88 04 ba 3d
       -0.2545114 0.12080445 -0.25322264 0.090828955
0001a0 44 5d c1 bd e4 7f 19 be 34 3b a8 3e 57 a0 92 3e
       -0.09441617 -0.14990193 0.32857668 0.28637955
0001b0 94 bc 26 be 26 7c 4a bd 8c 49 f1 be bd 26 45 3e
       -0.16282874 -0.049434803 -0.47126424 0.19253059
0001c0 2d 79 2a bf 81 5c 17 bf 01 ea e0 3e b0 ca 95 be
       -0.6659115 -0.59125525 0.4392853 -0.292562
0001d0 07 65 63 3e 29 e8 27 be 89 92 00 be ac d1 86 3e
       0.22206508 -0.16397156 -0.12555899 0.26331842
0001e0 bf e6 3b be b4 aa 6c 3e 9c b7 e8 be f4 2c f0 3e
       -0.18349741 0.23111993 -0.45452583 0.46909297
0001f0 44 ac 1a be b0 76 4c 3e c4 d2 7e be ea c7 ef 3e
       -0.15104777 0.1996715 -0.24885088 0.4683221
000200 1f c2 45 be ed c4 3c 3e 5c 43 86 39 d4 71 3e 3d
       -0.19312333 0.18434496 0.00025608658 0.046495274
000210 0d 12 3c be d5 f7 bf 3e af 75 08 be 95 61 dd be
       -0.18366261 0.37493768 -0.13326143 -0.43238512
000220 eb 88 a2 3e 71 ad 82 3e 0d a4 95 be 2e 37 8d 3e
       0.31745085 0.2552295 -0.29226723 0.2758116
000230 a5 b2 24 3e 32 a1 70 bd ca ee 1b bd 67 b6 94 be
       0.16083772 -0.058747478 -0.038069524 -0.29045412
000240 f1 f8 60 3d 1c 69 f7 3e ef 7d fb 3e bf 79 75 bd
       0.05492491 0.4832238 0.49119517 -0.05993056
000250 db c3 ff 3e 43 e8 20 3f a5 f0 c8 3e 2b ac 9f be
       0.49954113 0.62854403 0.39246097 -0.3118604
000260 02 28 70 3f 4c 65 d3 3e 01 d1 96 be 72 2e 42 be
       0.9381105 0.4128822 -0.29456332 -0.1896303
000270 5f ce 6c 3c d3 2b 74 3c 0e 6c 04 3d d9 5b 52 3f
       0.0144535 0.014903027 0.03232961 0.821714
000280 3a 7d 59 3e 0f 4f 10 3e f0 00 1f bf b9 f1 b1 bd
       0.21239176 0.14092658 -0.62110806 -0.08688683
000290 17 a0 99 bd 61 72 2b 3e 15 11 16 3f b0 6e d1 3e
       -0.07501238 0.16742851 0.58619815 0.4090476
0002a0 4f 6e 91 3f d2 e7 ac be f0 03 72 3e 16 e3 2e 3d
       1.1361789 -0.33770615 0.23634315 0.042697035
0002b0 67 f0 41 be 5c 44 56 3e 3e d4 8e bd 79 7a 57 3e
       -0.18939362 0.20924515 -0.06974076 0.21042813
0002c0 f7 de 8a be ab c2 90 be 3d d2 86 be d8 72 09 be
       -0.27123234 -0.2827352 -0.26332274 -0.13422716
0002d0 7c b8 d3 3e 7f c3 7a 3e 71 5e eb 3d 61 50 b8 3e
       0.41351688 0.24488638 0.11492623 0.35998824
0002e0 a9 77 10 bd 6c 60 07 3f dc 67 48 be 26 d8 40 be
       -0.035270367 0.52881503 -0.19570869 -0.18832454
0002f0 93 c5 1b be a6 95 83 be 59 68 eb be b6 f1 01 3e
       -0.15212087 -0.2570011 -0.45978048 0.12689862
000300 4e d8 28 3e 31 5a 55 be 72 5b 5d be ab a5 05 3e
       0.16488764 -0.20835187 -0.21616915 0.13051479
000310 7b 08 8b 3e 8a 63 d5 3e ac fc be 3e 96 d5 51 3f
       0.27154908 0.41677505 0.37302148 0.8196653
000320 36 c7 fe 3e ad 00 53 3f 6e 38 32 3f 04 24 e3 3e
       0.4976136 0.82422906 0.69617355 0.44363415
000330 26 7a ce 3d e6 71 04 3e fd 96 5d bc 12 21 e9 be
       0.10081892 0.12934074 -0.013524768 -0.45533043
000340 49 57 ea 3d a7 28 c1 3e 4e 50 94 bd a3 f3 d6 3c
       0.114424296 0.37726328 -0.072418794 0.026239222
000350 fa d8 49 be 0c c2 0e be d1 53 97 be 7b 00 c2 3e
       -0.19711676 -0.1394121 -0.29556134 0.37890992
000360 9c f8 e0 3c 38 5c ed 3d 9d 3e d4 3e e2 e1 f9 3e
       0.027462296 0.11589855 0.4145402 0.48805147
000370 05 e9 11 3f a8 34 c1 3d ab c0 f5 3e 9a 70 61 be
       0.56996185 0.094338715 0.47998556 -0.2201561
000380 b3 99 aa 3a 1d c3 fa be e4 c5 16 bf 31 48 d4 bd
       0.0013015777 -0.48976985 -0.5889571 -0.10365332
000390 57 55 5d bf fd 88 28 bf ce be a4 bd 8f ca c6 3e
       -0.86458343 -0.6583403 -0.080442056 0.38826415
0003a0 7f d1 0a be 6c 71 b5 3e 03 aa 6b 3d 1b 4d cc be
       -0.13556479 0.35438097 0.057535183 -0.39902577
0003b0 ce 85 09 bf 7b 2c 50 bf 49 9f 82 be 25 b7 d5 bc
       -0.53719795 -0.8131787 -0.2551215 -0.026088307
0003c0 1a d2 ca 3e 5b 06 80 be ff ef 28 be 67 01 c3 be
       0.3961342 -0.2500485 -0.16497801 -0.38087007
0003d0 cd 87 d6 3e ae 6b d2 bd 73 b3 d4 3d fa 83 94 be
       0.41900483 -0.102744445 0.1038579 -0.2900694
0003e0 b5 62 08 3c cb 88 30 3c 77 61 f4 3d 40 1c 52 be
       0.008324315 0.0107748015 0.119326524 -0.20518589
0003f0 d6 97 a3 be 46 34 81 bf 7e 9b 8a be 12 8a 3c bf
       -0.3195178 -1.0094078 -0.27071756 -0.7364818

bias f4 [32]
000000 eb d5 3a 3d a8 66 23 3d a3 fc 63 be 62 93 a6 bd
       0.045614164 0.039892823 -0.22264342 -0.0813358
000010 d9 b9 ce bd 34 72 c3 3e 74 5f cf bd fc fa e1 bd
       -0.100940414 0.38173068 -0.10125628 -0.110341996
000020 f9 ad 90 bc 9c ad 8b be 2f d1 0b 3e 75 3a 3c 3e
       -0.017661082 -0.2728089 0.13654016 0.18381675
000030 8d 36 ad 3e 87 22 99 bd 3d c9 a4 3d e2 52 5c be
       0.3383068 -0.07477289 0.08046196 -0.21515992
000040 c9 b9 93 3e c9 bb 59 3e c0 56 68 3e ce 72 86 be
       0.2885268 0.2126304 0.22689342 -0.26259464
000050 e7 6d a6 be 89 65 45 3e 4c df 4e be ab 94 3e be
       -0.32505724 0.19277014 -0.20202368 -0.186114
000060 19 0f a7 bd 66 84 52 3e 57 47 0f 3e dd 16 28 bd
       -0.081571765 0.20558318 0.13992058 -0.04103743
000070 37 0f 43 be c7 25 51 3e b2 67 bb be e8 50 02 be
       -0.19048773 0.20424567 -0.3660255 -0.12726176

weight f4 [64, 2]
000000 8c 3a c8 be 5b 44 06 bf 2d fe 7e be 46 50 94 be
       -0.39107168 -0.5244805 -0.24901648 -0.28967494
000010 47 d2 fa be 79 d9 23 bf 8a d1 c3 be 96 22 eb bc
       -0.48988554 -0.6400371 -0.38245803 -0.028703015
000020 ed 6e dd be 43 c5 67 be b0 d8 06 be 7c 7a a4 3e
       -0.43248692 -0.22633843 -0.13168597 0.32124698
000030 0e 15 cb 3d bb f3 f6 3e ea 28 26 3f dd b1 01 3f
       0.09916125 0.48232827 0.6490618 0.5066202
000040 e3 6f 09 3e ea bc 21 3f 39 4d c1 be 80 69 44 be
       0.13421588 0.63178885 -0.3775423 -0.1918087
000050 13 98 a8 3d 55 2c cf be e0 ec 1d be dd 6e da 3e
       0.08232131 -0.4046351 -0.15422392 0.42662707
000060 6b 91 1c bf d9 7a 1b 3f 0a a6 63 3e f1 49 31 3f
       -0.6115939 0.60734326 0.22231308 0.6925345
000070 88 d2 fe 3d d0 93 07 3f e8 7b 1c bf f4 53 49 3d
       0.124424994 0.5295992 -0.61126566 0.04915233
000080 fc 0d 87 bd 8c a3 03 bf 0f c1 e6 3e 13 f5 25 3e
       -0.06594464 -0.5142143 0.45069167 0.1620677
000090 a7 e5 d3 3e a6 7d ed be 66 60 80 be d8 49 3a be
       0.41386148 -0.46384925 -0.25073546 -0.18192232
0000a0 6c cd fb 3e de c3 02 3f 12 1f 7c be df d4 b7 bd
       0.49180162 0.5108012 -0.24621227 -0.08976149
0000b0 ab 8f f1 3d 2d 70 15 3f ff 23 46 be 72 25 65 be
       0.117949806 0.5837429 -0.19349669 -0.22377566
0000c0 b6 7c cb 3e 75 82 0e bf cf 93 6b 3e 0a f8 f8 be
       0.39743584 -0.5566781 0.23005603 -0.4862674
0000d0 7f e0 a2 be 63 eb 27 3e a9 6d 86 3e bb 53 eb bd
       -0.31811902 0.16398387 0.2625554 -0.1149058
0000e0 ca b9 1c 3f 16 db 58 be 14 33 e9 3d e4 ba 4b 3e
       0.6122099 -0.21177325 0.113866955 0.19895512
0000f0 f9 6f 92 bb 80 be 4e bd bf d7 fc 3e 7c 90 bb 3d
       -0.0044689146 -0.050474644 0.4938335 0.091584176
000100 e5 89 ff 3d 2a 6e ff 3e 27 12 ee 3e 79 b0 c5 bd
       0.12477473 0.49888736 0.46498224 -0.096528
000110 4a e8 b0 be 45 86 a7 3e a5 4d 0d bf 1b 22 9e 3e
       -0.34552222 0.32719627 -0.551966 0.30885395
000120 52 a5 15 be ec 93 84 be b0 21 f2 3b 79 b0 34 be
       -0.14613846 -0.25894105 0.00738927 -0.17645444
000130 90 a5 cc 3e 68 00 2f bf 66 f6 22 bf 4f 8b b3 3d
       0.39970064 -0.68359995 -0.63657224 0.087668054
000140 e1 01 20 3f 1b 2b ba 3e 5a 20 f2 be f1 8b f2 3e
       0.62502867 0.36361012 -0.47290307 0.47372392
000150 4c eb 0e 3d 23 1c 92 bd 83 a2 d5 bd 67 b2 2a bf
       0.034892365 -0.07134273 -0.10431387 -0.6667847
000160 28 e1 af 3e e0 f2 de 3e 12 e9 21 bf 2d 8c dc 3d
       0.34351468 0.43544674 -0.6324626 0.10768924
000170 e9 00 24 bf dc 34 8a be fc ba b1 be d0 37 0a bf
       -0.6406389 -0.26993454 -0.3471297 -0.53991413
000180 63 bf 1d bf 16 d3 9b be 73 17 34 3e e5 d8 cc be
       -0.6162016 -0.30434483 0.1758707 -0.40009227
000190 d2 3a d7 3c ed b5 8b 3e 50 98 00 3f fd 54 82 be
       0.026273165 0.27287236 0.5023241 -0.25455466
0001a0 bc a7 0d bf 0a f4 0e 3f 1e a9 ad be 9c ed f2 be
       -0.5533407 0.55841124 -0.3391809 -0.47446907
0001b0 f2 55 5d 3e 60 63 06 3f e9 16 a3 3e f6 fe b8 3d
       0.21614817 0.52495384 0.31853417 0.09033005
0001c0 17 08 e5 be 5b b7 cb be 8c a2 2c bf 6b dc 20 bf
       -0.44732735 -0.39788327 -0.67435527 -0.6283633
0001d0 52 26 1d bf 33 a7 d6 3e 4e fe fa bd 8e 5b 0d bf
       -0.613866 0.41924438 -0.12255536 -0.55217826
0001e0 28 6d 87 be 60 01 8e 3d 1d 08 03 bf 57 a3 20 3f
       -0.26450467 0.06933856 -0.51184255 0.62749237
0001f0 db 9c ff bd 3e 19 0e 3f 97 55 2c bf 9b 7b 88 bd
       -0.1248109 0.55507267 -0.673181 -0.06664201

bias f4 [64]
000000 62 64 78 bf 20 e4 21 be f1 b6 84 3e e3 32 59 bf
       -0.9702817 -0.15809679 0.25920823 -0.8484327
000010 32 7c 87 be 8e 49 11 3f 94 74 33 3f 5f 1a bd be
       -0.2646194 0.5675286 0.7009976 -0.36934182
000020 05 0d 41 3f ff b4 9c be 81 bd 56 bf f8 72 2c 3f
       0.7541049 -0.3060684 -0.8388291 0.6736293
000030 6f 80 2e 3f 09 e0 40 3e 66 20 a2 3e 85 e3 02 bf
       0.68164724 0.18835463 0.31665343 -0.5112842
000040 df fd 70 bf 6c a5 86 bf 86 fc 72 bf 45 ef f3 3e
       -0.94137377 -1.0519233 -0.9491657 0.47643486
000050 30 84 46 3f 48 5e 89 3e 2f 18 0c bf 8c 88 ed be
       0.7754545 0.26829743 -0.547244 -0.4639324
000060 0b d0 4d bf f5 8a 06 bf 82 f2 25 3f 3b 0c 95 be
       -0.80395573 -0.5255578 0.6482316 -0.29110894
000070 2c 88 40 3f 96 19 6c bf 13 34 26 be 3a d9 fe be
       0.7520778 -0.9222654 -0.16230802 -0.49775106
000080 06 a5 6a be 19 81 67 be 32 5d 22 3f 45 53 1e 3f
       -0.22914514 -0.2260784 0.63423455 0.6184581
000090 b3 96 5b bd 0a 75 d3 3d 60 4b 90 3e 93 6a 52 3e
       -0.053610515 0.10325058 0.28182507 0.20548467
0000a0 03 32 ac be d5 45 97 be d8 db d8 be 31 1d be 3e
       -0.33631906 -0.29545465 -0.42355227 0.37131646
0000b0 32 fc 48 3d 43 59 12 3f 70 86 61 be ec be e9 3d
       0.049068637 0.5716745 -0.2202394 0.114133686
0000c0 80 6e f5 be 64 27 fc bd 87 3a 62 be 72 a3 4f 3e
       -0.47935867 -0.12312201 -0.22092639 0.20277193
0000d0 12 2d 1e 3f ee 24 5b 3e ed 4e c1 3e 4c 75 b3 3e
       0.6178752 0.21400806 0.37755528 0.35050428
0000e0 18 81 9c 3e 2b 6c 30 3f 6a f7 d6 be 56 c9 1e 3f
       0.3056724 0.6891505 -0.41985637 0.62025964
0000f0 0c 98 eb be 68 95 15 bd 45 2e f7 3d 1a 06 f6 3e
       -0.4601444 -0.036519438 0.12069372 0.4805153

weight f4 [32, 1, 1]
000000 04 9b 63 3f b7 93 50 3f 51 6f 41 3f b6 d1 64 bf
       0.8890841 0.81475395 0.7556048 -0.89382493
000010 ed ca 1a bf cc 58 5f bf b4 1a 23 bf fb cc 6e 3f
       -0.6046589 -0.8724487 -0.6371262 0.93281525
000020 ea 4e e1 3e 97 e7 e8 be 07 3d d5 3e f6 c6 d6 3e
       0.4400552 -0.4548919 0.41648123 0.4194867
000030 21 14 d3 be 95 74 7f 3f 7a 63 5d bf 3f c6 79 3e
       -0.41226295 0.99787265 -0.86479914 0.24392031
000040 d5 0e 6c bf b1 43 10 bf ca 89 b5 be cd af 61 3f
       -0.9221013 -0.5635329 -0.35456687 0.88158876
000050 08 21 12 bf 75 75 4d 3e 56 11 22 3f 5a dd 1a 3f
       -0.5708165 0.20064338 0.633077 0.60494006
000060 ae 6c 0d bc 9b c0 c1 be ec c0 50 3e 51 cf 4a 3f
       -0.008631868 -0.3784226 0.20386094 0.7922259
000070 e7 34 91 3e 49 6a 0f 3e cc cd 64 3e 89 a0 6d be
       0.28360674 0.14005388 0.2234413 -0.2320577

weight f4 [32, 32, 9]
000000 4e 85 d9 bd 1d 33 83 bd e0 d6 27 bd 82 53 1c bd
       -0.10621129 -0.064062335 -0.040976405 -0.038165577
000010 23 47 33 bd 1f 6b cd bc dc 2c 8e 3c e3 e4 03 3c
       -0.043769013 -0.025075493 0.017355375 0.008050176
000020 f1 4b c6 bd d5 a1 29 bd f9 4c 21 3d c9 d5 8d bc
       -0.096824534 -0.0414141 0.039380047 -0.017313855
000030 d3 b0 99 3c f8 ce 1a bd dc 17 0b bd 22 47 04 bd
       0.018761074 -0.037795037 -0.0339583 -0.0322944
000040 09 00 fe bc 79 3f 86 bd bb cb 45 bc b8 e1 0e 3d
       -0.031005876 -0.06555075 -0.012072499 0.03488323
000050 0c 0d 52 bd 8f db 6f bc dd d8 22 bd 5d 70 f4 bc
       -0.051281974 -0.014639749 -0.0397576 -0.029838735
000060 ce 11 2e 3c c9 0e b6 bc b3 9b 24 bd ac 78 88 3c
       0.010624362 -0.022223847 -0.04018755 0.016659103
000070 01 8f 50 3b f7 3a e2 bc eb 2c 23 bc 94 c8 22 bd
       0.0031823518 -0.027616007 -0.00995944 -0.039742067
000080 c7 6c 9e bd c4 f7 44 bd 0c 02 48 bd af 0e 25 bd
       -0.077355914 -0.04808785 -0.048830077 -0.040297206
000090 ae e3 c9 3d 40 4f 15 3d 27 ff 9e 3c 7b 88 14 3d
       0.098578796 0.03645253 0.019408775 0.03626297
0000a0 7b 72 cf bc 0a 8c 10 bd f1 f7 99 bc 27 24 98 bd
       -0.025323143 -0.0352898 -0.018794985 -0.074287705
0000b0 44 08 35 3d f7 8a 5f 3d fe d0 b1 bb c7 96 04 bc
       0.044197336 0.054575887 -0.005426525 -0.008092589
0000c0 b0 50 2c 3e 20 5d 25 bd 37 aa 60 bc 87 81 7d bd
       0.16827655 -0.040372014 -0.013712457 -0.061891105
0000d0 94 17 61 bb 9c 66 1a bc 2a 5f 8e 3d 4d 59 17 3d
       -0.003434633 -0.009423878 0.06951745 0.0369504
0000e0 62 7f 04 bc 72 e8 3c bd 6f 68 af bd 67 c8 87 3d
       -0.008087011 -0.046120115 -0.08564841 0.066300206
0000f0 68 ee bf bc 88 f7 23 3d da 7e 42 3d ff 4f 3b 3d
       -0.02342911 0.040030986 0.047484256 0.045730587
000100 f6 9d bc 3b bd 9a d3 3c 86 60 e2 3c b0 0f 42 3d
       0.005756135 0.02583062 0.027633917 0.047378242
000110 3e 84 38 3d 15 45 04 3c 4d 19 86 b9 a8 b8 ef bb
       0.04504799 0.008073111 -0.00025577322 -0.007315714
000120 50 34 a0 bd 78 c0 b0 bc 5c f1 67 3c 90 8c c8 bd
       -0.07822478 -0.021576151 0.014156666 -0.09792435
000130 14 91 f8 bc 17 a2 2a 3c 92 9b 60 3d b3 01 a2 3d
       -0.030342616 0.010414622 0.054835863 0.0791048
000140 6b cb 22 bd 5d 9a 0e bd a0 97 51 bd d1 82 4a bd
       -0.039744776 -0.03481518 -0.05116999 -0.049441162
000150 63 62 bb bc f6 d6 e1 bc 64 f1 a8 3d 4e b3 fa bb
       -0.022874063 -0.027568322 0.082491666 -0.0076507693
000160 3c c5 42 bd 2b 7a b6 3d 1e 95 16 3d 88 fc 80 3d
       -0.04755138 0.089100204 0.036763303 0.062981665
000170 58 85 35 3d c5 77 93 3d 67 31 e8 3b 42 a8 ac bc
       0.04431662 0.072005786 0.0070859673 -0.021076325
000180 6f 49 e9 3b 54 d1 ed bc ac 5a 21 bc 51 82 df 3c
       0.0071193497 -0.02903048 -0.009848278 0.02728382
000190 1e 98 96 bc d1 d1 3c 3d a2 0f f2 3c a8 94 e2 3c
       -0.018383082 0.046098534 0.02954847 0.027658775
0001a0 ec fe c1 3c 3b 20 4d 3d 7f c0 4d 3d 44 45 be 3a
       0.023681127 0.050079565 0.050232407 0.0014516492
0001b0 f1 d3 8e 3c 37 2d 4a 3d 7f bd 6e bc a3 ca 1e 3d
       0.017435046 0.049359526 -0.014571547 0.03876747
0001c0 f0 5a db 3c 4e 1d 0b 3d 0f 0d ff 3c 39 d6 8f 3d
       0.02677676 0.033963494 0.031134157 0.070232816
0001d0 39 79 45 bc 5b b3 ad 3a 76 dd 08 3d 48 3f 5a bd
       -0.0120528275 0.0013252305 0.033414327 -0.053283006
0001e0 f3 af 78 bc 7a 67 6f 3d 1b 88 c0 bc af 3b 4b 3d
       -0.015178668 0.058448292 -0.0235024 0.049617466
0001f0 5b ce 2b 3b d6 63 8d 3c b8 5b c8 3d 76 5a d1 bb
       0.0026215527 0.01725952 0.09783119 -0.0063889576
000200 e1 c9 b9 3b 3f de e5 bb de b0 18 bd 2c 21 98 bc
       0.005669818 -0.007015019 -0.03727805 -0.018570505
000210 a2 c1 71 bd a2 c4 97 bd 71 9e d0 3d 57 92 53 bd
       -0.059022553 -0.074105516 0.1018647 -0.051653232
000220 2b 0f 6d 3c 40 74 c1 bc 46 85 fb 3b c8 ef ed 3c
       0.014468948 -0.023615003 0.0076757995 0.029045
000230 a9 bc f8 bc fa 46 02 3d ec 46 5b bc 95 17 1f 3d
       -0.030363398 0.03180597 -0.013383608 0.03884085
000240 27 5c cf 3c b6 a0 b8 3c 0b 5a 2d 3d 0d 0d 87 3c
       0.025312496 0.02253757 0.0423222 0.016485715
000250 12 e3 42 3d 9f df 6d bc ca 63 83 bd a0 86 5f bd
       0.047579832 -0.014518647 -0.06415518 -0.054571748
000260 c5 2b 3a 3d 0d 1d 64 3d 7a 2d 0f bd a1 53 5e bc
       0.045451898 0.055691767 -0.03495548 -0.013569743
000270 71 a1 b6 3d 33 4e 65 ba 2f 6b 80 bd 01 b4 65 3c
       0.08917511 -0.00087473093 -0.06270444 0.014019967
000280 11 4e a5 bd d0 cd b9 3d 11 4e 83 3d 7d 1a 15 bd
       -0.080715306 0.09072459 0.06411374 -0.036402214
000290 c6 f6 9d 3c b6 f4 10 3c c4 60 c2 3b 9a fe 1e 3c
       0.01928271 0.008847406 0.0059319455 0.009704256
0002a0 bd 0d a8 bc f5 f2 19 bc f7 ea 87 3c 14 1a 3c bc
       -0.020514363 -0.009396304 0.016591532 -0.011480827
0002b0 18 b7 0c 3b 29 a6 00 3d 2e 60 8b b9 e5 2f 7f bd
       0.0021471437 0.031408463 -0.00026583805 -0.062301535
0002c0 ca b3 c3 bd 95 78 d9 bc 4f 92 67 bd 03 46 db 3c
       -0.095557764 -0.026546756 -0.056536015 0.026766783
0002d0 39 4b f1 3c 0c b4 28 bd 95 2e 6d 3d d4 dd 9e bc
       0.029454814 -0.04118733 0.057905752 -0.019392885
0002e0 e3 e1 41 3d 93 c9 bf bc 35 e0 52 3d e4 65 bf bb
       0.047334563 -0.023411548 0.05148335 -0.0058410037
0002f0 5d 9f c2 bb de 2d f1 3b 3a c0 cf 3a f2 4a 29 bd
       -0.0059394077 0.007360204 0.0015850135 -0.04133124
000300 2f db 73 3d 58 2f 53 3d 45 d1 4c bd 9c d8 5f 3d
       0.0595352 0.051558822 -0.050004262 0.054649934
000310 9f 5c 3d 3d 23 20 29 3d 69 98 fe bc a3 2e fa 3c
       0.04623091 0.041290414 -0.031078534 0.030539816
000320 40 73 74 bb 98 65 41 3d 02 cb 80 bc 54 c4 27 3c
       -0.003730014 0.047216028 -0.015721802 0.010239679
000330 dc 24 35 bd eb 83 e1 3c d4 3b 1b bd 78 f3 0c 3d
       -0.044224605 0.027528724 -0.037898853 0.034411877
000340 ee 52 50 3b a0 73 4f bc 04 30 88 bc 1a 73 57 bd
       0.0031787711 -0.0126618445 -0.016624458 -0.052600004
000350 f5 0a b3 3c 91 fc 41 bb fc 26 d3 bc 70 73 4f bd
       0.02185581 -0.0029600004 -0.025775425 -0.0506472
000360 08 cd ac bc c3 62 1b bc 82 4f 4a 3d a5 ac 38 3d
       -0.02109386 -0.009483996 0.04939223 0.04508652
000370 3b ab 39 bd c7 a4 97 bc 70 28 ad bc f0 b1 73 bd
       -0.045329314 -0.01851119 -0.021137446 -0.059495866
000380 31 87 12 bd 7e 67 2f 3d 28 36 15 3d dd 94 5f bd
       -0.03577346 0.042823307 0.0364286 -0.054585326
000390 2d 20 5e bd 27 f6 4d 3d 00 e1 77 3d 21 b5 48 bd
       -0.054229904 0.050283577 0.06051731 -0.049000863
0003a0 2f 0a 73 bd a9 99 bb bc 24 8a 03 bd 43 36 12 3d
       -0.059335884 -0.02290042 -0.032114163 0.03569628
0003b0 16 b7 91 3d 40 94 7c 3d 3c 48 7a ba 40 25 61 3c
       0.07114999 0.06166482 -0.0009547507 0.013741791
0003c0 d1 f7 84 3c 3d 96 63 3b 07 11 04 bd e1 dc 0d bc
       0.01623145 0.0034727 -0.0322428 -0.008658619
0003d0 8f 68 3b 3b b7 3a 1b bd 2d 92 ef 3c f6 9a ed bb
       0.0028596257 -0.03789779 0.029244507 -0.007251139
0003e0 86 a3 f9 3b 3b da 01 3d 89 ac 42 3d 51 8d 8f bc
       0.0076183705 0.03170226 0.047527824 -0.01752344
0003f0 98 63 da 3c c7 7b 42 3d 65 37 3f ba c0 33 8c 3d
       0.026658818 0.047481325 -0.0007294326 0.06845808

bias f4 [32]
000000 ca ce 1d bc 29 49 6b bd 34 56 04 3d 64 3a 99 bb
       -0.009631822 -0.057442818 0.032308772 -0.00467615
000010 5b 8d f0 3c d0 d3 87 bc 9b f8 51 3d af 93 03 bc
       0.029364279 -0.016580492 0.05126248 -0.008030816
000020 56 de 8b 3b 8e 56 42 bd c7 ef 0b bd 6d cc 01 bc
       0.004268448 -0.047445826 -0.034164216 -0.007922274
000030 88 e9 ab 3c f3 06 7b 3c 64 e7 52 bc 42 0f 90 bc
       0.02098538 0.015321481 -0.012872551 -0.0175854
000040 28 f0 a7 bc ec ab 0c bd 15 be 4f bd 7d c4 13 bd
       -0.020500258 -0.034343645 -0.050718386 -0.036076058
000050 43 6a 37 3d a5 0b 88 bd 0b ca 99 3c 89 06 e4 bc
       0.044779073 -0.06642846 0.0187731 -0.027835147
000060 d6 56 0d bc 74 3d fe 3c 99 f0 18 bc 3f cb ba 3c
       -0.00862666 0.031035163 -0.009334707 0.022801993
000070 5c 6c 70 3d 3e ec 9c bd 31 02 a4 bc 32 20 ff 3b
       0.05869709 -0.07662247 -0.020020576 0.0077858204

weight f4 [64, 2]
000000 e7 a7 98 be 09 c0 b3 3c b4 cf 22 3d 24 26 28 3e
       -0.298156 0.021942155 0.039748862 0.164208
000010 ff 84 cd 3e 90 fb 32 bf 5e d9 d7 be 19 52 15 bf
       0.4014053 -0.69915104 -0.42158026 -0.58328396
000020 5b 0a d8 3d 06 4b c9 bd 36 90 cd bd 55 94 1e bf
       0.1054885 -0.09828763 -0.10037272 -0.61945087
000030 62 77 32 3e 54 20 a4 3d b7 fe 97 bd f8 34 28 3f
       0.17428353 0.080139786 -0.0742163 0.65705824
000040 ce 25 1c be d6 a5 9e be 91 ac 87 3e b8 2c 9b be
       -0.15248796 -0.30985898 0.26498845 -0.30307555
000050 23 57 a5 be db dd ca 3e 8b 2c 90 be 1c 8f 85 be
       -0.32293043 0.39622387 -0.28158984 -0.26085746
000060 45 08 8e 3d e7 9a 80 be b5 60 ea 3e d6 a7 e6 be
       0.06935171 -0.2511818 0.45776907 -0.45049924
000070 f6 7c 80 3e fd c0 2a 3e 72 c8 3d be 94 aa af 3e
       0.25095338 0.16675182 -0.18533495 0.34309828
000080 05 d4 70 3d 94 54 11 3f 25 2c 4f 3e e3 ee 33 3f
       0.058795948 0.5676968 0.20231684 0.7028639
000090 28 3e 2d 3e b3 85 48 3e 30 ad 0f 3f 97 92 87 be
       0.16918242 0.19582252 0.5612364 -0.26479027
0000a0 1f b9 09 3f 9c db 05 3e 88 bb a1 be b1 7e 30 3f
       0.537981 0.13072056 -0.31588387 0.68943316
0000b0 9f e2 2e bf 05 a0 19 bf e1 6c 2d bf 44 ed fb be
       -0.68314546 -0.60009795 -0.6774426 -0.49204457
0000c0 c1 98 10 3f 9a b8 2a 3f 7b 0e ea 3e e5 e7 04 3f
       0.56483084 0.6668793 0.45714173 0.5191634
0000d0 11 87 a0 3e 22 9b bb 3d 21 9f 6e bd fe 3f 1c bf
       0.31353047 0.091604486 -0.058257226 -0.61035144
0000e0 3e 70 a2 3c e5 72 a6 3e eb 22 1b bf c2 35 c0 3e
       0.019828912 0.32509533 -0.60600156 0.37541014
0000f0 5e a3 f3 be a3 52 92 be 44 07 14 bb f9 eb 46 bd
       -0.47585577 -0.28578672 -0.0022587338 -0.048564885
000100 df ae 0e 3f 11 fe 31 bf 6c 7a 21 3f c7 06 fe 3e
       0.5573558 -0.695283 0.63077426 0.49614546
000110 67 be 0a 3f ac 7e fa 3d a5 ad 90 be 46 f0 23 bf
       0.5419678 0.12231192 -0.2825748 -0.64038503
000120 6e 72 09 3d fe 2f 79 3d 35 7d 1d bf 55 cd f3 be
       0.033556394 0.060836785 -0.61519176 -0.47617593
000130 7a 23 b7 3d 1a e0 9b be 4c 2e c5 be 75 56 31 bf
       0.089423135 -0.30444413 -0.38511884 -0.6927255
000140 df 08 9a be f5 57 9c be f8 99 1c 3e 9d 64 0a bd
       -0.30084893 -0.30535856 0.1529311 -0.03378736
000150 f4 a2 d9 be e1 10 ec 3d 2f e8 ea be b5 82 9f 3c
       -0.42507136 0.11526657 -0.45880267 0.019471506
000160 16 b2 fb 3d d8 1f 8f bd 45 59 57 be c2 64 e2 3e
       0.122898266 -0.069884956 -0.21030147 0.44217497
000170 4b a6 27 3f 10 08 ab 3e e8 1f 1d 3f 1d f5 72 3a
       0.6548812 0.3340459 0.6137681 0.0009268092
000180 99 e6 0c bf 48 d7 00 bf 33 bc fd 3e 16 9b 51 3e
       -0.55039364 -0.50328493 0.49557647 0.20469317
000190 af 80 fa be 25 b8 e1 3e ae bf 9c 3e e9 90 07 3e
       -0.48926303 0.44085804 0.3061499 0.13238873
0001a0 8b 89 09 3e a6 3f 17 bf 82 2a 1d bf 21 99 53 be
       0.13431375 -0.59081495 -0.61392987 -0.20663883
0001b0 3d dd d8 be a5 d1 0a 3f b4 ed 9b be b5 08 93 be
       -0.4235629 0.5422614 -0.3045479 -0.2871758
0001c0 dc 8f e4 be b9 19 28 3f 68 3b d7 3e 5c ef 23 3e
       -0.44641006 0.6566425 0.4203751 0.16009277
0001d0 7e 36 e7 ba 96 05 27 bf 72 a1 56 be cf 11 31 bf
       -0.0017640141 -0.652429 -0.20960024 -0.691678
0001e0 83 4b f5 be d2 28 e6 bd 60 e7 2f 3f bd 31 70 3d
       -0.47909173 -0.112382546 0.68712425 0.058641184
0001f0 48 08 20 3f 3d dd 25 bf 72 27 d6 3d c8 09 07 bf
       0.62512636 -0.6479071 0.10456742 -0.527493

bias f4 [64]
000000 d9 f6 21 bf f3 a3 ea 3e fb d7 0e 3f 98 01 b8 be
       -0.63267285 0.45828208 0.5579831 -0.35938716
000010 79 0c 03 3f 91 14 20 bf e5 cc 79 3e 52 d4 f3 3d
       0.51190907 -0.6253138 0.24394567 0.11905731
000020 05 3f b0 3e 98 bf 12 3f c3 7a 0c 3f 30 09 22 3f
       0.3442308 0.573236 0.5487482 0.6329527
000030 70 5c 14 3f 91 6f b8 be a7 1f 8a 3e 56 c4 34 3f
       0.5795355 -0.36022618 0.26977274 0.70612085
000040 0a e4 0e 3f 3b 93 1b 3f fd 69 2b 3f 59 60 90 3e
       0.5581671 0.6077153 0.669586 0.28198507
000050 5d 8b 23 3f 94 43 a8 3e 4b de 01 3f 64 88 1a bf
       0.63884526 0.32864058 0.5072982 -0.60364366
000060 11 92 4b bf 52 e7 e9 3e ac f2 f3 be e8 00 9e be
       -0.79519755 0.45684296 -0.4764608 -0.30860066
000070 66 39 9f be 24 6d 96 be 9a e2 48 be e7 07 23 3f
       -0.3109848 -0.29380143 -0.19617692 0.63683933
000080 35 c6 d6 3e 7b 95 07 3f 01 36 13 3f 0e 0c 09 bf
       0.41948095 0.52962464 0.5750428 -0.5353402
000090 fb c4 9f 3e 96 77 7a 3e 51 79 3f 3e fc d2 d3 bd
       0.31204972 0.24459681 0.18698622 -0.103429765
0000a0 29 f1 64 3e 81 c0 2b 3f 34 da d4 3e ff 38 8e be
       0.2235762 0.6709061 0.41572726 -0.2777786
0000b0 6c 3d 2a be e9 26 d1 3e f6 b2 05 3f c9 df e5 be
       -0.16624993 0.4085 0.522262 -0.44897297
0000c0 7a 8a 00 3f 4f f7 06 3f 8e 19 8d be c5 25 83 3e
       0.502113 0.5272111 -0.2755856 0.25614753
0000d0 f9 d4 46 3e 84 1b 09 3f f3 09 06 bf 96 59 73 be
       0.1941718 0.5355761 -0.5235893 -0.23764643
0000e0 0a bb b2 3e ac 92 51 3d 6d 0f 1d 3e 29 e8 0f bf
       0.34908324 0.051165268 0.15337916 -0.56213623
0000f0 8b b0 f6 3e 5f 4d c4 3d e2 cc 2e 3f 33 55 52 3e
       0.48181567 0.0958507 0.68281376 0.20540313

weight f4 [32, 32, 1]
000000 55 65 18 bd b0 7f 2e 3e af a4 39 3d 29 b9 87 3d
       -0.037206013 0.17040896 0.04532307 0.06627113
000010 d7 6a 0b be e0 95 3c 3d 05 f0 23 3e 39 ca d5 3d
       -0.13614975 0.04604137 0.16009529 0.104389615
000020 01 f3 94 bc ae a4 34 be bd d9 22 3e 63 71 1e 3e
       -0.01818228 -0.17640945 0.15903373 0.15472941
000030 19 b8 84 3d 4c 0f 3b 3e 0f c5 25 be 22 09 c8 bd
       0.06480426 0.18267554 -0.16188453 -0.09767367
000040 58 59 29 be 00 b3 03 3d 64 47 86 3c 89 90 87 3d
       -0.16537988 0.03215313 0.016391464 0.06619365
000050 33 5b 3d bd f0 4f 3d 3e 7d 3d 1b be 2a 35 cc bd
       -0.046229552 0.18487525 -0.15160175 -0.09971078
000060 61 1f 34 be b3 6c ac bd 68 4e 95 3d c3 a5 a6 bc
       -0.17590095 -0.0841917 0.072903454 -0.020342713
000070 22 f0 87 bd a4 5f 7c 3d a0 c6 6c bc ee 1f 8a 3d
       -0.066375986 0.061614648 -0.014451653 0.06744371
000080 fd 17 8d 3c 5c 7e a0 bd 15 39 c2 3c f3 e7 82 bc
       0.017223353 -0.07836601 0.02370886 -0.015979743
000090 6a 01 b4 bd 36 55 0f 3e 7d 65 4c 3c 9d b3 55 bd
       -0.08789332 0.13997349 0.012475369 -0.052173246
0000a0 65 48 1a be a0 b2 03 bd 05 da 0f 3e 6d fa a4 bd
       -0.15066679 -0.032152772 0.14048012 -0.080555774
0000b0 50 87 26 be 0c f0 fd 3d dd 74 e3 bd 21 3b 0a be
       -0.16262555 0.12399301 -0.11106274 -0.13499118
0000c0 81 59 22 be 5f af 90 3d d8 40 4c bd 6b 36 8e bd
       -0.15854456 0.070646994 -0.049866527 -0.06943973
0000d0 31 f9 f9 bd 13 9e 36 be 20 dd f1 bb fb 73 f7 3d
       -0.122057326 -0.17833738 -0.0073810965 0.120826684
0000e0 5e 87 06 be bb f5 0d 3e 69 d3 97 3d 78 5a 58 bd
       -0.13137576 0.1386327 0.0741337 -0.052820653
0000f0 48 b7 79 3b ce cf 2e 3e 83 b7 2c 3e f5 e3 a4 bd
       0.003810363 0.17071459 0.16866879 -0.08051292
000100 9f 43 bf bc 15 30 60 bd 8e 6c ad 3d 14 bb e6 3c
       -0.023347674 -0.054733355 0.08467971 0.028165378
000110 1f 41 85 3d 89 ff f7 bd 75 04 9e bd 18 a8 a7 3d
       0.065065615 -0.12109286 -0.07715694 0.08186358
000120 d9 2b 31 3d 63 76 00 3e 06 57 e1 bd 1a 9f 82 bd
       0.043254707 0.12545161 -0.110029265 -0.063780025
000130 01 fd 4e bd ed c2 07 3e 10 61 07 be a5 d5 d0 bc
       -0.050534252 0.13257952 -0.1322062 -0.025492499
000140 62 32 16 be b3 dd bd bd d7 ad b3 3d d1 30 16 3e
       -0.14667657 -0.092708014 0.08773392 0.1466706
000150 c4 a1 1b 3d 6d fc c1 bd 53 80 4c be 40 8d 69 bd
       0.03799607 -0.094719745 -0.19970827 -0.057019472
000160 20 57 8d bd 36 16 9a bd 71 7e cf 3c db e0 8d 3d
       -0.069013834 -0.07523768 0.025328847 0.069276534
000170 3a d0 68 bd 9d e9 67 3e 3d 67 7c bd ae 51 10 be
       -0.056839205 0.2264771 -0.061621893 -0.14093658
000180 93 60 be 3d 9a ce 68 bd 43 d9 dc bd 1e 39 fe bd
       0.09295764 -0.056837656 -0.10783627 -0.12413238
000190 c2 08 d1 bd 9a d8 e8 3c 7e 7f c1 3b c7 b0 43 3d
       -0.102067485 0.028423596 0.005905091 0.04777601
0001a0 ae 95 76 bd bf 10 3b be 08 e9 b0 bd bb ce 50 bd
       -0.06020134 -0.18268107 -0.08638197 -0.050978404
0001b0 ab 33 46 3d ce f1 3b 3e d9 0c bb bd 83 d8 6c 3c
       0.04838912 0.1835396 -0.0913331 0.014455917
0001c0 6c bd e1 bd 5b 7c 09 bd 4e de 45 bc 2e 50 96 bd
       -0.110224575 -0.03356586 -0.012076927 -0.07339512
0001d0 e2 2b 65 bc 0f f8 27 be 9f 65 af 3d 2d ed 77 3c
       -0.013987513 -0.1640322 0.085643046 0.015132231
0001e0 31 6d d6 bd ef fa ef bd eb ba 79 bd 46 99 ee bd
       -0.10470045 -0.11717784 -0.060969274 -0.11650328
0001f0 ba ae 17 3d 0c dc 52 bd 19 31 f8 3a 8e 53 1d 3c
       0.037031867 -0.051479384 0.0018935531 0.0096024405
000200 9f 1b cb 3d 36 df 4e 3d 81 78 e2 3c 55 23 bc bd
       0.09917378 0.05050584 0.027645351 -0.091864266
000210 22 da e9 bd f2 bf 5c bd 5d e5 b9 3c 4a 0c 0a be
       -0.11418559 -0.05389399 0.022692377 -0.1348125
000220 65 5b ee 3c f6 43 a7 3d cd 0b af bd 9a a7 0b 3e
       0.029096315 0.081672594 -0.08547173 0.13638154
000230 5c 8a 8f bd 97 a8 6e 3d 34 2c 26 be df 02 20 be
       -0.07008812 0.05826625 -0.162278 -0.15626095
000240 16 6d 00 be 03 79 e0 bc 7a 11 8c 3d 13 58 27 be
       -0.12541613 -0.027401453 0.06839271 -0.16342191
000250 78 b5 08 be 61 06 88 3d d4 cb e4 3d ab b8 28 be
       -0.13350475 0.06641842 0.1117169 -0.16476695
000260 67 2f 84 bd 2a 6d ef 3d c4 42 01 3e 5b 76 25 bd
       -0.06454354 0.11690743 0.12623125 -0.040396076
000270 d0 88 a1 bd ff 9f 0f 3d af e1 ed bc ad 3a 1c 3d
       -0.07887423 0.035064694 -0.029038278 0.038141895
000280 79 cc b5 bc a2 11 4f 3e f5 79 47 bd 5a e0 8b bd
       -0.022192227 0.2022157 -0.04870029 -0.06829901
000290 4d de 18 bd 7c 54 cb bc d7 73 16 3e 71 7e d8 bd
       -0.037321378 -0.024820559 0.14692627 -0.10570992
0002a0 79 e6 03 3e ef ab 06 3e 6a 16 c4 3d 9d 1c e5 3d
       0.12880887 0.13151525 0.09574588 0.11187098
0002b0 51 0b 43 3c 3f bd 89 bd fb 48 95 3d bb 49 00 3e
       0.0119045535 -0.06725549 0.072893105 0.12528126
0002c0 0a 0d 89 3d 46 f3 ee 3d a4 ff d0 bb 6e c4 9e 3c
       0.0669194 0.116674945 -0.006378131 0.019380774
0002d0 77 40 3f be 9d 6c 10 bd 85 2e e1 bd 31 23 49 be
       -0.18676935 -0.03525983 -0.10995201 -0.1964233
0002e0 ef 74 0a be b2 a9 13 3e d6 11 7b 3d 7f 23 5e be
       -0.13521169 0.14420202 0.061296307 -0.21693228
0002f0 07 06 09 3e 8c 02 bd 3d d6 ac e0 bd 19 e8 a3 bd
       0.13381205 0.092290014 -0.10970466 -0.080032535
000300 56 be 60 bd 0f b1 9e 3c 42 6b 6b 3d 88 54 17 3e
       -0.05486902 0.019371537 0.057475336 0.1477834
000310 e7 79 98 3d 4e d6 25 be 25 32 3d bd f4 bd 4b bd
       0.07445126 -0.16195032 -0.0461904 -0.0497417
000320 e6 27 c6 bd 0b b0 c1 bc 5d 86 95 3d 8a 6e 15 3e
       -0.09675579 -0.023643514 0.073010184 0.14592949
000330 c9 3f c3 3d 68 ab 2b 3d 97 15 10 be de 9e 16 3e
       0.095336504 0.041911513 -0.14070736 0.1470904
000340 26 bc bf bd 29 c9 36 3b d7 34 ca bd 03 f8 03 3e
       -0.09362058 0.0027890897 -0.0987336 0.12887578
000350 f0 0d ef bd 85 0f dc 3d 5a 10 0c be 27 af 3c bc
       -0.1167258 0.107451476 -0.13678113 -0.011516369
000360 23 c9 95 bd 62 0f 8e 3c a1 c0 3c 3d 67 c5 28 3e
       -0.073137544 0.01734132 0.046082143 0.16481553
000370 07 76 c5 3d 6d 68 17 3e f6 9a 04 be 63 bc a7 bd
       0.096416526 0.14785929 -0.12949738 -0.08190229
000380 d6 41 72 bc 34 a4 9e bd 8c ea 08 3e c9 17 12 3e
       -0.014786204 -0.07746163 0.13370723 0.14266886
000390 b0 63 c6 3d 27 b4 b9 bc a6 3e 1d be dd fe 21 be
       0.09686983 -0.022668911 -0.1535593 -0.15819879
0003a0 01 53 24 bd a5 bc 95 3d ae c8 c2 3d 5c dc 08 3e
       -0.04011822 0.07311372 0.09510933 0.1336531
0003b0 16 1b 31 bc 1b 01 2a bc 73 ec f6 bb 81 c6 1c 3d
       -0.01080968 -0.01037624 -0.007535511 0.038275246
0003c0 9e 2e e6 bb cc bf bd 3c 40 a4 0b be b0 b6 dc 3a
       -0.0070246 0.023162745 -0.13636875 0.0016839113
0003d0 0d 85 d6 bc 46 e5 d8 3d 69 8d 16 be e6 33 47 bd
       -0.02618649 0.105906054 -0.14702381 -0.04863348
0003e0 23 c3 56 3d 65 56 3b be 1a 2f 0f 3c 1d 61 dd 3c
       0.05243219 -0.18294676 0.008739257 0.027023846
0003f0 88 68 bd bb 80 71 06 be 5c bd 3e be a3 f5 1a 3e
       -0.0057802834 -0.13129234 -0.18626922 0.15132765

weight f4 [32, 32, 9]
000000 33 47 b2 3c 6b a9 83 3c 98 c7 39 3d 50 fd 87 3d
       0.021762466 0.016071996 0.045356363 0.066401124
000010 4e 6d 22 3d 52 ab 41 3c 20 90 04 3b 74 41 8b 3d
       0.039655022 0.011820631 0.0020227507 0.067995936
000020 74 7d 41 bd 53 b8 2b 3c 25 7a 4e 3d 47 01 2c bd
       -0.047238782 0.010480958 0.050409455 -0.041993406
000030 f8 70 61 bd 7d a1 98 bc c5 a1 f7 3c 04 65 5c 3c
       -0.055039376 -0.018631691 0.030228505 0.013451818
000040 63 19 2b 3d a2 f2 3c 3d 87 e5 85 bb 92 b8 ae bd
       0.041772258 0.04612983 -0.0040861997 -0.08531298
000050 f1 bc b3 bb 7d 47 a3 3d a2 15 8a 3d 49 fc 57 bd
       -0.00548517 0.0797262 0.067424074 -0.052730832
000060 61 51 01 bc 9e 4a 2a bb 47 a5 51 bd 7c 67 55 3d
       -0.007892937 -0.0025984417 -0.05118301 0.052100644
000070 a4 78 a8 bc 95 0c 5e bd 8d 7b 02 3d d0 76 41 3c
       -0.020565338 -0.054211218 0.03185611 0.011808112
000080 36 2e f0 bc 19 a8 50 bc d7 8f 36 bd 3d 3d b8 bb
       -0.02931891 -0.01273539 -0.04457077 -0.0056225345
000090 ee 24 62 3d e2 c9 ae bb 9c d2 fb 3b 26 d0 72 3b
       0.055211 -0.005334125 0.0076850187 0.0037050336
0000a0 99 4b 7e 3d 23 57 d2 3c 69 61 98 bc 0f ef fd 3c
       0.062083814 0.025676316 -0.018601136 0.030997781
0000b0 5c 11 c4 bc ff e3 dd 3c c7 a6 a6 bd cd 72 d6 bd
       -0.023934059 0.027086256 -0.08137279 -0.10471115
0000c0 0c 5a dd 3a 14 41 a7 3c 4a 70 3d 3c f6 55 03 bc
       0.0016887798 0.020416774 0.011562416 -0.0080161
0000d0 59 78 4e 3c 12 2e 9c 3d a0 3e 90 3c 07 61 db 3c
       0.012601935 0.07625975 0.017607987 0.026779665
0000e0 86 24 0a 3d da 44 61 3c 95 70 8d 3d 5f a9 83 3d
       0.033726238 0.013749326 0.06906239 0.06428789
0000f0 d8 44 bb bc 07 c1 41 39 e4 16 b7 3c 9a 25 f6 bd
       -0.022859976 0.00018477823 0.022349782 -0.12018891
000100 5a f2 22 3d c2 d1 c9 3d 82 42 9e bd b1 f5 59 3d
       0.039781906 0.09854461 -0.07727529 0.053212825
000110 55 70 13 3d 74 67 ec bc de f4 83 3b a9 6e af bc
       0.0359958 -0.028857924 0.004026993 -0.021415072
000120 2b a3 38 3c a8 21 e2 bc 25 01 7e 3d b8 ba 04 3c
       0.011269371 -0.02760394 0.06201281 0.008101158
000130 32 a8 0c 3d 58 90 9e 3c 3f 64 82 bd e5 4f 08 bc
       0.03434009 0.019355938 -0.06366777 -0.00831983
000140 09 51 11 3d ec a1 c4 3b d2 90 17 3c 35 94 15 3d
       0.03547767 0.006000748 0.009250836 0.036518294
000150 d6 0d 28 be f1 33 27 be a6 5a 16 bd cd 69 a2 3d
       -0.16411528 -0.16328408 -0.036707543 0.07930336
000160 e5 f8 d5 3a 88 81 96 bd 8c 20 f1 3c f7 87 2d bc
       0.0016324787 -0.07348925 0.029434465 -0.010591499
000170 f1 63 b8 bc ea e0 45 3c 4f 1b 00 3d 64 44 fa bc
       -0.022508593 0.0120775495 0.031276044 -0.03055019
000180 a8 72 b7 3a b4 c5 02 3c 42 a1 45 3d 7d 75 3b be
       0.0013995962 0.007981706 0.04824949 -0.18306537
000190 db 1f 9d bd 42 71 ed 3b 08 76 cf 3d 53 f8 de bd
       -0.076720916 0.0072461674 0.101299345 -0.10887208
0001a0 aa 6e 54 bd 6f 5e 65 be d1 b7 1d 3e ce f9 1f be
       -0.05186335 -0.22399305 0.15402152 -0.15622637
0001b0 37 2c dd bb 9c 69 00 be eb 1d c8 3c 70 3c 7b 3d
       -0.0067496556 -0.12540287 0.024428328 0.061336935
0001c0 23 fc f4 3d 87 90 43 bd 8b fe 8a be b0 82 f6 3d
       0.11962154 -0.047745254 -0.27147326 0.120366454
0001d0 17 ea 0e bd 3e fa c6 bd 03 6d 0e 3d 8b 6b d1 bb
       -0.034891214 -0.09715699 0.03477193 -0.006390994
0001e0 2e d2 21 bd a5 ec 2c 3d 1b 00 3b bd 28 f5 a2 3d
       -0.039507084 0.04221787 -0.045654397 0.07956916
0001f0 19 56 19 bd db 25 9e bd cf 71 23 3d 8e 3f ec bb
       -0.037435625 -0.07722064 0.03990346 -0.0072097247
000200 0b 75 e2 bd 0a 7a 84 3c 21 9d ad 3d 8d d5 8d 3d
       -0.110574804 0.016171474 0.084772356 0.06925497
000210 4f 01 23 bd e8 55 56 bd 7d 23 9c bc dc c2 99 bd
       -0.03979617 -0.05232802 -0.01905989 -0.075078696
000220 bf d5 1d bd 4a f9 c6 3d 62 72 ed 3d e4 75 50 bd
       -0.038533922 0.09715517 0.115940824 -0.05089368
000230 89 b8 59 3d ad f1 9a bb 6b 82 03 3d c0 ce 2c 3e
       0.053154502 -0.004728517 0.0321068 0.16875744
000240 93 13 08 bd 75 db 0d bd 94 9d 40 3b 08 2e 0e bd
       -0.033221792 -0.03463312 0.00293908 -0.034711868
000250 9c 0b 3d 3d 74 8b e8 bc bf a8 6f bd 38 bb 28 3e
       0.04615365 -0.028386809 -0.05851054 0.16477668
000260 04 3f cb bb 86 2e 66 3d 47 82 53 bd a6 9e 2e 3c
       -0.0062025804 0.056196712 -0.051637914 0.010657942
000270 63 7a 9b ba a9 74 2d bd c0 29 07 3d 7c c2 75 3d
       -0.0011862036 -0.042347584 0.0329988 0.059999928
000280 c5 bd 9e bb 1d 98 4a 3d 50 51 77 3c 28 88 b3 bd
       -0.0048443996 0.049461473 0.01509507 -0.08766204
000290 a3 79 da bd a8 e2 fe bc 0a 15 cd bd c5 8a 45 bd
       -0.106677316 -0.031113937 -0.100137785 -0.048228044
0002a0 20 b5 fc bc 9a d2 4e 3d 5c 35 07 3d 26 6f 2c 3e
       -0.030848086 0.050493814 0.03300987 0.16839275
0002b0 25 a7 16 be e8 f4 56 bd 0f e6 19 3d 40 fd 45 be
       -0.14712198 -0.052479655 0.037572917 -0.19334888
0002c0 7d 0a 88 3d fc 22 92 bc 4a eb 42 bd 8f 02 f0 3d
       0.066426255 -0.017838947 -0.04758767 0.11719238
0002d0 bf ab cd 3c 1d 17 8c 3d bc 18 0e be 61 ee 8a bd
       0.025106309 0.06840346 -0.13876623 -0.067837484
0002e0 d8 74 02 be 76 27 32 3d f9 d7 24 bd e2 7d 05 3e
       -0.12739885 0.043494664 -0.04024503 0.13036302
0002f0 9c b0 bd 3c 51 ab 76 3d 3d fb 6d bc 36 eb 2d bd
       0.023155503 0.060221974 -0.014525232 -0.042460643
000300 43 78 08 bb 68 2e f7 bb fc 51 12 bd 57 0a 87 bd
       -0.0020823635 -0.007543374 -0.035722718 -0.06593769
000310 3e bc 12 bd 43 91 76 3d cf 08 6e 3d 7a 28 6e bd
       -0.035824053 0.060197126 0.05811387 -0.05814407
000320 6f 7a 48 3d 13 b8 0c 3c ae 61 53 3d b8 e1 24 bd
       0.048944887 0.008588809 0.051606826 -0.040254325
000330 58 57 83 bd 95 1a 96 3d 3d b5 62 bd 80 d5 a8 bd
       -0.06413144 0.07329289 -0.055348624 -0.08243847
000340 f1 41 01 3d 29 41 a5 bc e8 e6 4c 3d 3c 90 29 3e
       0.031557027 -0.020172672 0.050024897 0.16558927
000350 58 71 23 3b dc 2f 21 3c ad 9c 55 3c 29 12 d0 bc
       0.0024939384 0.009838071 0.013037843 -0.025399284
000360 4f fb 35 3c 63 8f 35 bd 00 81 ce 3d f3 4f 8e 3b
       0.01110728 -0.044326197 0.100831985 0.004343027
000370 87 43 d2 ba 6e 6d 41 bc 1d 6d f5 bc 3c 68 c1 bb
       -0.0016041853 -0.011805875 -0.029959256 -0.0059023183
000380 70 ca 54 3c 56 81 01 be b6 25 bf 3d 49 d8 d8 3d
       0.012987718 -0.12646994 0.09333365 0.10588128
000390 1e c9 bc 3d 03 47 c1 bb 09 d5 c2 3c b0 f8 af 3b
       0.092180476 -0.005898358 0.023783224 0.005370222
0003a0 ef f8 51 bd b5 fd 03 bd 24 90 cb 3c 07 73 e8 bd
       -0.051262792 -0.032224376 0.024849005 -0.11350065
0003b0 af da 62 be e1 28 21 3e c4 fe fa 3d 22 4f 20 3e
       -0.22153734 0.1573825 0.12255624 0.15655187
0003c0 2e 34 5d 3d 1a 5a 85 bd 26 66 c7 bd 65 cf 93 3d
       0.05400484 -0.06511326 -0.0973628 0.07217292
0003d0 25 b5 f1 bc fb 00 8a ba 44 c9 a6 3d 21 c4 8c ba
       -0.029505322 -0.0010528857 0.08143857 -0.0010739603
0003e0 91 96 50 bd d4 33 12 bd a1 ef c6 3c 7d 9b e9 3c
       -0.05092484 -0.03569396 0.024284186 0.028516525
0003f0 d1 70 f2 3c ee 89 a4 3c 96 58 ac 3c 7e 9b 55 bc
       0.02959481 0.020085301 0.021038335 -0.0130375605

bias f4 [32]
000000 fc dc 39 3a 77 3c 3c 3d 29 ea 8f bc d9 11 73 bb
       0.0007090119 0.0459561 -0.017567711 -0.0037089495
000010 67 5b d2 bc 5e c1 0a bd 29 47 09 3d 6d 14 0c 3d
       -0.02567835 -0.033875816 0.03351513 0.034199167
000020 0e 88 23 bd 4c 09 da bc 7e b5 98 bd 63 32 83 bc
       -0.039924674 -0.026615761 -0.07456492 -0.016015237
000030 32 2e 19 3d c7 f3 1f 3d e6 a8 b6 3c 65 4d 25 3b
       0.03739757 0.039050844 0.022297334 0.0025223133
000040 28 e7 1b ba 35 03 fc 3b ea 52 04 3d e8 1c 3e 3d
       -0.0005947226 0.007690812 0.032305636 0.046414286
000050 ab ba c1 3b 86 5d 45 bd d8 f6 3f bd 9b da f4 bc
       0.005912145 -0.048184894 -0.046866268 -0.029889395
000060 ed 72 6e bc ef 19 31 3d 60 00 52 bd 9b 22 51 bd
       -0.014553768 0.043237623 -0.05126989 -0.051058393
000070 c6 cb d3 3c 14 91 b4 3c 7d 24 05 3d 56 7a 3a 3d
       0.025854003 0.022041835 0.0325055 0.045526825

weight f4 [64, 2]
000000 11 a8 1a bf c5 61 e9 3e 40 fd 75 be 67 c0 c9 be
       -0.604127 0.45582405 -0.24022388 -0.39404604
000010 26 3d 38 3e 8a 14 b7 3d 41 2d 12 3f c2 37 62 be
       0.17992076 0.089394644 0.571003 -0.22091582
000020 2f 97 f1 be d9 dd 60 3e 27 30 88 be 8d 94 32 be
       -0.47185656 0.21959628 -0.26599237 -0.1743948
000030 50 03 b1 be 7c bf 97 3e e5 63 1e 3f e7 e5 30 3f
       -0.3457284 0.29638278 0.61871177 0.69100803
000040 41 7e d8 be ac 63 95 be 8e b8 80 3e 51 d1 fa be
       -0.42283824 -0.29177606 0.25140804 -0.4898782
000050 31 37 9b 3e 1a 47 a1 be 9d c8 07 3f a8 47 f1 3e
       0.30315545 -0.3149956 0.53040487 0.47124982
000060 29 42 e3 3e 9d 94 b3 3e 30 ae 53 3d fd b0 cc 3e
       0.44386414 0.3507432 0.05167979 0.3997878
000070 4b e8 01 3f d5 50 12 bf f9 83 28 3f 57 f7 7b be
       0.50745076 -0.5715459 0.65826374 -0.24606071
000080 9f 36 31 3e b4 b4 2e be 3f 37 fe be 05 44 26 bf
       0.17305993 -0.1706112 -0.49651524 -0.6494754
000090 ee d1 28 bf 4f c3 3f be bb d4 d8 be f0 19 90 3d
       -0.6594533 -0.18726848 -0.423498 0.07036197
0000a0 e7 dc 1c be 5c 99 11 bf 99 74 a6 be 40 e9 1c bf
       -0.15318643 -0.5687463 -0.32510832 -0.6129341
0000b0 62 74 53 3d e5 d5 21 be 79 31 04 3f 58 b5 60 3d
       0.051624663 -0.1580425 0.5163799 0.054860443
0000c0 06 05 c4 be 3c 4c 9a be 4a 08 bb be 15 1b 95 3d
       -0.38285083 -0.30136287 -0.36529762 0.07280556
0000d0 c2 aa 19 bf 2f 9a 8d be 6d 79 e1 3e 35 c9 27 bf
       -0.6002618 -0.27656695 0.44037953 -0.6554139
0000e0 ad 67 42 bd 5c d1 a6 be b1 26 cc 3e 10 f5 81 be
       -0.047462154 -0.32581604 0.3987327 -0.2538228
0000f0 f1 ad c7 3e 27 21 28 bf b1 a3 29 be ac 6e 2c bf
       0.38999894 -0.65675586 -0.1656635 -0.6735637
000100 d5 0a 23 3d 57 ab 05 3f df 97 2b 3f 01 63 40 3e
       0.039805252 0.5221457 0.6702861 0.18787767
000110 1c cc e8 3d e0 be 3d 3d 67 11 0c 3f 62 dc 02 bf
       0.11367056 0.04632461 0.54714054 -0.5111753
000120 1f 84 e7 3e 65 9d 11 bf 16 60 9a 3e a2 5d 7f 3e
       0.45217988 -0.5688079 0.30151433 0.24938062
000130 4b f8 26 be c1 e9 91 3e 29 96 d9 be 75 75 7a be
       -0.16305654 0.28498653 -0.42497376 -0.24458869
000140 d7 86 9d be 90 01 d6 be 8c 19 0a 3f ae c4 f5 3d
       -0.30766937 -0.41798067 0.5394523 0.12000404
000150 9f 0a 17 bf 93 fe 2f 3f 05 e9 de 3e b2 77 03 3f
       -0.5900058 0.68747824 0.43537155 0.51354516
000160 1f c6 18 3f 1f 15 ec be 01 52 10 bf 63 91 cc be
       0.5967731 -0.46109864 -0.5637513 -0.3995467
000170 b8 b5 c7 3d e2 8f 1a 3e 1c 89 2f bf 69 17 4c 3e
       0.09751457 0.1509395 -0.6856859 0.19930805
000180 bf 67 b1 be 12 d3 c2 3d 65 77 0c bf 70 31 b4 3e
       -0.34649464 0.09512915 -0.5486968 0.35193968
000190 02 e8 b9 be 41 40 25 be 5e d0 08 bf 5a c0 2d bf
       -0.3630982 -0.16137792 -0.53442943 -0.6787163
0001a0 c5 db 15 be 77 f0 e2 3d 50 f5 00 3d 59 67 e3 3e
       -0.14634617 0.11081021 0.03148395 0.44414786
0001b0 92 43 31 be ea ec 23 3f 30 6f 15 3f be 97 2d 3f
       -0.17310932 0.6403338 0.58372784 0.67809665
0001c0 41 f2 ed 3e 39 83 09 be 47 b0 5d 3e e5 5c c6 be
       0.46473888 -0.13428964 0.21649276 -0.38742748
0001d0 13 1c a2 be 05 54 81 be 9b cb 33 bf 89 2a 18 3e
       -0.31662044 -0.25259414 -0.7023255 0.14859976
0001e0 b8 b0 81 be 90 35 bb 3e 0d 65 18 3f 10 70 1f bf
       -0.25330138 0.36564302 0.5952919 -0.6228037
0001f0 ea 5f 2a bf 28 3d b2 bd 91 43 30 bf 58 ca a4 be
       -0.66552603 -0.08703071 -0.688531 -0.32185626

bias f4 [64]
000000 44 fe 00 bf 63 12 ab be 88 60 37 3f d7 08 73 be
       -0.5038798 -0.33412465 0.7163167 -0.23733841
000010 1f 45 a0 be 67 fb 1a 3f 60 7d 7f be dd 2a fb 3e
       -0.31302735 0.6053986 -0.2495017 0.4905614
000020 14 5b 18 bf 67 7a 05 3f c9 fd 7b 3f 90 46 b0 3e
       -0.59513974 0.52139896 0.9843412 0.34428835
000030 01 2d d3 3e 2f bf 2e 3f 20 d6 08 3f 65 d3 f1 3e
       0.41245273 0.68260473 0.5345173 0.47231594
000040 75 46 a8 3e e7 28 19 bf 6a 9c e2 be 9e 02 01 bf
       0.32866254 -0.5982804 -0.4425996 -0.5039462
000050 fb b6 f9 be 76 84 e6 bd 70 92 07 bf 4e a3 0b bf
       -0.48772416 -0.11255734 -0.5295782 -0.5454606
000060 09 57 30 3f 3d e6 11 3e 94 16 2f 3e 32 19 0a bf
       0.68882805 0.14247985 0.17098457 -0.53944695
000070 cc 96 17 bf fc 89 3c be 16 1d f8 be 9b 3b 2e bf
       -0.5921447 -0.18412012 -0.4845969 -0.680597
000080 e9 d7 74 be 37 eb a7 3e 86 c5 36 bf 4a 17 2d 3f
       -0.23910488 0.32796642 -0.71395147 0.6761366
000090 36 fc d5 be b4 92 12 bf a1 7a c9 3e 0f 2d 27 3f
       -0.41793984 -0.572551 0.3935137 0.6530313
0000a0 7a b8 31 3f f5 28 85 be f4 34 ba be 1a 46 b2 3e
       0.69422114 -0.2600781 -0.36368525 0.34819108
0000b0 66 43 05 bf 44 c2 95 3e d4 a5 2f 3e 7e 44 cf bd
       -0.52055967 0.29249775 0.17153102 -0.10120486
0000c0 94 1d 59 3d c7 2f b7 be 1b 4b 11 bf ab c3 b4 be
       0.053006724 -0.3577864 -0.56755227 -0.35305533
0000d0 00 0a 33 bf 04 46 aa be de f8 86 be bf f1 24 3f
       -0.69937134 -0.33256543 -0.26361746 0.64431375
0000e0 47 31 b5 3e 0e 41 82 be 93 3a c0 3e a4 a1 d4 3e
       0.35389158 -0.25440258 0.3754469 0.41529572
0000f0 de ff c7 be 24 48 25 bf 82 46 92 be 56 d2 d2 be
       -0.390624 -0.645632 -0.28569418 -0.411761
